Model Results/NCF Hybrid Embedding/Cluster_3/best_random_model.pt (torch, 939835 bytes, 23 tensors)

customer_embeddings_gmf.weight f4 [6566, 5]
-0.55782217 -0.4332738 0.6347163 1.3164266 0.865408 0.95831466 -0.013058766 0.80295646
1.4974208 0.813702 -0.45767814 0.13287514 -0.1828201 0.71808404 -0.6542763 -1.3907859
1.5387751 -1.8632121 -0.8114231 -1.3795263 0.3380377 0.5332839 0.58254445 0.03488908
0.46240544 -1.8013756 0.43259114 -1.2757554 0.17444283 0.26762605 -0.14997391 -0.38100418
2.0872984 1.4229475 -0.14807944 1.0886472 0.1311898 0.95493513 -1.0217518 -0.95699894
-2.1478014 -2.0609994 0.75667673 -0.41702557 0.8826049 -0.4212268 0.19794732 1.8129914
-1.0757867 0.5654036 1.4236873 0.36743385 -0.7893265 2.3688018 0.21751413 -1.1544405
2.9850585 -0.6890471 -1.1266731 0.78901386 -0.03879712 1.9526681 0.5071283 -0.1274614
1.3185258 0.13465807 -0.18022846 -0.8519811 3.0829282 0.29981872 -0.8968003 -0.33745614
-1.1032022 -0.38877165 0.33148915 -0.55459464 0.36094847 0.40222073 1.1414412 -1.4989253
1.8233036 0.14641295 -1.2281249 0.6523184 0.04892302 0.5356921 0.5492919 0.35119385
0.15323836 -1.4112254 -0.778437 0.46212065 0.26091823 0.009779437 -0.018966338 0.18265562
0.88300914 -0.7871165 -0.11214662 -0.38847467 0.5484524 1.482742 0.41294625 0.19300812
-0.50727904 0.06873101 -0.099302575 -0.9391884 -0.9893035 -0.13106142 0.14239088 0.15999247
-0.42279848 -1.9553324 0.14865592 -0.07253433 -1.9442863 -0.15831134 -1.0377203 0.11949207
-1.4961519 0.88218766 -0.4117121 0.5251672 1.6687276 0.37197992 -0.0053752223 2.349142
-0.7017166 -0.78886414 0.54482204 0.90903103 -0.64095557 1.3292896 -1.5705988 2.5010633
-1.5428014 -0.48832285 -0.79096127 -0.41997108 0.10489528 0.8794507 0.2488915 -1.1787691
0.7824288 -1.8574799 -0.65618443 0.39283526 0.26984408 0.27587253 1.4797901 0.6795226
-0.75469375 0.05036111 0.17656548 -0.91475177 0.68047786 1.0586225 0.121448345 1.3393265
0.11962589 0.9279628 0.66334087 0.26661915 0.036290128 -2.2706015 -1.6492076 -0.40646103
-0.92497873 1.982208 1.2405996 0.957067 -0.22966564 -1.4020612 -0.30526194 -1.9425845
0.57146174 -0.68849975 1.0288491 -0.9317106 0.8585847 1.6122156 -0.9920732 -0.60071343
-0.045107555 -0.59563404 1.8357399 0.9471934 -1.0291029 -0.77852595 -2.1161582 -0.6377294
0.65133697 -1.9889836 0.9459833 -0.81300354 0.949449 1.8885535 -1.566804 -0.1976849
0.32826203 0.24639535 0.7442608 -0.38768554 -1.1753265 1.9270866 0.3791188 2.128484
-2.1511612 0.6892297 0.17479049 -0.58896023 -0.22354575 0.56964177 1.4172052 0.25329736
1.9541758 -0.9726041 -0.9694225 -1.1366571 -1.0338672 0.43913576 0.05304995 0.38020852
-0.28002518 -0.27210927 1.7004474 -0.95521677 -0.18113245 0.49519938 -0.75335974 -0.98939836
-0.6038056 0.3466102 0.17535138 -0.6458632 1.7203672 1.0305254 -0.36174896 1.0614034
0.97603196 0.5253552 -0.286783 0.96217614 0.38543177 -0.1914559 -0.40107128 0.14995062
0.9761292 -0.18220042 1.1771938 -0.47293004 0.65035003 -0.76003814 -0.46625787 0.48297817
00000000: 6fcd 0ebf 10d6 ddbe c47c 223f ab80 a83f
00000010: 618b 5d3f 1c54 753f 6ff4 55bc 8e8e 4d3f
00000020: 7cab bf3f c64e 503f ca54 eabe 6c10 083e
00000030: 3135 3bbe 5bd4 373f a77e 27bf 4605 b2bf
00000040: 95f6 c43f bc7d eebf 6db9 4fbf 5194 b0bf
00000050: 4713 ad3e 4b85 083f a221 153f dae7 0e3d
00000060: 68c0 ec3e 7a93 e6bf 967c dd3e f44b a3bf
00000070: 24a1 323e 4806 893e c392 19be fb12 c3be
00000080: 4c96 0540 2523 b63f 23a2 17be cb58 8b3f
00000090: 9e56 063e a176 743f c3c8 82bf e2fd 74bf
000000a0: 9475 09c0 6ae7 03c0 91b5 413f 6084 d5be
000000b0: 65f2 613f 0aab d7be b4b2 4a3e 1a10 e83f
000000c0: 61b3 89bf 4abe 103f 633b b63f 4a20 bc3e
000000d0: 4d11 4abf 739a 1740 06bc 5e3e b5c4 93bf
000000e0: 330b 3f40 6465 30bf d336 90bf d0fc 493f
000000f0: bbe9 1ebd 07f1 f93f 29d3 013f 3e85 02be
00000100: 74c5 a83f cee3 093e cf8d 38be 6f1b 5abf
00000110: b24e 4540 d781 993e b494 65bf 0dc7 acbe
00000120: bb35 8dbf 140d c7be f2b8 a93e eaf9 0dbf
00000130: 3dce b83e e0ef cd3e bf1a 923f c9dc bfbf
00000140: 0362 e93f 47ed 153e 3233 9dbf 57fe 263f
00000150: 8163 483d 1e23 093f 659e 0c3f aecf b33e
00000160: 84ea 1c3e 09a3 b4bf a647 47bf 149b ec3e
00000170: 1397 853e ef39 203c 4b5f 9bbc 130a 3b3e
00000180: e30c 623f 7880 49bf 21ad e5bd 27e6 c6be
00000190: 6067 0c3f 7dca bd3f b16d d33e eca3 453e
000001a0: 0add 01bf d8c2 8c3d 265f cbbd a76e 70bf
000001b0: ff42 7dbf f734 06be eace 113e 11d5 233e
000001c0: 0b79 d8be 5548 fabf 4239 183e e18c 94bd
000001d0: 60de f8bf 5e1c 22be 05d4 84bf 42b8 f43d
000001e0: e881 bfbf 0dd7 613f eecb d2be 5c71 063f
000001f0: de98 d53f 2774 be3e a222 b0bb 5858 1640
00000200: b3a3 33bf 00f3 49bf 7579 0b3f 42b6 683f
00000210: aa15 24bf 2926 aa3f 6209 c9bf 6c11 2040
00000220: 847a c5bf 7405 fabe 707c 4abf 7306 d7be
00000230: 56d3 d63d ae23 613f 6add 7e3e e8e1 96bf
00000240: 414d 483f e7c1 edbf b4fb 27bf b421 c93e
00000250: 0129 8a3e 2a3f 8d3e c369 bd3f 31f5 2d3f
00000260: 9c33 41bf 7447 4e3d 95cd 343e 2c2d 6abf
00000270: cc33 2e3f f180 873f e9b9 f83d 0d6f ab3f
00000280: 6bfe f43d f88e 6d3f b5d0 293f 4e82 883e
00000290: f5a4 143d 8951 11c0 3c19 d3bf a91b d0be
000002a0: 68cb 6cbf feb8 fd3f f8cb 9e3f 5802 753f
000002b0: 782d 6bbe be76 b3bf 4b4b 9cbe 9ca6 f8bf
000002c0: 514b 123f 8541 30bf 54b1 833f 9684 6ebf
000002d0: 35cc 5b3f 155d ce3f 82f8 7dbf 5bc8 19bf
000002e0: b3c2 38bd 797b 18bf 86f9 ea3f 447b 723f
000002f0: a5b9 83bf 7a4d 47bf 236f 07c0 3c42 23bf
00000300: 05be 263f 0497 febf f62b 723f 0021 50bf
00000310: 170f 733f 1fbc f13f 098d c8bf e96d 4abe
00000320: f611 a83e 104f 7c3e e087 3e3f b87e c6be
00000330: 1971 96bf c6aa f63f dc1b c23e 1539 0840
00000340: a0ac 09c0 5c71 303f 47fc 323e 19c6 16bf
00000350: 2de9 64be 0bd4 113f fb66 b53f 31b0 813e
00000360: 6f22 fa3f 95fc 78bf 132c 78bf fb7d 91bf
00000370: c355 84bf 67d6 e03e e84a 593d b1aa c23e
00000380: 765f 8fbe e851 8bbe 43a8 d93f 1689 74bf
00000390: c97a 39be c68a fd3e 2fdc 40bf 3649 7dbf
000003a0: 0193 1abf e476 b13e 508f 333e 4a57 25bf
000003b0: fe34 dc3f 42e8 833f 2937 b9be 11dc 873f
000003c0: 3bdd 793f ae7d 063f 39d5 92be 2d51 763f
000003d0: 5057 c53e 040d 44be 3759 cdbe a88c 193e
000003e0: 9ae3 793f bf92 3abe 49ae 963f e323 f2be
000003f0: 577d 263f dc91 42bf 5ab9 eebe ea48 f73e

product_embeddings_gmf.weight f4 [14697, 5]
0.04575261 0.70796454 0.9673681 1.8121094 0.7911202 0.53543955 1.7667425 0.9657159
0.390124 -0.6907898 -2.2088177 0.13935511 -2.1182902 0.09422227 0.5907092 2.3387482
1.2892171 -0.63010824 -0.8870508 -1.0439469 0.47764766 0.67849123 -0.52278763 -0.23397198
-0.12480965 0.80741507 0.04809379 0.36695713 1.6660573 0.08632369 0.5395677 1.2621752
-0.3210802 -0.29551435 -1.9819824 -0.10014142 0.30212593 0.89273167 -0.6652203 1.7498024
-0.090933636 0.4263863 -0.15471745 -0.54524094 0.39164758 -0.29020637 -0.28916508 0.8935019
-0.6056992 0.076418184 0.5382547 0.98571503 0.27368975 1.0526993 -1.2813287 0.4271369
0.6712193 -0.11120285 0.07532033 0.36314857 -0.080557145 1.3112441 1.0434302 0.66020167
-0.25060984 -0.42583394 -0.54224294 -0.263558 1.1688446 1.068566 1.007837 -1.4176219
1.2225748 1.2357469 -0.38003176 -0.59961283 0.4333386 0.25636974 -0.81506586 -2.3238263
-0.564685 -0.15572749 -2.3159125 -0.91602534 0.27489296 -0.21701817 -1.317087 0.89200646
-0.14273074 1.0825919 0.02528453 -1.1870052 0.1958934 -0.44953036 1.8590126 2.2146683
0.7890466 0.77200216 -0.23609023 0.9669253 -0.5396622 0.2580815 -0.73368204 1.4589133
0.44033974 0.15546694 -0.80448824 -1.1652502 0.42596847 -0.24076466 0.49106455 0.061169412
-0.79460716 0.22780493 -0.22693053 -1.1176016 -0.0339935 -0.20662214 0.009805472 1.131866
-0.17838578 -0.76877457 -0.5899207 0.92632145 0.74760324 -1.2775948 -0.074035265 0.9254617
-1.8767406 -0.07273976 -0.08265949 -0.035222188 -1.2181306 -0.89914286 0.32995975 1.3350418
0.6690275 1.5240061 0.42523056 0.025197385 1.0462949 0.94633704 0.6465622 -1.171143
-0.5088692 0.7599167 0.80170786 1.5902929 -0.084095046 -0.18514359 -0.78682566 0.35114098
0.5364209 -1.1505452 0.60648763 1.8761157 0.38039625 -0.24966443 -1.1471063 -1.0491296
0.037296377 -1.0492014 -0.83073735 -0.11800829 -0.37276295 -0.10990999 1.7648723 -1.2292199
-1.2389413 -0.4899051 -0.6004913 1.6162579 -2.0157366 0.51146233 0.4435751 1.0144013
1.9431568 0.12597874 1.0595677 -1.2395374 1.8100296 -0.22264066 -0.12328387 -0.07024625
-2.7192814 -0.2906343 0.25020805 -1.7778877 0.40532434 1.8489004 0.048123926 0.59840214
0.8554195 -0.8283903 -2.0762684 0.87230206 0.21834445 -1.1535556 0.31290194 1.7313288
-0.4337861 0.2316067 2.4385617 -0.230295 -0.21832061 -0.115542166 0.64115334 0.18886624
-1.1937667 -0.836539 0.09513555 1.5440782 -0.8188064 0.35889062 0.2876065 1.7139993
-0.34215596 -2.0005372 -0.62825245 1.0373502 -0.11467661 0.5926071 -0.034398787 -1.2398304
-0.45266938 -0.2371448 0.61131966 0.012394417 -0.38654736 -0.7161715 -0.7716322 1.4007584
-0.47868162 0.85018903 -0.83565176 -0.18088603 -0.19976385 0.41720337 -0.86259145 -0.24869677
1.6009644 0.89146477 2.0532694 2.0505693 0.087584265 0.48212367 0.46415406 0.77970713
-0.09669512 0.6936815 -0.83039594 0.3586649 -0.28124928 1.0088859 -1.160631 -2.0036876
00000000: 1767 3b3d 2a3d 353f 70a5 773f 33f3 e73f
00000010: da86 4a3f 9112 093f 9e24 e23f 2839 773f
00000020: 55be c73e 9ad7 30bf 455d 0dc0 1bb3 0e3e
00000030: 1192 07c0 9bf7 c03d b838 173f 0dae 1540
00000040: 1105 a53f c64e 21bf c315 63bf 0da0 85bf
00000050: 3c8e f43e 9ab1 2d3f 69d5 05bf 5a96 6fbe
00000060: 349c ffbd c1b2 4e3f fefd 443d cee1 bb3e
00000070: 5e41 d53f 7aca b03d 1c21 0a3f f58e a13f
00000080: a064 a4be a84d 97be 99b1 fdbf f216 cdbd
00000090: 40b0 9a3e 108a 643f e14b 2abf 86f9 df3f
000000a0: 6a3b babd 4e4f da3e 406e 1ebe e994 0bbf
000000b0: 0886 c83e ee95 94be 720d 94be 8abc 643f
000000c0: 1a0f 1bbf 2381 9c3d 0fcb 093f d257 7c3f
000000d0: 1021 8c3e dabe 863f 9402 a4bf b0b1 da3e
000000e0: 07d5 2b3f 52be e3bd 8c41 9a3d 9cee b93e
000000f0: 25fb a4bd d9d6 a73f 1f8f 853f fa02 293f
00000100: ef4f 80be e806 dabe 6fd0 0abf 13f1 86be
00000110: b39c 953f c5c6 883f ce00 813f a274 b5bf
00000120: 557d 9c3f f42c 9e3f 8693 c2be 3a80 19bf
00000130: 8fde dd3e e542 833e 28a8 50bf 92b9 14c0
00000140: 328f 10bf 0777 1fbe e937 14c0 a380 6abf
00000150: c5be 8c3e 033a 5ebe 4f96 a8bf 895a 643f
00000160: 0228 12be 5f92 8a3f 8121 cf3c c9ef 97bf
00000170: 4898 483e d828 e6be 20f4 ed3f 20bd 0d40
00000180: f5fe 493f efa1 453f a3c1 71be 6b88 773f
00000190: 4d27 0abf 4223 843e 96d2 3bbf acbd ba3f
000001a0: 3674 e13e ba32 1f3e f1f2 4dbf eb26 95bf
000001b0: 8a18 da3e 038b 76be d06c fb3e c78c 7a3d
000001c0: 606b 4bbf b245 693e 7a60 68be 920d 8fbf
000001d0: c53c 0bbd c194 53be 21a7 203c fce0 903f
000001e0: c3aa 36be 69ce 44bf 0b05 17bf 6723 6d3f
000001f0: ed62 3f3f 3a88 a3bf cd9f 97bd 0feb 6c3f
00000200: 0939 f0bf 95f8 94bd 6149 a9bd 2445 10bd
00000210: b4eb 9bbf 3a2e 66bf 7cf0 a83e a6e2 aa3f
00000220: 6345 2b3f a212 c33f d2b7 d93e bf6a ce3c
00000230: feec 853f 2543 723f 1a85 253f 04e8 95bf
00000240: 4045 02bf e789 423f ba3c 4d3f b88e cb3f
00000250: 063a acbd 4896 3dbe 686d 49bf c0c8 b33e
00000260: e152 093f 1145 93bf c642 1b3f 8f24 f03f
00000270: 4cc3 c23e 08a8 7fbe 61d4 92bf e149 86bf
00000280: 16c4 183d 3b4c 86bf 34ab 54bf 55ae f1bd
00000290: c9da bebe 7d18 e1bd 56e7 e13f 1457 9dbf
000002a0: a195 9ebf d7d4 fabe ccb9 19bf 8ae1 ce3f
000002b0: d401 01c0 32ef 023f 471c e33e e7d7 813f
000002c0: 5db9 f83f 9200 013e ea9f 873f 29a9 9ebf
000002d0: 0daf e73f eafb 63be 417c fcbd 44dd 8fbd
000002e0: b508 2ec0 05ce 94be 451b 803e d391 e3bf
000002f0: ac86 cf3e c5a8 ec3f 981d 453d e230 193f
00000300: c6fc 5a3f 6311 54bf 95e1 04c0 304f 5f3f
00000310: b095 5f3e b6a7 93bf af34 a03e 2f9c dd3f
00000320: 3619 debe 4f2a 6d3e 6511 1c40 74d2 6bbe
00000330: 708f 5fbe 5fa1 ecbd a022 243f 2766 413e
00000340: 59cd 98bf 6b27 56bf 6dd6 c23d 5ba4 c53f
00000350: 4c9d 51bf 83c0 b73e 2941 933e 5464 db3f
00000360: 112f afbe cd08 00c0 27d5 20bf e4c7 843f
00000370: 92db eabd 19b5 173f bee5 0cbd c3b2 9ebf
00000380: 48c4 e7be 16d6 72be 727f 1c3f f411 4b3c
00000390: 89e9 c5be 0457 37bf b089 45bf 0d4c b33f
000003a0: c215 f5be fda5 593f 46ed 55bf 303a 39be
000003b0: e58e 4cbe ae9b d53e cbd2 5cbf 5eaa 7ebe
000003c0: 67ec cc3f 0937 643f c468 0340 873c 0340
000003d0: 615f b33d ead8 f63e 9aa5 ed3e e39a 473f
000003e0: 1708 c6bd 1c95 313f d494 54bf eda2 b73e
000003f0: e8ff 8fbe 2c23 813f 8e8f 94bf 6b3c 00c0

customer_embeddings_mlp.weight f4 [6566, 5]
-0.8612421 0.37933758 0.5344329 -0.43531471 -0.1351428 1.3959479 -0.7371888 -0.10701302
-0.02283369 -0.44341066 -0.22652082 0.755011 -0.02013656 -0.68422014 -0.28019404 1.4234513
-1.5613177 -1.7086103 -1.7856401 -1.2161453 1.2293124 -1.2613891 0.48490906 -0.42153472
0.15383828 0.864835 0.6220923 0.97288436 1.5422688 0.99168336 0.14726888 -1.0953168
-1.0779755 -0.25026706 1.5191991 0.61734116 0.440329 -0.7260937 1.3976086 1.0293679
2.027203 0.4018104 0.57042015 -0.8440347 1.5019295 -0.36316517 -0.27468774 -1.8976277
-0.00434487 -0.10189361 -0.7914321 -0.19628805 1.3621511 -0.43127656 -1.1178215 1.9087585
-0.33059266 2.6875365 -0.95872116 1.3796899 1.3090793 -1.6476264 0.738019 -1.2459822
1.9705737 0.071772754 0.15364122 0.573991 -0.27576151 -0.40039682 0.10381563 -1.3854067
-0.19246759 0.9974128 -1.0474701 0.27618948 0.33317575 -2.4153862 -0.7511041 -0.11757284
0.73638165 -2.0695357 -1.0136039 -1.3676615 -1.3572575 1.8373338 -0.039525375 -1.7669839
1.1708131 1.5256443 -0.69736135 -1.9140567 1.1510545 1.2821825 1.2632015 2.5470166
0.3013879 -0.045475718 0.45670295 2.0976384 -2.208237 1.09166 -0.1675537 -1.964838
-1.1410838 0.5670514 -1.053072 0.84586275 0.48810762 0.5692665 0.2784086 -0.7362629
1.1875169 -1.6743964 -0.60618865 -0.8088882 0.60711473 0.15662657 0.2533776 -0.46629524
-0.6412769 0.47463262 -1.4369367 0.17231365 -0.93417174 0.18271756 -0.28620142 -0.3265888
0.04996009 0.13016729 1.2576803 1.2665528 -0.6271102 2.8226166 -0.6504596 1.2253757
-0.46990567 -1.0070713 -0.19397487 0.5361958 0.4546923 -0.60046583 0.3999041 1.7931656
-0.92559695 -0.7389314 0.43735105 -0.015481047 0.55629647 -1.7905861 0.18565506 2.8665578
-1.8583863 1.1944599 -0.52276784 -1.7145084 -1.4527773 0.3046803 0.4687887 -0.025733693
0.64058065 -1.4907621 -1.1925716 -0.32753426 0.055284664 -0.9311855 -0.5278193 -1.9203465
0.49409497 1.8292692 0.8575077 0.77459776 0.61700886 -0.5117074 -0.39791518 0.67444384
-0.25805455 -0.7536537 -0.094750315 -0.25568548 -0.32506493 -0.65404433 0.16059372 0.65781343
1.8340214 0.85897785 0.3476718 1.3425164 -1.2793452 0.9290093 -0.8204555 0.36389703
-1.0006886 0.16892295 -0.5247825 0.98206735 0.728019 0.43044472 -2.0143418 2.39948
-0.39198455 -0.877499 -1.3236771 0.722413 1.5838368 0.28209442 1.4826139 -0.35224283
0.80800945 0.57724 -2.4385812 0.027120262 -1.2177472 -0.55152094 0.48627216 0.051910184
-0.2865592 0.17387563 -0.599893 0.7793512 0.60294545 0.9654854 1.046521 1.7856989
-1.2478559 0.5610983 0.31597593 -0.5102023 0.35091975 -0.34124422 -1.7566674 0.13841896
0.3470926 -0.6433437 -1.144676 0.7608454 -0.45429477 -0.41814554 0.92333794 0.5885739
1.2187864 -1.4209676 1.2828075 2.005874 0.42449713 -1.0640725 -0.4440456 0.69981337
0.8062157 -1.308613 -1.0906477 0.665934 1.4689444 -0.3744914 0.35590717 0.08012381
00000000: 5d7a 5cbf 8938 c23e 98d0 083f 92e1 debe
00000010: e062 0abe 6cae b23f 68b8 3cbf a429 dbbd
00000020: b80d bbbc b906 e3be 13f5 67be 6748 413f
00000030: 6df5 a4bc 0d29 2fbf 9875 8fbe a733 b63f
00000040: 42d9 c7bf beb3 dabf db8f e4bf a6aa 9bbf
00000050: 1c5a 9d3f 3375 a1bf 0046 f83e 66d3 d7be
00000060: c887 1d3e d465 5d3f 7141 1f3f f30e 793f
00000070: 1069 c53f f6de 7d3f a7cd 163e 5733 8cbf
00000080: 1afb 89bf 0123 80be 1e75 c23f 120a 1e3f
00000090: cd72 e13e 47e1 39bf d7e4 b23f 54c2 833f
000000a0: b2bd 0140 18ba cd3e 0e07 123f a812 58bf
000000b0: 3a3f c03f c9f0 b9be dfa3 8cbe 77e5 f2bf
000000c0: 695f 8ebb 99ad d0bd 4b9b 4abf bcff 48be
000000d0: f85a ae3f 48d0 dcbe c614 8fbf 3352 f43f
000000e0: 7143 a9be 9900 2c40 c06e 75bf ae99 b03f
000000f0: e98f a73f 6ce5 d2bf d0ee 3c3f 587c 9fbf
00000100: c23b fc3f 98fd 923d 2054 1d3e 13f1 123f
00000110: 9d30 8dbe d000 cdbe 4a9d d43d 0255 b1bf
00000120: 3916 45be 7256 7f3f 8013 86bf b568 8d3e
00000130: 0396 aa3e b095 1ac0 5c48 40bf 07ca f0bd
00000140: 8283 3c3f 4673 04c0 c6bd 81bf 880f afbf
00000150: 9dba adbf c12d eb3f 5ce5 21bd 872c e2bf
00000160: 34dd 953f 5048 c33f 4686 32bf cfff f4bf
00000170: c155 933f 8e1e a43f 96b0 a13f 5202 2340
00000180: 844f 9a3e bf44 3abd f8d4 e93e b53f 0640
00000190: c153 0dc0 84bb 8b3f 3293 2bbe d07f fbbf
000001a0: 090f 92bf 482a 113f 10cb 86bf 768a 583f
000001b0: 3ee9 f93e 73bb 113f 928b 8e3e ba7b 3cbf
000001c0: 8e00 983f 9f52 d6bf 2e2f 1bbf 4c13 4fbf
000001d0: df6b 1b3f b762 203e b5ba 813e 40be eebe
000001e0: b92a 24bf 0c03 f33e 8bed b7bf fd72 303e
000001f0: e125 6fbf 501a 3b3e fe88 92be a636 a7be
00000200: f4a2 4c3d 934a 053e abfb a03f 671e a23f
00000210: 4b8a 20bf c0a5 3440 8584 26bf 1cd9 9c3f
00000220: 7a97 f0be b6e7 80bf 59a1 46be 2144 093f
00000230: 6ecd e83e 21b8 19bf 3bc0 cc3e 7386 e53f
00000240: ecf3 6cbf 9c2a 3dbf 7aec df3e 38a4 7dbc
00000250: 7269 0e3f ed31 e5bf 5c1c 3e3e af75 3740
00000260: 9adf edbf 10e4 983f 1dd4 05bf 0375 dbbf
00000270: 9bf4 b9bf 0eff 9b3e 1305 f03e 77cf d2bc
00000280: 18fd 233f 4bd1 bebf 30a6 98bf 92b2 a7be
00000290: 2c72 623d 2c62 6ebf 2a1f 07bf eacd f5bf
000002a0: 04fa fc3e 7e25 ea3f a085 5b3f 0a4c 463f
000002b0: 4bf4 1d3f 42ff 02bf 8abb cbbe 5aa8 2c3f
000002c0: ba1f 84be 73ef 40bf 740c c2bd 35e9 82be
000002d0: e96e a6be 736f 27bf ae72 243e 7666 283f
000002e0: 37c1 ea3f f9e5 5b3f 0a02 b23e 94d7 ab3f
000002f0: 95c1 a3bf 8ed3 6d3f 5f09 52bf b650 ba3e
00000300: 9016 80bf 23fa 2c3e 2558 06bf c468 7b3f
00000310: 745f 3a3f 4063 dc3e faea 00c0 1591 1940
00000320: 33b2 c8be c6a3 60bf 406e a9bf 0ff0 383f
00000330: 2abb ca3f ae6e 903e 4bc6 bd3f 2c59 b4be
00000340: b5d9 4e3f 00c6 133f b711 1cc0 502b de3c
00000350: 24df 9bbf 7a30 0dbf aaf8 f83e c69f 543d
00000360: e3b7 92be 740c 323e 9692 19bf 8f83 473f
00000370: a25a 1a3f 0d2a 773f 66f4 853f c891 e43f
00000380: beb9 9fbf 23a4 0f3f 99c7 a13e 9e9c 02bf
00000390: c1ab b33e 90b7 aebe 7ada e0bf b3bd 0d3e
000003a0: 1fb6 b13e 2cb2 24bf be84 92bf c4c6 423f
000003b0: 5399 e8be 2c17 d6be e05f 6c3f c7ac 163f
000003c0: 3101 9c3f 44e2 b5bf 0933 a43f 3d60 0040
000003d0: b057 d93e 8733 88bf f259 e3be f826 333f
000003e0: 2764 4e3f a180 a7bf 589a 8bbf a77a 2a3f
000003f0: 5f06 bc3f 56bd bfbe 7739 b63e f417 a43d

product_embeddings_mlp.weight f4 [14697, 5]
0.53660923 0.5128738 -1.428108 -0.87989324 0.24419165 1.3634664 0.8929261 -0.05359211
0.006918582 0.35194305 1.1153002 -1.711096 3.3605654 1.523405 0.054907866 -1.7902899
-0.58831644 0.03255464 0.93961066 -0.13106288 0.46065575 1.4898969 0.4873663 0.6686594
0.008637225 0.64520454 0.37347794 -1.69809 0.22565718 -0.65134764 1.9853203 0.26632345
-0.68905306 -0.07421841 0.21106245 0.7609729 -0.39723223 1.4000322 1.2306914 0.0073016253
-0.008195296 0.29716828 1.0185031 -0.12145622 -1.3364209 1.1385123 -0.12317113 2.0678065
1.1505293 1.5332503 0.02276048 0.5232822 0.032812536 -0.22696896 -0.6389797 -0.7559021
-0.6156909 -0.7068588 0.5597777 -1.0093591 -2.0412726 -0.05059368 -0.40616992 0.108771294
-2.0372627 -0.7647251 -2.294268 -0.2941467 -0.7237148 -0.87977886 -0.58609647 0.24490622
0.57591045 -2.0498984 -0.30801868 -0.6136455 -0.99924827 1.4958409 0.5915725 0.16496001
1.3889803 1.4445885 1.1420757 0.99448764 0.7495512 0.51252073 1.0710516 -0.6380825
-0.652147 0.30971822 -0.27716047 -1.3996671 0.30571157 0.7765526 0.36570564 0.44806018
-1.7963115 1.9718958 1.0618211 0.53478134 0.8547843 0.6051114 -0.9488015 0.5857378
-0.30472675 -0.9034817 1.327213 -0.88260126 1.3747668 -0.2791854 0.8877522 -0.27636957
0.25696364 1.1483353 0.2021515 -0.09522845 0.043224562 0.6782862 0.7219633 -1.1944475
-0.020958696 0.4037095 -0.059010584 -0.29869407 0.81683004 -0.3983389 -0.7060706 1.4347775
0.012439666 0.8661326 -0.7140756 -0.4356919 0.10595305 -0.12512088 0.40261796 1.2374382
-0.22170949 -0.54439497 1.2593306 1.3051242 -0.8834753 -0.2538713 0.2650095 1.4181839
-0.2191813 -0.1435132 -0.30996582 1.816819 0.13736431 1.5894645 -1.414235 1.1217229
1.516766 0.3446402 0.7174325 -0.7770771 0.72253436 0.78592503 -0.82531977 -0.34329304
-1.2803886 1.3263209 -0.59665704 -0.37244934 0.9897877 0.6503312 -0.84806025 1.187432
0.7329989 0.76887506 1.1711719 1.5078079 -0.6275458 0.76827765 0.22679533 -1.2022653
0.59827316 -0.17922898 -0.3994718 1.1016337 -0.10496334 1.1723342 0.54076856 -1.4943289
-0.802611 0.17965245 -0.19606762 0.27934122 1.4488953 -0.54168874 -1.4239196 -0.03735143
-0.3895458 -0.7464704 1.002985 0.21242802 0.524236 -1.3877696 -0.7482225 -0.6902311
-1.7274643 0.591775 0.6652803 0.356097 1.1706611 0.8893587 1.1482531 0.80952317
0.26218414 2.0250852 1.1976405 -0.9354071 -0.48760447 -0.6066318 -0.61392766 -0.28384113
-0.7514379 1.9431427 -1.3801274 0.33775213 0.3994732 -1.2195401 0.06715229 0.8120061
-0.50856197 -0.25668484 2.0343235 -0.41506696 1.6658126 0.34340987 -0.8363959 -0.707458
-1.6219642 0.6249043 -1.0062279 -1.0225419 0.19565251 -1.888865 0.5204126 0.062027775
0.24029808 -0.17216235 -0.2743342 -0.60513735 0.8081864 0.62138397 -1.4458086 1.6502663
2.902413 -1.2073172 1.8169065 -2.4538577 0.6049929 -1.3646419 -0.29963535 0.77619374
00000000: 395f 093f b34b 033f 3ecc b6bf af40 61bf
00000010: 600d 7a3e 1186 ae3f ce96 643f 6683 5bbd
00000020: 46b5 e23b e131 b43e 28c2 8e3f 3205 dbbf
00000030: 8113 5740 effe c23f 12e7 603d 3828 e5bf
00000040: e89b 16bf 0458 053d 538a 703f 5935 06be
00000050: 12db eb3e f1b4 be3f 1388 f93e 432d 2b3f
00000060: 2683 0d3c 202c 253f 8038 bf3e 035b d9bf
00000070: ad12 673e b8be 26bf fa1e fe3f 8c5b 883e
00000080: c865 30bf d2ff 97bd c120 583e 1fcf 423f
00000090: 0662 cbbe 4134 b33f 4c87 9d3f 7942 ef3b
000000a0: 9045 06bc 7126 983e 4f5e 823f 0abe f8bd
000000b0: d70f abbf c5ba 913f 2541 fcbd f156 0440
000000c0: 8b44 933f 8c41 c43f 3074 ba3c d2f5 053f
000000d0: 7066 063d 8d6a 68be 2c94 23bf cd82 41bf
000000e0: eb9d 1dbf b3f4 34bf 974d 0f3f ae32 81bf
000000f0: 36a4 02c0 523b 4fbd 81f5 cfbe 7cc3 de3d
00000100: 8362 02c0 06c5 43bf 49d5 12c0 659a 96be
00000110: 6045 39bf 3039 61bf 6b0a 16bf b2c8 7a3e
00000120: de6e 133f 8931 03c0 a0b4 9dbe df17 1dbf
00000130: bcce 7fbf b777 bf3f 4c71 173f 47eb 283e
00000140: 1bca b13f 47e8 b83f 892f 923f be96 7e3f
00000150: 96e2 3f3f 8f34 033f 3818 893f 6059 23bf
00000160: 1bf3 26bf 6393 9e3e fae7 8dbe 4b28 b3bf
00000170: 3a86 9c3e 27cc 463f c53d bb3e 2568 e53e
00000180: 89ed e5bf 1567 fc3f c1e9 873f 6ee7 083f
00000190: 25d3 5a3f 95e8 1a3f a8e4 72bf eaf2 153f
000001a0: 2505 9cbe 944a 67bf 1ee2 a93f 28f2 61bf
000001b0: 5cf8 af3f 64f1 8ebe ba43 633f 5080 8dbe
000001c0: bd90 833e a7fc 923f ce00 4f3e 2207 c3bd
000001d0: 3d0c 313d 2aa4 2d3f 96d2 383f a8e3 98bf
000001e0: 92b1 abbc 03b3 ce3e 15b5 71bd 6eee 98be
000001f0: c61b 513f 14f3 cbbe 0bc1 34bf caa6 b73f
00000200: becf 4b3c deba 5d3f a9cd 36bf 0213 dfbe
00000210: eafd d83d b01f 00be f123 ce3e 6064 9e3f
00000220: d007 63be 785d 0bbf bf31 a13f 4f0e a73f
00000230: 702b 62bf 6bfb 81be 53af 873e 0d87 b53f
00000240: 1071 60be 20f5 12be d7b3 9ebe 868d e83f
00000250: 3ba9 0c3e 9373 cb3f a705 b5bf 9e94 8f3f
00000260: 6325 c23f ae74 b03e a8a9 373f 86ee 46bf
00000270: 03f8 383f 6232 493f 2848 53bf 1bc4 afbe
00000280: c6e3 a3bf e2c4 a93f 84be 18bf aeb1 bebe
00000290: ba62 7d3f 1b7c 263f 7a1a 59bf c6fd 973f
000002a0: d1a5 3b3f ffd4 443f f6e8 953f d9ff c03f
000002b0: d7a6 20bf d8ad 443f 093d 683e d4e3 99bf
000002c0: 6e28 193f cd87 37be 9187 ccbe 5502 8d3f
000002d0: 05f7 d6bd 0c0f 963f cf6f 0a3f 2b46 bfbf
000002e0: ea77 4dbf d0f6 373e f3c5 48be d005 8f3e
000002f0: 6775 b93f 1dac 0abf ff42 b6bf d0fd 18bd
00000300: 8c72 c7be af18 3fbf d061 803f bb86 593e
00000310: 5534 063f 6fa2 b1bf 828b 3fbf fcb2 30bf
00000320: 8d1d ddbf 917e 173f cf4f 2a3f 5952 b63e
00000330: 39d8 953f 03ad 633f f5f9 923f e93c 4f3f
00000340: 003d 863e ff9a 0140 494c 993f d776 6fbf
00000350: 4ba7 f9be 394c 1bbf 5d2a 1dbf a053 91be
00000360: 3c5e 40bf e6b8 f83f 04a8 b0bf d9ed ac3e
00000370: c087 cc3e e419 9cbf 2487 893d a2df 4f3f
00000380: 1e31 02bf 326c 83be 5b32 0240 a883 d4be
00000390: 5939 d53f 6bd3 af3e 0b1e 56bf f81b 35bf
000003a0: 869c cfbf baf9 1f3f 13cc 80bf a7e2 82bf
000003b0: 2259 483e 54c6 f1bf c339 053f d610 7e3d
000003c0: b310 763e 544b 30be 8875 8cbe 48ea 1abf
000003d0: 4ee5 4e3f 0513 1f3f 4210 b9bf ed3b d33f
000003e0: 22c1 3940 5f89 9abf 6490 e83f 010c 1dc0
000003f0: d1e0 1a3f 96ac aebf ce69 99be a2b4 463f

fc1_mlp.weight f4 [128, 10]
0.08206551 0.31434172 -0.2868286 0.17672542 0.12273726 0.24822795 0.1702725 -0.28223324
0.045881234 -0.20441554 0.2106199 -0.091617554 0.08337578 -0.17087542 -0.1694025 0.29711238
-0.088066794 -0.32754764 0.026544854 -0.10285526 -0.03913217 0.1460579 0.022053659 0.20662044
-0.32689896 -0.19475058 0.083490185 0.21924728 0.16328853 -0.0011514443 0.24780783 0.2523622
0.05062747 0.250344 -0.027017402 -0.29650253 0.11994315 0.053267337 0.06260686 0.27497485
0.29561538 0.28881913 -0.19671851 0.058848366 -0.28206855 -0.21868841 -0.07083759 0.1695651
0.059741728 0.16907308 -0.17188872 0.079580896 0.08544232 0.24515952 -0.08037379 0.27707985
0.12263495 0.033136647 0.16309622 -0.06686737 -0.18939786 0.00868754 -0.14842701 -0.1984241
-0.28178617 0.050655447 -0.08622169 -0.18435518 0.2284252 -0.057706416 -0.12386018 -0.29126132
0.11622587 0.04262913 -0.10751167 0.03346577 -0.024417281 0.06699723 -0.3373982 0.27755672
-0.16830023 -0.18516387 0.04172929 0.087863475 0.22365282 0.22956352 0.006691715 0.08112703
-0.306791 -0.17066625 0.22623828 0.14792101 0.23721206 0.10167967 0.25178707 0.31103393
0.11286853 0.1863188 0.24234283 0.20460334 0.23569325 -0.13863249 0.0026778313 -0.186813
-0.17977752 0.15756433 0.1776135 0.05106605 -0.08563298 -0.22277485 0.17876716 0.17970921
-0.21132982 0.0232734 0.1337697 0.11235827 -0.05132389 -0.21149126 0.20692348 -0.22539273
-0.16278286 0.28173265 -0.051199213 -0.26592296 -0.2924071 -0.0743713 -0.017510585 -0.22176975
0.15065873 -0.1658806 0.31874686 -0.24137408 -0.1779833 0.22273861 -0.08338085 0.26767159
0.077579334 -0.2960582 -0.06774399 0.28935823 -0.28924173 -0.2324542 -0.14933977 -0.12910658
0.17583565 0.38501847 -0.29676977 -0.1552622 0.30184072 -0.334124 -0.08208559 -0.23080154
0.2707002 0.2760952 0.31004268 0.010660526 0.2929699 -0.077555105 0.038793217 -0.04138441
-0.29831836 0.033657722 0.31644866 0.1622934 -0.11954531 -0.26199284 -0.2856224 0.27143958
-0.013289452 0.045531727 0.26848015 -0.18925352 -0.117651895 0.040990453 -0.1794195 0.014744868
0.0744379 -0.2784308 0.1837285 -0.0787247 -0.2645333 0.23809879 -0.0027778174 -0.0507222
-0.23965494 -0.05968126 0.02335723 -0.01209559 0.2751559 -0.12843601 -0.22432742 0.37242442
-0.1543166 0.12147827 -0.16867727 -0.17251311 0.07074025 0.12312576 0.014892888 0.2783708
0.07841232 -0.07424031 0.20218723 0.083174385 -0.21615306 -0.08908242 0.18335466 0.15153086
-0.14909673 0.049498055 0.0029885897 0.26420102 0.23667051 0.16706672 -0.14614205 -0.04467828
0.23811601 -0.04420322 -0.1289177 -0.25946394 0.13091467 0.13822924 0.2883237 0.20351306
-0.0045450563 0.13862029 0.29273143 -0.33528006 0.1609092 -0.1579114 -0.30789924 0.103125796
-0.1940341 -0.2616413 0.24049921 -0.3147002 -0.055723295 -0.2190392 0.17589101 0.1286809
-0.16040625 0.32077447 0.012232765 0.16025598 0.1971824 -0.036240753 0.048270606 -0.20319642
0.12210086 -0.007975282 0.2155103 -0.073780194 -0.2962664 0.20366473 -0.08219828 0.2920553
00000000: f611 a83d 66f1 a03e 33db 92be 82f7 343e
00000010: ac5d fb3d 782f 7e3e ea5b 2e3e e080 90be
00000020: f6ed 3b3d 4f52 51be beac 573e fca1 bbbd
00000030: ecc0 aa3d f7f9 2ebe d977 2dbe 1d1f 983e
00000040: 5d5c b4bd 53b4 a7be 9874 d93c c7a5 d2bd
00000050: 0e49 20bd 3490 153e e0a9 b43c 4f94 533e
00000060: 4d5f a7be b26c 47be e7fc aa3d 5c82 603e
00000070: 1c35 273e 0fec 96ba 56c1 7d3e 9e35 813e
00000080: c05e 4f3d 172d 803e 9953 ddbc 2ecf 97be
00000090: c1a4 f53d da2e 5a3d 0738 803d 81c9 8c3e
000000a0: e65a 973e 1ae0 933e 9470 49be fc0a 713d
000000b0: 4a6b 90be dbef 5fbe 4c13 91bd 79a2 2d3e
000000c0: beb3 743d 7e21 2d3e 9903 30be 4ffb a23d
000000d0: 62fc ae3d 190b 7b3e 039b a4bd 69dd 8d3e
000000e0: 0828 fb3d 4bba 073d b202 273e c2f1 88bd
000000f0: 83f1 41be 2f56 0e3c 40fd 17be b02f 4bbe
00000100: 4746 90be 167c 4f3d ff94 b0bd 9bc7 3cbe
00000110: 4ce8 693e 905d 6cbd 68aa fdbd 3420 95be
00000120: d407 ee3d e29b 2e3d 142f dcbd 6713 093d
00000130: c006 c8bc d835 893d 75bf acbe ea1b 8e3e
00000140: e556 2cbe 999b 3dbe 55ec 2a3d c4f1 b33d
00000150: 3f05 653e b312 6b3e 2d46 db3b ee25 a63d
00000160: b613 9dbe 22c3 2ebe 02ab 673e 9b78 173e
00000170: b8e7 723e 6e3d d03d 3cea 803e d73f 9f3e
00000180: 9e27 e73d 5bca 3e3e b828 783e 8a83 513e
00000190: 9259 713e adf5 0dbe 8e7e 2f3b e84b 3fbe
000001a0: 9917 38be 8b58 213e 50e0 353e a22a 513d
000001b0: 5860 afbd 171f 64be bd0e 373e b105 383e
000001c0: d866 58be dba7 be3c edfa 083e 181c e63d
000001d0: 0039 52bd 2a91 58be c0e3 533e 5acd 66be
000001e0: 8db0 26be 433f 903e 44b6 51bd 0e27 88be
000001f0: 62b6 95be fb4f 98bd 5c72 8fbc 9c17 63be
00000200: 4846 1a3e 9bdc 29be ca32 a33e c42a 77be
00000210: 4141 36be 9715 643e 94c3 aabd 400c 893e
00000220: eae1 9e3d f194 97be 5cbd 8abd c326 943e
00000230: 7e17 94be 7908 6ebe 86ec 18be 8434 04be
00000240: 430e 343e 2421 c53e 35f2 97be 0efd 1ebe
00000250: de8a 9a3e 4d12 abbe 7d1c a8bd 3d57 6cbe
00000260: 3799 8a3e 5a5c 8d3e eabd 9e3e 7da9 2e3c
00000270: 2700 963e 36d5 9ebd a3e5 1e3d b382 29bd
00000280: 2fbd 98be aedc 093d 8f05 a23e 3e30 263e
00000290: 2cd4 f4bd ed23 86be 193d 92be 21fa 8a3e
000002a0: 00bc 59bc 7a7f 3a3d 3b76 893e adcb 41be
000002b0: 7af3 f0bd 9be5 273d bfb9 37be 7594 713c
000002c0: e672 983d 7b8e 8ebe 5323 3c3e 6a3a a1bd
000002d0: e970 87be 2bd0 733e 0b0c 36bb 15c2 4fbd
000002e0: 1b68 75be 5674 74bd a957 bf3c 952c 46bc
000002f0: 3ce1 8c3e bb84 03be 16b6 65be 6aae be3e
00000300: 2c05 1ebe 99c9 f83d bcb9 2cbe 47a7 30be
00000310: 44e0 903d 5c29 fc3d 4d01 743c 9e86 8e3e
00000320: a396 a03d 4e0b 98bd 2b0a 4f3e 5557 aa3d
00000330: 3a57 5dbe d870 b6bd 53c1 3b3e e82a 1b3e
00000340: d0ac 18be 79be 4a3d 37dc 433b 5b45 873e
00000350: c159 723e 8a13 2b3e 43a6 15be 9200 37bd
00000360: afd4 733e 700e 35bd 0003 04be 75d8 84be
00000370: 7f0e 063e f78b 0d3e 2a9f 933e ba65 503e
00000380: b2ee 94bb 7af2 0d3e e5e0 953e d4a9 abbe
00000390: 62c5 243e 87b3 21be f8a4 9dbe 9e33 d33d
000003a0: e0b0 46be d9f5 85be 6d45 763e 6220 a1be
000003b0: 1c3e 64bd d04b 60be c61c 343e edc4 033e
000003c0: 8941 24be 8d3c a43e ef6b 483c 251a 243e
000003d0: 2fea 493e 2f71 14bd 66b7 453d b912 50be
000003e0: 0410 fa3d c2aa 02bc bbae 5c3e 121a 97bd
000003f0: 3bb0 97be 7d8d 503e 9257 a8bd 4688 953e

fc1_mlp.bias f4 [128]
0.24262384 0.25210863 -0.16190648 0.24161498 -0.08564233 0.1436368 -0.069007605 -0.24491812
0.123167336 0.245962 0.2336596 -0.04388731 0.20729266 -0.2477632 0.11060568 -0.2063531
0.21882404 -0.13696742 0.1846208 -0.16486338 0.19023375 -0.25668564 -0.23748636 -0.2712491
0.2868411 0.30047762 0.010774963 -0.034040846 -0.12384629 0.316125 -0.25310516 -0.06752734
-0.026780736 -0.25462717 -0.07152145 -0.28564176 -0.10248908 -0.011725546 0.25978547 0.31363717
0.0009819389 -0.046214715 0.01667792 0.123507336 0.16733374 -0.017831268 -0.101474054 -0.08011623
-0.27616844 0.04708442 0.25594488 -0.1527505 -0.0731952 -0.0279311 0.2663309 -0.0600159
0.09516502 -0.058012925 -0.14676844 -0.24567282 -0.12307804 -0.041696485 -0.028783187 0.18039812
-0.20954111 0.21968462 0.2922117 0.25680882 -0.09302492 -0.30613443 0.31878138 -0.022641286
-0.15541452 0.12417433 -0.23200914 0.09252584 -0.18727338 -0.010556694 0.2575346 0.24378358
0.22334139 0.24327636 -0.30938807 -0.20831802 -0.02092173 -0.2912113 -0.26116425 -0.13604242
-0.11768186 0.15910108 -0.264354 -0.13139692 0.042103134 0.13868895 0.1020633 -0.21268027
-0.25838754 0.013219811 0.2015746 -0.152818 0.24356043 -0.060157865 -0.037046056 0.057711296
-0.23703109 -0.29639116 -0.16397738 -0.14436667 -0.20947184 0.0062878127 -0.14497729 0.12132212
-0.012848474 0.10898104 -0.30213016 -0.14762564 0.03354306 -0.049648084 0.055981226 -0.15212001
-0.015034784 0.02819169 0.22132054 -0.23140265 0.21092802 0.00278566 -0.17479594 -0.21060662
00000000: 6272 783e 6214 813e d0ca 25be eb69 773e
00000010: 3f65 afbd 8615 133e dc53 8dbd d1cb 7abe
00000020: 283f fc3d 76dd 7b3e 7644 6f3e 2ec3 33bd
00000030: 8744 543e a3b5 7dbe 3b85 e23d 3a4e 53be
00000040: 6913 603e 3041 0cbe 3c0d 3d3e f2d1 28be
00000050: a3cc 423e 4d6c 83be a02f 73be 29e1 8abe
00000060: d6dc 923e 34d8 993e 7889 303c 6a6e 0bbd
00000070: 20a3 fdbd 23db a13e 0097 81be c64b 8abd
00000080: 4663 dbbc 7e5e 82be d779 92bd a33f 92be
00000090: cbe5 d1bd 811c 40bc 9a02 853e 0d95 a03e
000000a0: 67b4 803a a44b 3dbd 22a0 883c 6af1 fc3d
000000b0: 8959 2b3e e112 92bc a1d1 cfbd fa13 a4bd
000000c0: f365 8dbe 98db 403d 350b 833e a16a 1cbe
000000d0: 5de7 95bd c3cf e4bc 865c 883e 3bd3 75bd
000000e0: e1e5 c23d f69e 6dbd 774a 16be a891 7bbe
000000f0: 5710 fcbd efc9 2abd b8ca ebbc 49ba 383e
00000100: f291 56be 01f5 603e c69c 953e 727c 833e
00000110: d983 bebd a7bd 9cbe 5037 a33e 387a b9bc
00000120: fc24 1fbe 1c4f fe3d ce93 6dbe 307e bd3d
00000130: 98c4 3fbe fcf5 2cbc 93db 833e 67a2 793e
00000140: 9bb3 643e 701d 793e 1d68 9ebe 5251 55be
00000150: 0c64 abbc a619 95be 52b7 85be b44e 0bbe
00000160: 3003 f1bd 65eb 223e 6859 87be ea8c 06be
00000170: 5674 2c3d 7a04 0e3e 9006 d13d dbc8 59be
00000180: 5f4b 84be e897 583c 9269 4e3e 527c 1cbe
00000190: e867 793e 1868 76bd 9bbd 17bd ae62 6c3d
000001a0: 47b8 72be 95c0 97be b0e9 27be dbd4 13be
000001b0: c97f 56be ff09 ce3b ed74 14be bb77 f83d
000001c0: 6882 52bc 7431 df3d ceb0 9abe 2d2b 17be
000001d0: 7364 093d ca5b 4bbd 924c 653d 59c5 1bbe
000001e0: 7454 76bc 42f2 e63c daa1 623e d1f4 6cbe
000001f0: 84fd 573e 9f8f 363b b5fd 32be 43a9 57be

bn1_mlp.weight f4 [128]
1.0127083 0.98345566 0.9700341 0.9737909 1.009479 0.9895141 0.98766726 0.9860419
1.0099046 0.985886 1.0404091 1.0215325 1.0194592 1.0217806 0.9848449 0.97230554
1.0033978 0.99196744 1.050379 1.0123022 1.0266263 1.0234904 0.9952309 0.9767574
1.0293801 0.9979513 1.0055828 1.0099624 0.99044824 0.98150456 1.0320013 1.0091891
0.9679786 1.0455517 1.0341454 1.01107 1.0294385 1.0061791 1.0022647 0.97281027
0.9965435 0.97601473 0.9648328 0.9785897 0.9683028 0.9913329 1.0457442 1.0086763
0.9938789 1.0430171 1.0012636 1.0039728 1.0478795 1.0163639 1.0057968 1.0103176
0.97716236 1.0141097 0.97264665 0.95184565 1.0589039 1.0274096 0.9830303 1.0097444
1.0029962 1.0288329 1.0451338 0.96031356 0.9789946 1.0064702 1.0868964 0.9999988
1.0434957 1.0051829 1.0246651 1.0247523 0.9884958 1.0181272 0.9485221 1.0267265
0.9892366 0.9770709 1.0269601 0.97027194 0.9945959 0.9777129 0.978032 0.98044276
0.9754988 0.9806448 0.97419226 1.029473 1.0017545 1.0208552 0.98570323 0.9912324
0.9977031 1.0053891 1.0440539 0.98610306 0.9857697 0.9863591 1.0306536 1.0261657
1.0092993 0.97668743 1.0191634 1.0405701 0.9641477 1.0406123 1.0136874 1.022876
0.9929874 0.9662241 1.0199665 0.99288195 0.999859 0.99431443 0.95429623 0.9883568
1.003479 0.9906696 0.96710706 0.9517752 1.0097492 0.9824729 1.0191405 0.9687122
00000000: 6da0 813f c0c3 7b3f 2854 783f 5c4a 793f
00000010: 9c36 813f cc50 7d3f c3d7 7c3f 3e6d 7c3f
00000020: 8e44 813f 0663 7c3f 202c 853f 94c1 823f
00000030: a47d 823f b5c9 823f cc1e 7c3f 04e9 783f
00000040: 576f 803f 94f1 7d3f d272 863f 1e93 813f
00000050: 7e68 833f bc01 833f 74c7 7e3f c60c 7a3f
00000060: bac2 833f bd79 7f3f f0b6 803f 7346 813f
00000070: 048e 7d3f e243 7b3f 9e18 843f 1c2d 813f
00000080: 72cd 773f a3d4 853f e05e 843f be6a 813f
00000090: a4c4 833f 7aca 803f 364a 803f 180a 793f
000000a0: 7a1d 7f3f 1adc 793f 48ff 763f db84 7a3f
000000b0: b1e2 773f fec7 7d3f f2da 853f 4e1c 813f
000000c0: d96e 7e3f 9681 853f 6829 803f 2e82 803f
000000d0: ea20 863f 3618 823f f3bd 803f 1652 813f
000000e0: 5027 7a3f 59ce 813f 5fff 783f 28ac 733f
000000f0: 2a8a 873f 2882 833f e0a7 7b3f 4e3f 813f
00000100: 2e62 803f ccb0 833f f2c6 853f 1cd7 753f
00000110: 649f 7a3f 04d4 803f 6c1f 8b3f ecff 7f3f
00000120: 4491 853f d5a9 803f 3a28 833f 152b 833f
00000130: 100e 7d3f fe51 823f 58d2 723f c66b 833f
00000140: 9c3e 7d3f 5221 7a3f 6e73 833f be63 783f
00000150: d69d 7e3f 654b 7a3f 4e60 7a3f 4cfe 7a3f
00000160: 4aba 793f 8a0b 7b3f aa64 793f c5c5 833f
00000170: 7e39 803f 62ab 823f 0c57 7c3f 68c1 7d3f
00000180: 7869 7f3f 97b0 803f 8fa3 853f 4071 7c3f
00000190: 675b 7c3f 0882 7c3f 75ec 833f 6659 833f
000001a0: b830 813f 3008 7a3f f273 823f 6731 853f
000001b0: 62d2 763f c932 853f 82c0 813f 9aed 823f
000001c0: 6c34 7e3f 765a 773f 438e 823f 832d 7e3f
000001d0: c2f6 7f3f 648b 7e3f c24c 743f f404 7d3f
000001e0: 0072 803f 869c 7d3f 5494 773f 8aa7 733f
000001f0: 763f 813f 5883 7b3f 3273 823f 86fd 773f

bn1_mlp.bias f4 [128]
0.00091048493 -0.012877854 -0.046669442 -0.008804141 -0.0012980015 0.012622979 -0.0055365395 -0.01672809
-0.0017858574 -0.004664736 0.00889888 0.017967146 -0.003233547 -0.039659124 0.0054919505 -0.022556927
-0.011353635 0.0074400986 0.031771753 0.04371181 0.012374232 0.016638394 -0.048554022 -0.029054565
0.0061354702 -0.045984536 -0.025874697 -0.11288204 0.004213671 -0.038079314 -0.009403174 0.006046296
-0.10476286 0.00658825 -0.026839139 0.029497795 0.009380512 -0.0120850615 -0.029554386 -0.031702932
-0.013801517 -0.03438494 -0.006705069 -0.061842144 -0.07023177 0.0023776956 0.0048225396 0.027777534
0.0009282307 0.0075880755 7.0966336e-05 0.050492764 0.05992802 -0.03863434 0.019541638 -0.00856152
-0.027509337 -0.038752913 0.007084486 -0.041999083 0.050279133 0.04235913 -0.04935126 0.019914523
0.080988124 0.054214105 0.061513513 -0.025021637 0.010755923 0.01750028 0.04043953 0.014265879
0.008387433 0.010253878 0.03668122 -0.008542128 -0.029298257 0.006194778 -0.006543532 0.021422504
0.00089659163 -0.007926444 0.02781916 0.0032019834 -0.018330317 -0.017848788 -0.008366096 0.021235328
-0.03456153 0.0029344861 -0.015171986 0.03766559 0.0147186 0.050625253 -0.04012411 -0.035688017
0.0017308814 -0.027003966 -0.015477208 -0.033833448 -0.0067439666 -0.0010624854 0.0126787415 -0.06567531
0.016981691 -0.045879845 -0.048250057 -0.006187105 0.0049808733 -0.002546535 0.06021677 0.020502571
0.010800489 0.043307066 0.037801273 -0.020834144 -0.0053313384 -0.0028053126 0.023513451 0.006111076
0.01380197 -0.058593623 0.0011502121 0.005792124 0.062043693 -0.015039129 0.0042014495 -0.04625589
00000000: 9cad 6e3a a2fd 52bc 7528 3fbd 3e3f 10bc
00000010: b421 aaba 9cd0 4e3c dc6b b5bb 5909 89bc
00000020: 6e13 eaba a4da 98bb 9ccc 113c d62f 933c
00000030: ebe9 53bb 9b71 22bd d2f5 b33b 4ec9 b8bc
00000040: 9904 3abc 12cc f33b 1923 023d 280b 333d
00000050: 4abd 4a3c 3e4d 883c 95e0 46bd d703 eebc
00000060: 0e0c c93b 485a 3cbd 2cf7 d3bc b32e e7bd
00000070: d612 8a3b 0ef9 1bbd c50f 1abc 0220 c63b
00000080: e98d d6bd 3fe2 d73b c1dd dbbc 5ca5 f13c
00000090: b8b0 193c 6c00 46bc 0a1c f2bc efda 01bd
000000a0: c21f 62bc 39d7 0cbd 32b6 dbbb 304e 7dbd
000000b0: add5 8fbd 1dd3 1b3b 6506 9e3b b68d e33c
000000c0: 8254 733a 64a5 f83b c3d3 9438 80d1 4e3d
000000d0: 1577 753d 0b3f 1ebd c915 a03c 9e45 0cbc
000000e0: 435b e1bc 60bb 1ebd fa24 e83b 3b07 2cbd
000000f0: 7ef1 4d3d c480 2d3d 8c24 4abd c823 a33c
00000100: 1add a53d 9c0f 5e3d 98f5 7b3d 2dfa ccbc
00000110: 9c39 303c bf5c 8f3c eca3 253d 6fbb 693c
00000120: 726b 093c e2ff 273c 0c3f 163d 48f4 0bbc
00000130: e602 f0bc 90fd ca3b 206b d6bb 3f7e af3c
00000140: 3f09 6b3a eadd 01bc 02e5 e33c 5ed8 513b
00000150: 7629 96bc 9f37 92bc f311 09bc b6f5 ad3c
00000160: 6490 0dbd 8250 403b ec93 78bc 3c47 1a3d
00000170: 4826 713c 6d5c 4f3d 2e59 24bd 992d 12bd
00000180: bede e23a 6c37 ddbc 1e94 7dbc f194 0abd
00000190: 7efc dcbb 1843 8bba 7fba 4f3c c780 86bd
000001a0: 301d 8b3c 81ec 3bbd daa1 45bd 33bd cabb
000001b0: 9836 a33b c5e3 26bb dca5 763d 02f5 a73c
000001c0: 89f4 303c c062 313d 82d5 1a3d 5eac aabc
000001d0: 82b2 aebb 56d9 37bb 489f c03c 6c3f c83b
000001e0: a821 623c deff 6fbd b7c2 963a dccb bd3b
000001f0: 8721 7e3d ae66 76bc 50ac 893b d176 3dbd

bn1_mlp.running_mean f4 [128]
0.2145309 0.2506948 -0.15184873 0.24119592 -0.07437734 0.14036353 -0.048084676 -0.21008246
0.11229795 0.22165789 0.21957979 -0.071935415 0.215299 -0.2318851 0.10193215 -0.22869153
0.23980643 -0.1394716 0.19140431 -0.1384876 0.19679816 -0.2769637 -0.26603204 -0.26053464
0.27451837 0.28443378 -0.0059061656 -0.055662718 -0.10799813 0.32167006 -0.26367685 -0.032679554
-0.01242748 -0.24399161 -0.08177241 -0.2718263 -0.085319966 -0.031120315 0.2646889 0.3215134
-0.009436568 -0.050411683 -0.0133549385 0.15821046 0.19705398 -0.022274222 -0.11162573 -0.075150944
-0.29972118 0.042499837 0.24839647 -0.18463418 -0.074578114 -0.0313629 0.23928875 -0.062487867
0.075741306 -0.049545992 -0.12449832 -0.259239 -0.13065027 -0.0680832 -0.0022394427 0.15105562
-0.21250594 0.21278062 0.30409953 0.27328295 -0.08105776 -0.30016303 0.33465564 -0.037943076
-0.1473583 0.12098392 -0.24364841 0.122841135 -0.18321449 -0.02213848 0.2765675 0.22228722
0.23594241 0.2843518 -0.32833025 -0.18972407 -0.011155329 -0.27987525 -0.27087614 -0.120976724
-0.12551898 0.17637424 -0.24318883 -0.12243806 0.05739257 0.14384063 0.108537026 -0.21300349
-0.2831633 0.012684774 0.21227758 -0.15914492 0.22777337 -0.08266552 -0.014063006 0.03338866
-0.24520338 -0.30235586 -0.17428827 -0.1690188 -0.22005284 0.01940624 -0.13218299 0.13794453
-0.03717085 0.09713122 -0.30893567 -0.14524518 0.003840083 -0.056370113 0.07201628 -0.14878264
-0.027591623 0.013276731 0.23205774 -0.23542452 0.19474941 0.034651708 -0.14945276 -0.18148278
00000000: fdad 5b3e 125b 803e 3c7e 1bbe 10fc 763e
00000010: 2653 98bd 75bb 0f3e 70f4 44bd db1f 57be
00000020: 78fc e53d 49fa 623e 86d9 603e e052 93bd
00000030: 5777 5c3e 4a73 6dbe cec1 d03d 1d2e 6abe
00000040: d18f 753e a5d1 0ebe 7eff 433e b2cf 0dbe
00000050: 7585 493e 30ce 8dbe 5a35 88be cc64 85be
00000060: ac8d 8c3e 4ea1 913e 8288 c1bb 97fe 63bd
00000070: 202e ddbd f0b1 a43e a700 87be ffda 05bd
00000080: a19c 4bbc f0d8 79be 4b78 a7bd d12c 8bbe
00000090: 3cbc aebd 08f0 febc 4e85 873e 689d a43e
000000a0: d69b 1abc 7b7c 4ebd acce 5abc ec01 223e
000000b0: 85c8 493e 6e78 b6bc 089c e4bd bde8 99bd
000000c0: 0e75 99be 4f14 2e3d a55b 7e3e be10 3dbe
000000d0: 69bc 98bd 6276 00bd 1c08 753e 47f3 7fbd
000000e0: 421e 9b3d bdf0 4abd faf8 febd f9ba 84be
000000f0: 2fc9 05be 346f 8bbd 9dc3 12bb 53ae 1a3e
00000100: 289b 59be 2ae3 593e efb2 9b3e beeb 8b3e
00000110: 9c01 a6bd f8ae 99be fc57 ab3e 336a 1bbd
00000120: 18e5 16be 6bc6 f73d f87e 79be 2294 fb3d
00000130: 949c 3bbe c25b b5bc 419a 8d3e 439f 633e
00000140: e39a 713e 8f96 913e e71a a8be 0747 42be
00000150: d7c4 36bc cf4b 8fbe 47b0 8abe a5c2 f7bd
00000160: 0c88 00be 739b 343e 7e06 79be cec0 fabd
00000170: 7914 6b3d f54a 133e a948 de3d 961d 5abe
00000180: c8fa 90be ccd3 4f3c 4b5f 593e e3f6 22be
00000190: 6c3d 693e 8a4c a9bd 8668 66bc 8cc2 083d
000001a0: 9816 7bbe 63ce 9abe a078 32be 4413 2dbe
000001b0: 8855 61be d6f9 9e3c fa5a 07be 5541 0d3e
000001c0: 7640 18bd bcec c63d d12c 9ebe 27bb 14be
000001d0: e7a9 7b3b 59e4 66bd 457d 933d 7a5a 18be
000001e0: d407 e2bc a586 593c 8ba0 6d3e 2013 71be
000001f0: 646c 473e f3ee 0d3d 250a 19be 9fd6 39be

bn1_mlp.running_var f4 [128]
0.44583628 0.31506747 0.2939764 0.371206 0.40374 0.2175141 0.24994893 0.3071201
0.29964697 0.4236622 0.26612628 0.2705729 0.3389541 0.51377064 0.68394786 0.38181135
0.46240994 0.2663247 0.26308936 0.37272632 0.2039975 0.3358258 0.41098374 0.45947826
0.25352108 0.43989724 0.22379993 0.31213656 0.3086735 0.4747428 0.4316814 0.34698203
0.15993798 0.3137511 0.3058923 0.48250777 0.41442585 0.4430946 0.4518531 0.3617506
0.1795071 0.45314747 0.38580388 0.3202992 0.3005627 0.1769874 0.36507335 0.31993505
0.20265238 0.20727316 0.47343764 0.45806202 0.4777926 0.316538 0.3187012 0.20100024
0.38025782 0.27524966 0.3861262 0.3446827 0.17766684 0.24937204 0.27678597 0.40734747
0.34292448 0.3675391 0.48475263 0.24185118 0.26623738 0.44004753 0.39897704 0.48983145
0.14790115 0.28080738 0.28381428 0.42787358 0.27290043 0.20413248 0.22571856 0.4979738
0.25236923 0.47445908 0.24118538 0.42880428 0.15779705 0.32936037 0.16042036 0.42565337
0.38528228 0.462359 0.18264948 0.317871 0.29808047 0.3331373 0.26640135 0.32887203
0.29544637 0.40080476 0.51378405 0.46090418 0.3554552 0.44711483 0.21984278 0.39182216
0.3021276 0.29826617 0.35502952 0.31304488 0.3313344 0.374394 0.5221571 0.38929084
0.33552855 0.1824256 0.27206331 0.25048786 0.46900567 0.34844545 0.30437654 0.2829245
0.20533426 0.512694 0.36640972 0.37729198 0.22887774 0.2758128 0.3861177 0.36404422
00000000: a744 e43e 8650 a13e 1384 963e b60e be3e
00000010: 02b7 ce3e 04bc 5e3e 9df2 7f3e d93e 9d3e
00000020: 546b 993e 40ea d83e b441 883e 8888 8a3e
00000030: 648b ad3e 7986 033f 3517 2f3f c77c c33e
00000040: ffc0 ec3e b65b 883e a6b3 863e fcd5 be3e
00000050: b8e4 503e 5cf1 ab3e 766c d23e bc40 eb3e
00000060: 84cd 813e 363a e13e cf2b 653e 5dd0 9f3e
00000070: 740a 9e3e 7d11 f33e 5805 dd3e a1a7 b13e
00000080: c8c6 233e fca3 a03e ea9d 9c3e 420b f73e
00000090: a02f d43e 4cdd e23e 4a59 e73e 6037 b93e
000000a0: b6d0 373e f202 e83e 1688 c53e 42fe a33e
000000b0: 5be3 993e 2f3c 353e e5ea ba3e 87ce a33e
000000c0: 1b84 4f3e 6a3f 543e 6b66 f23e 1b87 ea3e
000000d0: 3ba1 f43e 4511 a23e ce2c a33e 02d3 4d3e
000000e0: 27b1 c23e 86ed 8c3e 55b2 c53e 407a b03e
000000f0: 4cee 353e 625b 7f3e e4b6 8d3e d98f d03e
00000100: cc93 af3e 162e bc3e 7f31 f83e d6a7 773e
00000110: 4450 883e e94d e13e b846 cc3e 30cb fa3e
00000120: 6673 173e fcc5 8f3e 1b50 913e 3f12 db3e
00000130: 9bb9 8b3e 1b08 513e c422 673e 6cf6 fe3e
00000140: 8a36 813e 4dec f23e 4df9 763e 3c8c db3e
00000150: 8d95 213e eca1 a83e 3c45 243e 3def d93e
00000160: b843 c53e 52ba ec3e 7708 3b3e fdbf a23e
00000170: 019e 983e f990 aa3e c265 883e ea61 a83e
00000180: bf44 973e 4836 cd3e 5a87 033f a2fb eb3e
00000190: 39fe b53e 3cec e43e 771e 613e ea9c c83e
000001a0: 78b0 9a3e 58b6 983e 6ec6 b53e 6b47 a03e
000001b0: aaa4 a93e 92b0 bf3e 16ac 053f 2151 c73e
000001c0: 66ca ab3e c7cd 3a3e e24b 8b3e f23f 803e
000001d0: 8321 f03e 7167 b23e 3ed7 9b3e 7bdb 903e
000001e0: 2543 523e ea3f 033f 0e9a bb3e 6a2c c13e
000001f0: ed5e 6a3e 5637 8d3e 38b1 c53e 0164 ba3e
