Model Results/NCF Hybrid Embedding/Cluster_1/best_random_model.pt (torch, 564027 bytes, 23 tensors)

customer_embeddings_gmf.weight f4 [2901, 5]
-1.2287084 -0.05014597 0.29328462 -0.78240263 1.4852188 0.17105888 0.24849312 0.04727354
-0.8989925 0.4896497 -0.69510514 -0.02464398 -1.0050989 -2.408163 2.2040591 1.0785263
-0.7513084 -0.369205 1.6171883 0.27658397 -0.16003715 -0.37488255 -0.76880056 0.7807447
1.7462656 -0.8894355 0.4185856 -1.2577239 0.5423695 -1.1092552 -1.4138616 -0.9108105
-0.22611922 1.4899907 -0.36647075 0.40021643 1.4866426 0.8874453 2.1846423 1.2038412
0.4682548 -0.528662 -2.1239874 0.36454338 -1.9254031 -1.9003026 0.8930616 1.5590395
-0.8669682 0.54122555 0.5968397 0.42430806 2.0864508 0.99784344 -1.5902988 0.103538446
-1.4538959 0.66270435 -1.4144548 -1.1892834 -1.0245924 0.019872703 0.939146 -0.5112498
-0.45270157 0.01893182 0.57477367 -1.2087845 -1.6009701 -0.8589661 0.40349776 -0.5522573
-0.5661969 0.7410954 -0.341394 -0.30828702 0.028464155 -0.3763692 1.0616453 -1.0840764
0.6744714 -0.5016499 -0.9804928 -0.38163447 0.34079203 0.24833943 -0.21916962 -0.8544509
-0.9049549 -0.5146754 -0.32558808 0.21512109 0.70143116 1.3113502 0.41059348 -0.81180024
-1.8815434 0.34298325 -0.5511042 -0.5701588 -1.1523347 -0.13987502 -0.12205716 -0.14156088
-1.5095212 0.9192521 -0.61175394 1.0759711 0.1987519 -0.5453996 -1.0011295 0.76167357
-0.8201672 -1.2709337 -0.27924308 -1.6979088 -0.23278144 1.8340781 -0.47248456 0.36403027
-0.6387777 3.276071 -0.47249576 0.75863034 1.4750755 0.75302196 0.843633 0.71980333
0.18587771 1.4004625 -0.40959817 -0.2565134 -0.23883545 0.3731809 -1.2244728 0.0116241155
0.9063704 -0.059936274 1.3729362 0.20212519 -0.14399655 0.3556354 -0.30147704 -1.3637383
0.8428125 -0.53329283 0.99790585 -0.110317506 -0.575997 -0.91109896 0.0743205 0.3890336
0.13813522 -2.2452042 0.43532577 0.35511053 -0.8591043 -1.0303229 0.09315427 -0.5643978
0.7062667 -0.06466989 -0.16798234 -0.69930804 -0.53583467 0.21050891 -0.92691445 -0.86610126
-0.30743635 -0.36243334 1.806211 0.36591652 0.8671818 -0.58076733 1.3921705 -0.09450405
1.1123761 -1.3711613 -1.1024309 0.6147596 0.7960955 0.17441344 1.177186 0.42871872
-0.069240704 1.7670295 1.3970026 1.4939841 0.8649516 -0.21411972 0.5424632 -0.36840254
0.6180997 -1.785491 0.39695174 1.1248654 0.47952178 1.1546065 1.038148 -0.54036057
2.5145452 -1.0839487 0.079175584 -2.242354 -0.72812694 -2.498109 1.995944 0.17049709
-0.13368414 0.953966 1.5200834 1.0337813 -0.5919361 0.22149698 -0.07927079 -0.9825293
0.017893404 0.33039135 -2.1457448 2.180049 0.84270066 0.5707526 2.2670195 2.6221104
0.03012726 -0.596052 -1.444 -0.3661531 1.0766195 0.41569808 -1.4581629 1.7662791
-1.1945454 0.8259596 1.4240215 -1.7230194 -0.22132988 0.05667921 1.1149718 0.31406006
-0.2671712 -0.16224897 0.8726377 -0.115753055 -0.5749057 0.8879625 -0.10955819 0.6469252
-0.34761402 -0.9753606 0.9096757 -1.1335444 -1.6220773 -0.7447734 1.1341075 -0.55528873
00000000: 5146 9dbf dc65 4dbd 6729 963e 8a4b 48bf
00000010: a61b be3f 0f2a 2f3e fb74 7e3e e6a1 413d
00000020: 5f24 66bf 5eb3 fa3e 69f2 31bf 2ce2 c9bc
00000030: 15a7 80bf 581f 1ac0 4e0f 0d40 260d 8a3f
00000040: bf55 40bf 7008 bdbe 0700 cf3f 6a9c 8d3e
00000050: c7e0 23be 9bf0 bfbe 1dd0 44bf e2de 473f
00000060: a285 df3f 0cb2 63bf da50 d63e 19fd a0bf
00000070: bad8 0a3f 13fc 8dbf 6bf9 b4bf e02a 69bf
00000080: cc8b 67be 04b8 be3f 0ea2 bbbe 2be9 cc3e
00000090: 4e4a be3f 9d2f 633f 2ed1 0b40 7817 9a3f
000000a0: 18bf ef3e 6556 07bf 69ef 07c0 6ea5 ba3e
000000b0: 9c73 f6bf 1e3d f3bf af9f 643f 9b8e c73f
000000c0: a1f1 5dbf c28d 0a3f 7dca 183f e83e d93e
000000d0: 6988 0540 ab72 7f3f e98e cbbf f70b d43d
000000e0: 4319 babf fea6 293f db0c b5bf 703a 98bf
000000f0: d825 83bf 14cc a23c df6b 703f 44e1 02bf
00000100: 80c8 e7be e716 9b3c 5e24 133f 73b9 9abf
00000110: 97ec ccbf 34e5 5bbf 4297 ce3e bc60 0dbf
00000120: 48f2 10bf 6eb8 3d3f 32cb aebe ccd7 9dbe
00000130: a92d e93c 77b3 c0be fee3 873f 04c3 8abf
00000140: 28aa 2c3f 216c 00bf 9301 7bbf 9865 c3be
00000150: 4b7c ae3e b14c 7e3e 006e 60be 4bbd 5abf
00000160: 20ab 67bf c4c1 03bf 7bb3 a6be b448 5c3e
00000170: fe90 333f 53da a73f 4f39 d23e 24d2 4fbf
00000180: 6ad6 f0bf 809b af3e 2a15 0dbf edf5 11bf
00000190: b47f 93bf 663b 0fbe 1bf9 f9bd 56f5 10be
000001a0: fe37 c1bf 1b54 6b3f e89b 1cbf 6cb9 893f
000001b0: 9e85 4b3e 4f9f 0bbf 0325 80bf 0afd 423f
000001c0: 7af6 51bf f5ad a2bf f3f8 8ebe 1355 d9bf
000001d0: 425e 6ebe 12c3 ea3f 7fe9 f1be 2d62 ba3e
000001e0: ef86 23bf 26ab 5140 f7ea f1be 9935 423f
000001f0: 46cf bc3f 0cc6 403f 55f8 573f 0845 383f
00000200: ba56 3e3e 5b42 b33f dab6 d1be b955 83be
00000210: 4891 74be 9111 bf3e 86bb 9cbf 1373 3e3c
00000220: e407 683f bd7f 75bd 60bc af3f e8f9 4e3e
00000230: d573 13be d815 b63e 335b 9abe fa8e aebf
00000240: 8fc2 573f e185 08bf c276 7f3f 25ee e1bd
00000250: 8a74 13bf c83d 69bf 5935 983d 692f c73e
00000260: 5273 0d3e 6db1 0fc0 05e3 de3e 0cd1 b53e
00000270: 42ee 5bbf 9fe1 83bf aac7 be3d 607c 10bf
00000280: e5cd 343f a671 84bd 9003 2cbe da05 33bf
00000290: 762c 09bf a68f 573e 444a 6dbf d0b8 5dbf
000002a0: 4c68 9dbe dd90 b9be ec31 e73f 6959 bb3e
000002b0: a0ff 5d3f 2bad 14bf a532 b23f 578b c1bd
000002c0: 5762 8e3f 3782 afbf 751c 8dbf e360 1d3f
000002d0: eacc 4b3f 7099 323e 08ae 963f 0581 db3e
000002e0: 12ce 8dbd 062e e23f fbd0 b23f df3a bf3f
000002f0: 786d 5d3f 3342 5bbe dede 0a3f 429f bcbe
00000300: c83b 1e3f f88a e4bf 423d cb3e 97fb 8f3f
00000310: e183 f53e 25ca 933f 09e2 843f 1255 0abf
00000320: 4fee 2040 d5be 8abf cf26 a23d ba82 0fc0
00000330: 8766 3abf 05e1 1fc0 187b ff3f ca96 2e3e
00000340: 7fe4 08be 1e37 743f 1892 c23f f252 843f
00000350: 2089 17bf 1bd0 623e b958 a2bd 0a87 7bbf
00000360: 3095 923c 0e29 a93e e253 09c0 ec85 0b40
00000370: 3bbb 573f d81c 123f d916 1140 a8d0 2740
00000380: 72cd f63c dd96 18bf fed4 b8bf 6b78 bbbe
00000390: abce 893f 61d6 d43e 15a5 babf 6f15 e23f
000003a0: dde6 98bf 1772 533f 5646 b63f e68b dcbf
000003b0: 4da4 62be 7628 683d 65b7 8e3f 7bcc a03e
000003c0: aaca 88be 9824 26be 2f65 5f3f f00f edbd
000003d0: 052d 13bf 8351 633f 0b60 e0bd e49c 253f
000003e0: 77fa b1be 3bb1 79bf 82e0 683f fc17 91bf
000003f0: 3ba0 cfbf 78a9 3ebf 6f2a 913f 6727 0ebf

product_embeddings_gmf.weight f4 [8968, 5]
0.92648494 -0.25555626 1.4464127 1.3927653 0.94105345 -1.7048333 -0.85487115 -1.4745802
-1.6930945 0.8956607 -0.7887515 1.6695116 0.93041384 1.258121 0.79921305 -0.1715296
-0.65172434 0.4553603 2.1115162 -0.4154677 -0.34462097 0.37518647 -0.32240158 -0.7266014
-0.632086 0.076092675 -1.4827626 -1.5027541 0.20516798 -0.37346026 -0.19566502 -1.3024341
-0.7636163 1.4003999 -0.24695876 -1.112676 -1.7083912 -0.69273245 -0.24835342 -0.03565946
1.1616753 -0.08729107 -0.99327505 -1.4999835 1.6154661 -0.15789999 0.5981936 -0.5981878
0.18460682 1.678511 0.08143276 -1.1022896 0.7043202 -0.51496863 -0.37081718 -0.35152262
-0.536033 0.509215 0.11993964 1.3904512 0.14082068 -1.9634447 -0.0032985804 -0.71615124
0.9189112 0.09537218 1.2407861 1.6991824 0.52109635 1.09264 0.42856702 0.05460711
-1.8511239 -1.2582014 1.6331683 -0.3675017 -0.48710698 0.52030283 -0.13602068 -0.8742194
-0.601701 -1.8754897 -0.39979175 -0.27886283 0.36716726 -0.055818275 -0.8481258 -1.032295
-0.27988726 0.20086774 0.6847061 -1.670523 0.6248751 1.5988004 0.69681704 -0.88334864
0.6065603 0.5630247 -0.17302033 -0.9234141 -0.2678219 0.6339428 -1.2291169 0.25280502
-0.25393522 1.7928828 -0.88750786 0.014065809 0.75805235 1.4603585 0.7476368 -2.0498285
1.53502 -0.4363998 0.46149826 0.44796312 -0.32454526 -1.3451285 0.6912179 1.3353382
-0.636115 0.27802384 1.5107108 -0.4983248 0.03451004 0.55946773 0.7822903 0.944898
-1.1895784 -1.3465172 0.39179045 0.115477204 -1.0936766 -1.5272713 -0.023478754 -1.6943954
-0.9512069 1.1385809 -0.78802145 0.6215367 0.39332995 -1.0073186 -0.44821018 0.45877358
1.084385 0.6549466 -0.3116633 -0.2733262 -0.44784802 0.78267086 0.9542261 -0.36802477
0.18277715 -0.7324216 -1.2022142 -0.26572067 1.2184743 -0.12457956 -1.4345018 -0.17172973
0.9893808 2.3490431 0.05260577 -0.5572424 -1.6447668 0.8667047 -1.3329533 1.5518612
-0.6626045 0.35770765 -1.2534648 0.21115671 1.5294621 -0.7440879 0.01227878 -1.3936049
-1.9659464 0.25725704 -0.28797555 1.0165949 0.6045803 -0.690346 -0.49223748 0.56232274
-0.5483135 -1.2776637 0.07959327 -0.5121489 -1.3161303 -1.3955457 -0.2637998 -1.2670863
0.41497186 -0.9028415 0.37573415 -0.5294296 -1.2904613 0.5650072 1.3586788 0.28020602
1.2438906 0.033564385 -0.25583 -0.6556444 -0.15118735 0.11691136 0.2102735 1.3705788
-0.88319445 -0.81019247 0.34772143 -0.13151303 0.8568851 0.7171431 -0.326286 -1.2251917
0.28917506 0.45039397 -0.21032359 0.79221475 -1.0836133 0.8147464 1.1281472 -1.1241438
-0.18323126 -0.7111063 -0.47491178 0.9175734 0.08212398 -0.42945606 -1.0020441 2.469408
-0.2967632 1.0636414 -0.4214293 -0.31025547 -1.6931562 0.15006763 -0.869544 1.2449192
1.158331 0.364961 -0.37578538 -1.1008095 0.5202379 0.10858023 -0.06882004 0.16886994
1.3654021 0.48675984 -1.4352224 -0.94317913 -1.2229327 0.8089564 -1.7561234 0.49426788
00000000: 1e2e 6d3f 45d8 82be 0d24 b93f 2246 b23f
00000010: e1e8 703f fa37 dabf d6d8 5abf 0bbf bcbf
00000020: 52b7 d8bf 054a 653f 9eeb 49bf 8eb2 d53f
00000030: 9a2f 6e3f 1c0a a13f 3a99 4c3f 75a5 2fbe
00000040: 68d7 26bf fc24 e93e 1523 0740 2fb8 d4be
00000050: 2972 b0be 7118 c03e d211 a5be 8d02 3abf
00000060: 63d0 21bf 7ad6 9b3d 2acb bdbf 3f5a c0bf
00000070: 8e17 523e 2f36 bfbe 695c 48be 29b6 a6bf
00000080: 5c7c 43bf 4e40 b33f c2e2 7cbe 2b6c 8ebf
00000090: 90ac dabf ea56 31bf 5c50 7ebe a70f 12bd
000000a0: c7b1 943f a9c5 b2bd 4647 7ebf 76ff bfbf
000000b0: 98c7 ce3f 89b0 21be 3723 193f d622 19bf
000000c0: 9209 3d3e 73d9 d63f 38c6 a63d d317 8dbf
000000d0: 544e 343f fcd4 03bf c0db bdbe c6fa b3be
000000e0: 7539 09bf ea5b 023f eaa2 f53d 4efa b13f
000000f0: 4c33 103e 2852 fbbf ff2c 58bb b055 37bf
00000100: c43d 6b3f 7d52 c33d 14d2 9e3f cf7e d93f
00000110: 9266 053f a1db 8b3f 236d db3e b4ab 5f3d
00000120: a1f1 ecbf be0c a1bf a90b d13f 2f29 bcbe
00000130: 1666 f9be 9132 053f 0149 0bbe d8cc 5fbf
00000140: 1409 1abf 0c10 f0bf 81b1 ccbe 1cc7 8ebe
00000150: 59fd bb3e b4a1 64bd c61e 59bf 3e22 84bf
00000160: 624d 8fbe 46b0 4d3e e648 2f3f b3d3 d5bf
00000170: d1f7 1f3f 7ea5 cc3f 9a62 323f 2323 62bf
00000180: 8947 1b3f 6322 103f 3e2c 31be de64 6cbf
00000190: f41f 89be 134a 223f b453 9dbf a96f 813e
000001a0: cc03 82be 2f7d e53f b733 63bf 4774 663c
000001b0: b80f 423f 07ed ba3f 2065 3f3f 6430 03c0
000001c0: 897b c43f cb6f dfbe 8049 ec3e 6c5b e53e
000001d0: cc2a a6be 2c2d acbf a8f3 303f 5dec aa3f
000001e0: 6fd8 22bf 2459 8e3e f95e c13f 6e24 ffbe
000001f0: 665a 0d3d 4739 0f3f 2d44 483f d6e4 713f
00000200: 1b44 98bf ad5a acbf c298 c83e 507f ec3d
00000210: 98fd 8bbf a07d c3bf 8456 c0bc f3e1 d8bf
00000220: 4c82 73bf 05bd 913f c6bb 49bf 071d 1f3f
00000230: 8b62 c93e d1ef 80bf ce7b e5be 5fe4 ea3e
00000240: 21cd 8a3f 95aa 273f 5592 9fbe 69f1 8bbe
00000250: 564c e5be 1e5d 483f 2948 743f be6d bcbe
00000260: ef29 3b3e fb7f 3bbf 28e2 99bf 8a0c 88be
00000270: f7f6 9b3f 9123 ffbd c19d b7bf ebd9 2fbe
00000280: 0f48 7d3f b956 1640 2679 573d 70a7 0ebf
00000290: b887 d2bf 5ce0 5d3f 379e aabf 63a3 c63f
000002a0: 73a0 29bf 7525 b73e 8971 a0bf 7739 583e
000002b0: 6ac5 c33f 8b7c 3ebf f02c 493c a561 b2bf
000002c0: 22a4 fbbf 32b7 833e 8871 93be c81f 823f
000002d0: c6c5 1a3f 84ba 30bf 8d06 fcbe 62f4 0f3f
000002e0: 465e 0cbf 7c8a a3bf cc01 a33d 311c 03bf
000002f0: f576 a8bf 3ea1 b2bf c410 87be e22f a2bf
00000300: 3177 d43e 9f20 67bf 3a60 c03e b388 07bf
00000310: d62d a5bf 50a4 103f 30e9 ad3f 2a77 8f3e
00000320: cf37 9f3f cf7a 093d 26fc 82be 50d8 27bf
00000330: dbd0 1abe 396f ef3d f051 573e 206f af3f
00000340: 0819 62bf c668 4fbf 8b08 b23e 5aab 06be
00000350: d25c 5b3f b196 373f f50e a7be 15d3 9cbf
00000360: c10e 943e 0a9a e63e 115f 57be 96ce 4a3f
00000370: d7b3 8abf 3893 503f 2167 903f f2e3 8fbf
00000380: faa0 3bbe 100b 36bf a327 f3be 17e6 6a3f
00000390: 9e30 a83d aae1 dbbe fb42 80bf c80a 1e40
000003a0: 59f1 97be 6725 883f 95c5 d7be ced9 9ebe
000003b0: 58b9 d8bf 54ab 193e 709a 5ebf 8359 9f3f
000003c0: 3144 943f 2bdc ba3e f166 c0be 53e7 8cbf
000003d0: 502e 053f 505f de3d 85f1 8cbd 3eec 2c3e
000003e0: 7fc5 ae3f 9638 f93e 5eb5 b7bf 3074 71bf
000003f0: 0f89 9cbf c417 4f3f a7c8 e0bf ae10 fd3e

customer_embeddings_mlp.weight f4 [2901, 5]
0.31057847 0.2912699 -1.4186096 1.0166528 -0.40950325 1.3522179 1.3101139 -0.008931238
1.046264 0.73569345 -1.1764382 0.012540089 0.5736476 -0.41180548 -1.687257 0.94256926
1.4382607 -0.08514086 -0.729565 0.93957955 -0.012139484 -0.5092767 -0.6998297 0.76225156
-0.935839 -1.3243985 0.34874573 0.28417072 -0.5467705 0.8626264 0.9857729 -0.7929997
-1.2716775 0.24672368 0.06985929 0.01568067 0.810434 -0.8510895 -1.0622572 0.7756292
-1.6665395 -0.19717771 -0.25830513 -0.6290479 2.0382943 1.9787592 1.3521184 -1.0991788
0.19169962 -0.32035547 0.60383415 0.8748583 -0.9236906 -0.3325491 -0.63369304 0.2231067
-0.91494447 0.40617597 -0.32345855 1.0562288 -0.36907616 0.4580708 0.57929504 1.4314028
2.029761 1.231227 -0.72736496 1.2671746 0.74222475 0.872555 -0.045709834 0.6071326
-1.1062789 0.14414492 1.016628 -1.0352218 -0.26419565 0.3695746 -1.6722845 1.9390098
-0.5150839 0.56486887 0.8363899 0.04000475 -0.5868361 0.9282767 1.3050508 0.666361
0.11208734 0.07446441 1.3046031 -1.6574138 1.033795 0.5292614 -0.22323652 -0.13152239
-0.43116215 -0.3350284 0.30577916 -0.05377175 0.40948442 0.9677941 0.27623716 0.1706452
0.2507051 0.6044656 0.39320934 1.2334995 1.9234271 -0.022862993 -0.8822457 -0.3605823
2.1703365 -1.282238 0.8537423 -0.27793875 -1.0638707 0.31717512 -0.43748534 0.40284938
0.583984 -0.4166538 -1.6020716 0.61737216 -0.3482601 1.5028439 0.49407485 -1.6000795
0.20263226 0.52511656 1.0294445 -0.1305391 0.51699054 1.3213466 1.4520152 0.3194773
-0.93088406 0.9601879 -0.6494361 -0.26103178 -1.2849438 -1.6860069 -0.9977491 0.34207526
-1.2040486 0.08075286 -0.3580762 0.84335154 -2.5516412 0.45611537 1.4386564 1.2309994
-0.17524621 1.006643 -1.2776117 0.67107356 0.2620434 -1.1643894 1.6855224 -2.0839388
-0.3531479 0.15071107 0.3561635 -0.018188491 -1.2527882 1.429188 -1.2886019 -1.6013933
0.8797164 -1.054795 -0.6132713 -1.5410987 -0.18803757 -0.9653233 2.148292 0.5055938
-2.0480332 -1.6783344 -0.016953852 -1.0157759 0.029759036 1.4253734 0.78944707 -0.9906761
-1.3345431 0.018937897 -0.21304323 -0.20314716 -1.0650893 -1.5443509 -0.038353756 -1.4327742
1.1310215 0.14290057 -0.52325314 0.37947097 0.21633494 0.5508366 0.33228838 -0.8813579
-1.2790948 -1.0330412 0.32325837 -0.8978007 0.23163086 -0.511646 -0.18656757 0.10915367
-1.5000376 -0.020180875 1.8601612 -0.28313994 0.023716241 0.7404425 0.5315734 -0.69874656
0.30502692 -0.9469784 0.63790464 1.9230973 -0.05214902 0.28554553 -0.18602195 -0.4325357
-0.13764343 -0.25142357 0.30904427 -0.7937231 0.2703365 -1.1016661 -0.22894226 0.4291459
-0.32656527 -0.56110317 -1.3879701 0.5343938 1.1439366 -0.7502862 0.4907785 -0.24838674
-0.4610954 -1.7692754 0.41859928 -1.307554 0.98712987 -0.13668649 -0.12198288 -0.23654768
0.31293637 0.89340174 -0.2364383 -0.13029373 1.6056162 -0.78419924 -1.0015799 0.4078446
00000000: 2404 9f3e 5421 953e 0095 b5bf ae21 823f
00000010: 69aa d1be 7a15 ad3f d0b1 a73f 5454 12bc
00000020: fbeb 853f 6856 3c3f 8795 96bf f274 4d3c
00000030: 92da 123f 2bd8 d2be 0af8 d7bf 384c 713f
00000040: ed18 b83f 555e aebd c6c4 3abf 4988 703f
00000050: b0e4 46bc f55f 02bf 0a28 33bf eb22 433f
00000060: 2593 6fbf e485 a9bf cd8e b23e d37e 913e
00000070: 27f9 0bbf 15d5 5c3f 9d5b 7c3f 0702 4bbf
00000080: 54c6 a2bf 22a5 7c3e 6312 8f3d c074 803c
00000090: 9a78 4f3f 00e1 59bf 0bf8 87bf a38f 463f
000000a0: 2b51 d5bf f4e8 49be 9240 84be 4809 21bf
000000b0: 6a73 0240 fb47 fd3f 3712 ad3f e4b1 8cbf
000000c0: e84c 443e a205 a4be e094 1a3f b7f6 5f3f
000000d0: fd76 6cbf e043 aabe b539 22bf 1576 643e
000000e0: cd39 6abf 4cf6 cf3e 5c9c a5be 8132 873f
000000f0: 8df7 bcbe 4288 ea3e ae4c 143f 3538 b73f
00000100: 9be7 0140 d998 9d3f 9734 3abf c732 a23f
00000110: 7102 3e3f c45f 5f3f 3c3a 3bbd 0b6d 1b3f
00000120: 8c9a 8dbf ba9a 133e de20 823f 2682 84bf
00000130: a744 87be e238 bd3e 6b0d d6bf 7931 f83f
00000140: 8adc 03bf 3f9b 103f a61d 563f 05dc 233d
00000150: e43a 16bf 8ba3 6d3f e80b a73f a296 2a3f
00000160: 0c8e e53d cc80 983d 3cfd a63f 2326 d4bf
00000170: 6553 843f ad7d 073f 1d98 64be cead 06be
00000180: 49c1 dcbe d888 abbe 168f 9c3e c43f 5cbd
00000190: f1a7 d13e 5bc1 773f f56e 8d3e 9ebd 2e3e
000001a0: 6b5c 803e 42be 1a3f bc52 c93e 50e3 9d3f
000001b0: dc32 f63f 2c4b bbbc dbda 61bf 3e9e b8be
000001c0: cbe6 0a40 6020 a4bf db8e 5a3f fd4d 8ebe
000001d0: ea2c 88bf c764 a23e 14fe dfbe 4642 ce3e
000001e0: fa7f 153f a653 d5be af10 cdbf 1a0c 1e3f
000001f0: 264f b2be 305d c03f 61f7 fc3e 68cf ccbf
00000200: d57e 4f3e 0a6e 063f d6c4 833f 0bac 05be
00000210: 7e59 043f e321 a93f a2db b93f 8792 a33e
00000220: 6b4e 6ebf e0ce 753f 7241 26bf f5a5 85be
00000230: 0a79 a4bf 13cf d7bf 7c6c 7fbf 7d24 af3e
00000240: 441e 9abf c161 a53d c455 b7be e3e5 573f
00000250: 174e 23c0 f487 e93e e525 b83f 6391 9d3f
00000260: be73 33be aed9 803f c888 a3bf 7acb 2b3f
00000270: 8d2a 863e b60a 95bf 33bf d73f 415f 05c0
00000280: cdcf b4be 0154 1a3e 105b b63e 0800 95bc
00000290: 5d5b a0bf a2ef b63f e8f0 a4bf 75fa ccbf
000002a0: 1835 613f 8603 87bf 59ff 1cbf b942 c5bf
000002b0: ec8c 40be 6e1f 77bf 9e7d 0940 986e 013f
000002c0: fa12 03c0 a9d3 d6bf cee2 8abc f204 82bf
000002d0: 39c9 f33c a372 b63f 3419 4a3f f39c 7dbf
000002e0: 4fd2 aabf a623 9b3c 0128 5abe cf05 50be
000002f0: d954 88bf 4aad c5bf d418 1dbd 2565 b7bf
00000300: 50c5 903f 8754 123e ebf3 05bf 054a c23e
00000310: e886 5d3e a103 0d3f b421 aa3e aca0 61bf
00000320: 61b9 a3bf b23a 84bf 1f82 a53e 44d6 65bf
00000330: a430 6d3e 3bfb 02bf 920b 3fbe f68b df3d
00000340: 3b01 c0bf 5d52 a5bc c319 ee3f b8f7 90be
00000350: 9048 c23c a48d 3d3f 3215 083f 0ee1 32bf
00000360: 7d2c 9c3e 2d6d 72bf b84d 233f 0d28 f63f
00000370: 369a 55bd 0633 923e 8a7c 3ebe 5275 ddbe
00000380: 66f2 0cbe 97ba 80be 0d3b 9e3e 7031 4bbf
00000390: 8c69 8a3e 6503 8dbf d76f 6abe 03b9 db3e
000003a0: 9033 a7be 75a4 0fbf 01a9 b1bf 08ce 083f
000003b0: 846c 923f c212 40bf 5247 fb3e 1859 7ebe
000003c0: b214 ecbe 9e77 e2bf a552 d63e ee5d a7bf
000003d0: 8bb4 7c3f 8bf7 0bbe 29d2 f9bd 8e39 72be
000003e0: 3239 a03e fab5 643f e21c 72be b86b 05be
000003f0: d584 cd3f 48c1 48bf c533 80bf 02d1 d03e

product_embeddings_mlp.weight f4 [8968, 5]
0.6569232 1.4034991 0.3916743 -1.7483928 0.7350319 1.0834045 0.5424142 -0.6679181
-0.08467281 -0.95273 0.5131429 1.9547292 -0.45352763 -1.4009902 0.41198087 -0.3495635
-0.32787603 2.2173605 -0.54081494 0.050843682 -1.1533668 0.053692464 1.4218048 0.77310795
-1.2177767 1.0677253 -1.3416173 0.3959044 -0.2634674 0.07870119 0.6081785 -0.62369037
-1.1658615 0.2582774 -0.31290728 -1.4916061 -0.028754828 -0.70530754 -0.23978779 -0.9821145
-0.74350435 -0.6920795 1.7870437 0.3666117 1.3566909 0.60153514 1.0636953 1.3161414
0.065960966 -1.0225067 -0.5790891 0.22087589 1.1538742 -0.9169448 -0.8136652 0.6440647
0.8807715 0.11819283 -0.805371 0.29091316 0.11744633 2.5269113 -0.5404899 0.41661102
0.2116149 0.5303211 -1.4932278 -1.3410462 -0.8977209 -2.1575084 1.0879686 0.9505339
0.4486159 -1.7910132 1.0231916 0.019155614 -0.74648935 -0.06231201 -0.28034535 0.14838693
-0.34151733 -1.0252806 0.06615248 0.55505264 -1.1241796 -1.0474654 1.2944362 0.32619458
0.97150683 1.4530649 0.9665494 -0.37151572 2.09968 1.5925803 -1.0097152 -0.5354043
-0.9323932 -0.14304575 0.14718689 -1.5138738 0.61178386 -0.8689341 -0.93327385 -0.047054227
-1.8625331 -0.82103777 0.7917672 -0.35241324 1.4650084 -0.045909114 -0.33268043 0.8992091
-0.7897265 -2.3764403 0.50184906 0.5568322 1.7395247 0.20929714 -0.83209527 -1.125679
0.58374107 -0.38685918 -0.5573637 -0.98812914 -0.058987293 0.5173084 0.0039276006 -0.37475094
0.14575993 -0.5739368 1.4153721 -1.5015907 -0.09685085 0.47381768 1.0658354 -1.7827008
-2.0493586 0.6179202 -0.4711259 -0.16511464 -1.000574 -0.3067619 1.8714056 -0.0920946
0.06712198 1.3985857 -1.920806 1.9053091 -1.0373409 -1.0587224 1.1101198 0.03319333
-0.17138763 -0.16727002 0.24258544 0.35440272 0.100387536 -0.10712737 2.6548698 -1.0545844
-1.3444852 2.010518 0.62632143 2.1654434 -1.144901 -0.40631324 1.1604264 0.07504348
-0.3299884 -0.36678967 1.0816 -1.6810077 -1.8391728 0.7999926 -0.21080303 0.44972363
-0.33034086 1.4973503 -1.7106674 -0.67891765 2.3413556 0.2479714 0.9921596 -1.489643
0.76533955 -1.3755219 0.5484982 0.90238035 1.763023 -0.019622196 0.13221309 0.23445818
1.0629436 -0.14488466 -1.0736004 -1.327402 1.4455442 0.36068803 -0.16771528 -0.44565287
-0.8161669 -0.2663127 -1.2381483 1.0248458 -1.1459966 -1.8602787 -0.22177258 -0.53139275
-0.64847094 -0.16370356 0.6228478 1.1193699 -1.4898355 1.0042683 -1.4814957 -1.2076613
1.2500439 0.9308677 0.24308287 -0.67161536 0.06938236 -0.95057315 -1.0395494 0.65620434
1.2917271 0.13673003 0.55556875 1.2011014 -0.5042253 -0.35115972 0.05637587 0.23756953
0.68441135 0.17446283 -2.1611013 0.5218005 0.5250481 -1.6608094 0.54130876 -0.7501931
-0.32161412 1.7221651 0.44236547 0.89320457 0.074424714 0.19518512 1.4560554 -1.3538989
0.11795451 -0.7886904 -0.16383496 -1.9020554 -0.51214653 -1.9260151 0.10688095 0.4191965
00000000: 1e2c 283f dca5 b33f 8989 c83e 56cb dfbf
00000010: 0d2b 3c3f 00ad 8a3f a8db 0a3f aefc 2abf
00000020: f068 adbd 1de6 73bf 555d 033f 9134 fa3f
00000030: c634 e8be a653 b3bf 28ef d23e fdf9 b2be
00000040: 5edf a7be 3ce9 0d40 d972 0abf 7741 503d
00000050: 86a1 93bf a1ec 5b3d b3fd b53f 67ea 453f
00000060: 1be0 9bbf 39ab 883f 1eba abbf fbb3 ca3e
00000070: 33e5 86be 172e a13d 96b1 1b3f 2caa 1fbf
00000080: f33a 95bf ef3c 843e 6235 a0be f3ec bebf
00000090: 3f8f ebbc 098f 34bf ee8a 75be db6b 7bbf
000000a0: 4d56 3ebf 1f2c 31bf d9bd e43f 87b4 bb3e
000000b0: 0ca8 ad3f 35fe 193f 2b27 883f 5277 a83f
000000c0: 8b16 873d 80e1 82bf 2f3f 14bf 4a2d 623e
000000d0: 26b2 933f e5bc 6abf 5d4c 50bf 6de1 243f
000000e0: 3e7a 613f 150f f23d cb2c 4ebf 92f2 943e
000000f0: b487 f03d eab8 2140 8c5d 0abf 0a4e d53e
00000100: 94b1 583e 20c3 073f 1722 bfbf 67a7 abbf
00000110: 09d1 65bf 9e14 0ac0 8e42 8b3f 3156 733f
00000120: fcb0 e53e ec3f e5bf f1f7 823f 3cec 9c3c
00000130: ed19 3fbf e13a 7fbd 6d89 8fbe bef2 173e
00000140: 5cdb aebe 653c 83bf f47a 873d ee17 0e3f
00000150: 1ee5 8fbf 5913 86bf 16b0 a53f fa02 a73e
00000160: acb4 783f 08fe b93f c86f 773f 4f37 bebe
00000170: 2861 0640 acd9 cb3f 593e 81bf 4210 09bf
00000180: 52b1 6ebf 967a 12be 29b8 163e 9ec6 c1bf
00000190: de9d 1c3f 7772 5ebf 09eb 6ebf efbb 40bd
000001a0: 7c67 eebf 882f 52bf 41b1 4a3f 826f b4be
000001b0: 6585 bb3f 320b 3cbd 1755 aabe 9132 663f
000001c0: 842b 4abf 9917 18c0 2e79 003f 8e8c 0e3f
000001d0: bfa8 de3f fd51 563e 3204 55bf 4016 90bf
000001e0: 0e70 153f 6812 c6be 63af 0ebf 08f6 7cbf
000001f0: a99c 71bd 536e 043f 1ab3 803b 5bdf bfbe
00000200: 1742 153e 86ed 12bf ea2a b53f 2034 c0bf
00000210: bd59 c6bd 3b98 f23e 4b6d 883f 8a2f e4bf
00000220: b128 03c0 0530 1e3f 6a37 f1be d013 29be
00000230: cf12 80bf e50f 9dbe 388a ef3f 189c bcbd
00000240: 4077 893d db04 b33f f9dc f5bf 2be1 f33f
00000250: 96c7 84bf 3784 87bf 6818 8e3f bbf5 073d
00000260: 3d80 2fbe d548 2bbe 5168 783e 4674 b53e
00000270: fb97 cd3d 9865 dbbd 63e9 2940 9ffc 86bf
00000280: 1718 acbf 54ac 0040 9a56 203f a096 0a40
00000290: 1e8c 92bf 4a08 d0be da88 943f 65b0 993d
000002a0: 3df4 a8be dbcb bbbe de71 8a3f 432b d7bf
000002b0: 046a ebbf 51cc 4c3f c0dc 57be 2d42 e63e
000002c0: 7022 a9be 2da9 bf3f 26f7 dabf 8ccd 2dbf
000002d0: c5d8 1540 37ec 7d3e 2cfe 7d3f 9fac bebf
000002e0: 4bed 433f 1a11 b0bf 616a 0c3f 6602 673f
000002f0: bdaa e13f babe a0bc de62 073e ce15 703e
00000300: 890e 883f a55c 14be bd6b 89bf 4fe8 a9bf
00000310: 9807 b93f 1aac b83e 8ebd 2bbe 9d2c e4be
00000320: 50f0 50bf 235a 88be a57b 9ebf 262e 833f
00000330: 04b0 92bf 9d1d eebf 5a18 63be 5b09 08bf
00000340: 3102 26bf e8a1 27be f472 1f3f 8347 8f3f
00000350: eeb2 bebf dd8b 803f a7a1 bdbf a594 9abf
00000360: 7001 a03f 584d 6e3f b7ea 783e fcee 2bbf
00000370: 5718 8e3d c358 73bf f40f 85bf 02fd 273f
00000380: 5057 a53f f502 0c3e c139 0e3f b1bd 993f
00000390: e914 01bf 35cb b3be 62ea 663d 6d45 733e
000003a0: 9535 2f3f 62a6 323e 7c4f 0ac0 b894 053f
000003b0: 8d69 063f 6795 d4bf 3693 0a3f a80c 40bf
000003c0: 9baa a4be e86f dc3f ba7d e23e 0ea9 643f
000003d0: fc6b 983d 9cde 473e 0660 ba3f 8f4c adbf
000003e0: 2292 f13d 9de7 49bf 5ac4 27be 8d76 f3bf
000003f0: 091c 03bf aa87 f6bf 66e4 da3d eca0 d63e

fc1_mlp.weight f4 [128, 10]
0.043449495 0.16829294 0.17643897 -0.015486693 -0.29885253 0.2596454 0.21508896 -0.014661469
0.25354454 0.09889448 0.22741818 0.19359569 0.039480243 -0.05124578 0.15896747 -0.037989862
-0.15140276 -0.19355874 0.22586393 0.1888777 -0.015890243 -0.18172523 0.29363206 -0.111952215
0.20800038 -0.0082469145 -0.07795784 -0.19520274 -0.06524159 0.0991749 0.2669138 0.043299533
0.05149156 -0.2126092 0.0084112715 -0.14593823 0.1974458 -0.2842931 0.015043033 0.27196693
-0.25019065 -0.19790635 -0.033273805 -0.2467227 0.1126342 -0.15842287 0.0050744936 -0.3037251
0.13156755 0.08396975 0.18743847 0.12943847 -0.28874364 0.07104332 -0.2873731 0.08975296
0.01562832 -0.08387084 -0.03211158 -0.012826279 -0.19018888 0.18771811 0.16684201 -0.035399362
-0.0323289 -0.03738436 -0.05088174 -0.05187689 -0.19989115 -0.23556283 0.08188332 -0.17216522
0.20474124 -0.08440525 -0.124770276 0.2630959 0.255147 0.03204385 0.17094623 -0.23895082
0.22115628 -0.21101953 0.28448668 -0.25438514 0.30556118 -0.15616898 -0.009672064 -0.15125735
0.033231393 0.019265825 -0.12058325 0.30059502 0.28169844 -0.16288877 0.21623734 -0.2930593
-0.15930298 0.19545852 0.1325226 -0.076365665 -0.028484657 0.16404323 -0.21744375 0.29406366
0.10487759 0.1901149 -0.17473526 -0.07065319 0.16838573 -0.17013389 0.0221919 0.18463495
0.2977582 0.18245225 -0.0011997245 0.02844138 0.16314693 0.20486939 0.20141427 -0.32098743
-0.10202147 -0.22198619 -0.14821367 -0.11026357 -0.26548895 0.038250796 0.20083405 0.08946561
0.033785105 0.111241534 -0.06949838 0.053618066 0.07133675 0.102967165 0.18404338 -0.23377414
-0.2631505 0.21474032 -0.014807187 0.19251025 -0.07141826 -0.27406758 0.035049707 -0.027237803
-0.20289525 0.15110916 -0.08697835 -0.2778833 -0.09640703 -0.12521653 -0.31521836 -0.106807485
-0.19949894 0.2737846 -0.21061702 0.053500313 0.1753127 -0.25356442 0.21865854 -0.20811152
-0.18219972 -0.10023584 -0.099005625 0.1413191 0.08239798 -0.20829765 -0.13644563 -0.292121
-0.15407698 -0.082088076 0.11644634 -0.2951125 -0.28572634 0.22936746 0.1935611 -0.26513273
0.27916074 0.031285234 -0.036703426 0.108573765 0.25197452 -0.22974277 -0.13642113 -0.25233963
-0.2403691 0.1594658 0.09091486 0.051700365 -0.019317716 -0.1834316 -0.27970132 -0.28115213
0.25573817 0.23802507 -0.27841088 -0.049567956 -0.19143908 -0.2530293 -0.18905321 -0.06047353
0.06556077 -0.055366233 0.093830645 0.18560404 0.20803747 -0.06745403 0.15208663 0.27070495
-0.13646062 -0.3110792 -0.044153526 -0.026168708 0.016824977 0.06814466 -0.016568916 -0.15424107
-0.15367615 0.04855095 0.007438476 -0.3062621 0.3077371 -0.07082579 -0.15167046 -0.25735864
0.3140423 0.06850977 0.24456951 0.009592706 0.23694299 -0.17886668 0.07152467 0.3004089
-0.2328785 0.13510028 0.28900823 0.16003515 -0.27192953 0.15444246 0.2949784 -0.0349573
0.13101989 -0.0992636 -0.29746208 -0.2644588 0.027153635 -0.18879563 0.17172445 -0.06527287
-0.17895494 -0.26210108 0.1841674 -0.26173726 -0.25210658 0.026335925 -0.09255718 0.10888159
00000000: 19f8 313d fc54 2c3e 6bac 343e e6bb 7dbc
00000010: 3303 99be 3ef0 843e 4840 5c3e a836 70bc
00000020: 97d0 813e 3089 ca3d 50e0 683e f33d 463e
00000030: 09b6 213d 18e7 51bd 5ec8 223e 429b 1bbd
00000040: 5309 1bbe 4334 46be e048 673e 2869 413e
00000050: 412c 82bc 2e16 3abe f156 963e 3447 e5bd
00000060: 0dfe 543e 111e 07bc 5ca8 9fbd 3ae3 47be
00000070: 629d 85bd 361c cb3d eda8 883e da5a 313d
00000080: d0e8 523d 3ab6 59be 6ecf 093c d570 15be
00000090: 3b2f 4a3e dd8e 91be 0e77 763c 403f 8b3e
000000a0: fd18 80be f6a7 4abe 1d4a 08bd e0a4 7cbe
000000b0: c2ac e63d 9b39 22be f047 a63b db81 9bbe
000000c0: a5b9 063e 55f8 ab3d dfef 3f3e 858b 043e
000000d0: 35d6 93be 297f 913d 9122 93be 66d0 b73d
000000e0: f606 803c 7ac4 abbd 6f87 03bd 5025 52bc
000000f0: e0c0 42be 2d39 403e a2d8 2a3e ecfe 10bd
00000100: 4f6b 04bd 5820 19bd 5f69 50bd dd7c 54bd
00000110: 44b0 4cbe 6237 71be 71b2 a73d 144c 30be
00000120: b0a7 513e a9dc acbd 8f87 ffbd 81b4 863e
00000130: a1a2 823e 6940 033d 870c 2f3e 86af 74be
00000140: cb76 623e 8115 58be 3da8 913e c53e 82be
00000150: 8472 9c3e c3ea 1fbe 9477 1ebc 35e3 1abe
00000160: a41d 083d 5dd3 9d3c 5af4 f6bd 97e7 993e
00000170: c73a 903e 50cc 26be 526d 5d3e de0b 96be
00000180: 5220 23be 4726 483e 01b4 073e 9a65 9cbd
00000190: a858 e9bc f3fa 273e 93a9 5ebe 838f 963e
000001a0: 10ca d63d 7bad 423e cded 32be 9fb2 90bd
000001b0: 4f6d 2c3e 9437 2ebe cacb b53c f210 3d3e
000001c0: c373 983e c3d4 3a3e 1340 9dba e6fd e83c
000001d0: fd0f 273e 48c9 513e 8b3f 4e3e 7758 a4be
000001e0: a2f0 d0bd 5950 63be 53c5 17be ded1 e1bd
000001f0: 2bee 87be deac 1c3d 71a7 4d3e bf39 b73d
00000200: 4062 0a3d 9ad2 e33d 2b55 8ebd 9e9e 5b3d
00000210: 0119 923d 73e0 d23d de75 3c3e 7d62 6fbe
00000220: aabb 86be e3e4 5b3e d899 72bc 6821 453e
00000230: bd43 92bd 9652 8cbe 4890 0f3d d021 dfbc
00000240: c6c3 4fbe 5cbc 1a3e b521 b2bd b846 8ebe
00000250: 0d71 c5bd c338 00be 4d64 a1be e2bd dabd
00000260: 7349 4cbe 7f2d 8c3e fdab 57be 2523 5b3d
00000270: 2c85 333e 32d3 81be 06e8 5f3e 301b 55be
00000280: 9092 3abe 7348 cdbd 76c3 cabd f4b5 103e
00000290: 46c0 a83d fb4b 55be 67b8 0bbe e290 95be
000002a0: 5bc6 1dbe cb1d a8bd 6b7b ee3d fc18 97be
000002b0: b94a 92be 4edf 6a3e e234 463e 7abf 87be
000002c0: 28ee 8e3e f224 003d 5556 16bd ec5b de3d
000002d0: ce02 813e b041 6bbe fbb1 0bbe a932 81be
000002e0: 5123 76be 014b 233e 9231 ba3d c3c3 533d
000002f0: 3040 9ebc 7ed5 3bbe 0335 8fbe 2cf3 8fbe
00000300: 1df0 823e d8bc 733e df8b 8ebe c507 4bbd
00000310: 9b08 44be 0e8d 81be 2a97 41be 18b3 77bd
00000320: ba44 863d b4c7 62bd 482a c03d fc0e 3e3e
00000330: c607 553e 5725 8abd 99bc 1b3e d799 8a3e
00000340: 55bc 0bbe c645 9fbe 54da 34bd c25f d6bc
00000350: 89d4 893c 6d8f 8b3d 89bb 87bc 5ff1 1dbe
00000360: 485d 1dbe 5cdd 463d 76be f33b 63ce 9cbe
00000370: b88f 9d3e 1d0d 91bd 804f 1bbe 83c4 83be
00000380: 27ca a03e da4e 8c3d 6e70 7a3e ba2a 1d3c
00000390: 2fa1 723e d428 37be 877b 923d 32cf 993e
000003a0: b477 6ebe ba57 0a3e e3f8 933e 41e0 233e
000003b0: 593a 8bbe 2a26 1e3e 6907 973e 632f 0fbd
000003c0: 142a 063e b74a cbbd f34c 98be 2567 87be
000003d0: 4d71 de3c a453 41be 89d8 2f3e c8ad 85bd
000003e0: f73f 37be 1d32 86be 6196 3c3e 6d02 86be
000003f0: 1d14 81be 70be d73c 9e8e bdbd 50fd de3d

fc1_mlp.bias f4 [128]
-0.23232536 0.108278506 0.15788978 0.077823654 0.3086083 0.13401349 0.030247413 0.017500514
-0.20690289 0.14962178 -0.06893412 -0.23320219 0.14339252 0.13955349 -0.01759835 -0.0027391363
-0.022752248 -0.26268062 -0.24631076 0.19176927 -0.15646584 0.18033485 0.2590083 -0.1631056
-0.07477112 -0.21390365 0.093678996 -0.3123665 0.030929003 -0.17333242 -0.15631992 -0.28399023
0.08129984 0.041235574 -0.18151128 0.032947365 0.17334248 -0.030712565 -0.19892137 -0.06282801
0.11548639 -0.049586248 0.09335494 -0.24972565 0.21300468 -0.32189587 0.1657714 -0.0059920666
-0.11292606 -0.12948169 -0.2715717 -0.074646965 0.19005491 -0.046521258 0.19147472 -0.22871251
0.09679189 -0.1761973 -0.18053888 0.0017788255 -0.04672494 0.07883681 0.1719579 0.1994101
-0.09519815 -0.032695334 0.20777489 -0.1792347 -0.13844167 0.26351294 -0.13363756 -0.25481716
0.083580524 0.114771366 -0.25296897 0.025930146 -0.12242678 -0.011571698 0.13107066 -0.14179021
-0.10922379 0.08041208 -0.13736463 -0.03848779 0.28888 -0.26502085 -0.17130096 -0.044500194
0.23156716 -0.24460068 -0.1833598 -0.29982015 0.106107816 0.27285287 0.14890833 0.18376431
-0.09794355 0.2046851 0.070681 0.294885 -0.08470747 0.1492825 -0.13031267 0.25124276
-0.3084361 -0.27078256 -0.1388467 0.2951433 0.2212819 -0.1077402 -0.15636463 -0.13870513
-0.24872294 0.2965714 -0.0074737715 -0.010591966 0.17378768 -0.20981956 -0.109129526 -0.05125488
-0.19385906 -0.0028795027 0.2738597 -0.14052479 0.20207353 -0.30970296 -0.26109332 0.30055696
00000000: b3e6 6dbe 1fc1 dd3d dcad 213e 0262 9f3d
00000010: e801 9e3e d53a 093e 6cc9 f73c 3d5d 8f3c
00000020: 5ade 53be 7436 193e 552d 8dbd 8ecc 6ebe
00000030: 7dd5 123e 1ce7 0e3e 6a2a 90bc 1583 33bb
00000040: ec62 babc 137e 86be e338 7cbe 2a5f 443e
00000050: 9538 20be b3a9 383e bc9c 843e 2805 27be
00000060: 9a21 99bd 8f09 5bbe c6da bf3d 80ee 9fbe
00000070: d25e fd3c 0e7e 31be 5412 20be 2b67 91be
00000080: 8880 a63d a2e6 283d 18de 39be d1f3 063d
00000090: b180 313e eb98 fbbc 0bb2 4bbe f9ab 80bd
000000a0: 2184 ec3d f31a 4bbd e030 bf3d 15b8 7fbe
000000b0: e61d 5a3e 89cf a4be fabf 293e 1959 c4bb
000000c0: c745 e7bd d996 04be 720b 8bbe 82e0 98bd
000000d0: c19d 423e 138d 3ebd f311 443e 9d33 6abe
000000e0: d43a c63d 116d 34be 2fdf 38be 7b27 e93a
000000f0: a762 3fbd 3275 a13d bb15 303e 2932 4c3e
00000100: 3ff7 c2bd 8beb 05bd f1c2 543e 4d89 37be
00000110: a7c3 0dbe 2beb 863e 49d8 08be 6577 82be
00000120: 442c ab3d 400d eb3d 2685 81be 756b d43c
00000130: e4ba fabd 3897 3dbc 6337 063e 7431 11be
00000140: b9b0 dfbd 17af a43d 50a9 0cbe 5fa5 1dbd
00000150: 14e8 933e d0b0 87be 8569 2fbe d645 36bd
00000160: f11f 6d3e 9a78 7abe acc2 3bbe 0782 99be
00000170: 0e4f d93d 5fb3 8b3e 6d7b 183e b62c 3c3e
00000180: a196 c8bd f998 513e 33c1 903d 2bfb 963e
00000190: 1c7b adbd 83dd 183e af70 05be e4a2 803e
000001a0: 56eb 9dbe 03a4 8abe d42d 0ebe 061d 973e
000001b0: b997 623e e5a6 dcbd 0d1e 20be b808 0ebe
000001c0: 3ab1 7ebe 35d8 973e 8ae6 f4bb ed89 2dbc
000001d0: 66f5 313e f0da 56be 4d7f dfbd a3f0 51bd
000001e0: fd82 46be 0ab6 3cbb 5737 8c3e bbe5 0fbe
000001f0: 5dec 4e3e 6391 9ebe 06ae 85be 9ae2 993e

bn1_mlp.weight f4 [128]
1.0198298 0.9796802 1.03001 1.0036734 0.9909755 1.0068631 0.99428904 0.9901447
0.982839 1.0113797 0.9881197 0.9627054 1.0160534 0.99107206 1.0092325 1.0071357
1.0050128 1.0098999 0.9671221 1.0264356 0.99058247 0.97819006 1.0199382 0.9826639
0.99621737 0.9908291 1.0013865 0.9909326 0.9881288 1.0312502 1.0097663 1.0224187
1.008657 1.0333238 1.015445 1.0081788 1.006504 1.0378318 1.0062623 0.9934989
0.9903816 0.970093 0.9775487 1.0105729 0.9742793 0.9972025 0.96399283 0.9798831
0.9806144 1.0166023 1.0309725 0.99429584 0.98556316 0.99270356 1.0240201 1.0069981
1.0051771 0.99775565 1.0158203 1.0070274 1.0028855 0.99115205 1.0035442 0.9826987
0.96028626 0.96746016 1.0225949 1.0237162 1.0158203 1.0372803 0.97629094 1.0293212
1.0059736 0.9819747 1.0080223 1.0078359 0.9837049 0.98480844 0.9961575 1.0232196
0.99882305 0.9826696 0.9902291 1.0012398 1.012013 0.9900508 1.007365 0.98964024
1.0291295 1.0199842 1.0028387 1.0093508 1.0187465 1.0163035 0.99090314 1.0103948
0.99022126 0.99249566 1.0021884 0.9865682 0.9947498 0.99503386 1.0154853 0.9799788
0.97449243 1.0189128 1.0143225 1.0237882 1.0004462 1.0243132 0.9941389 0.99107486
1.0345662 1.0429612 0.99671805 0.99211055 0.9859296 0.9983747 1.0162537 1.0108945
0.9895779 1.038846 0.9981436 1.0010526 0.9768553 1.0032389 0.9902482 1.001224
00000000: c889 823f 52cc 7a3f 5ed7 833f 5f78 803f
00000010: 92b0 7d3f e4e0 803f ba89 7e3f 207a 7d3f
00000020: 569b 7b3f e474 813f 6af5 7c3f dc73 763f
00000030: 0a0e 823f e6b6 7d3f 882e 813f d3e9 803f
00000040: 42a4 803f 6644 813f 5095 773f 3e62 833f
00000050: d096 7d3f aa6a 7a3f 568d 823f dd8f 7b3f
00000060: 1a08 7f3f faa6 7d3f 6f2d 803f c2ad 7d3f
00000070: 02f6 7c3f 0200 843f 0640 813f 9ede 823f
00000080: ac1b 813f f443 843f 1afa 813f 010c 813f
00000090: 20d5 803f acd7 843f 34cd 803f f255 7e3f
000000a0: a689 7d3f 0458 783f a240 7a3f 745a 813f
000000b0: 5e6a 793f aa48 7f3f 3cc8 763f 9ed9 7a3f
000000c0: 8c09 7b3f 0620 823f e8f6 833f 2c8a 7e3f
000000d0: de4d 7c3f d221 7e3f 1713 833f 50e5 803f
000000e0: a5a9 803f ea6c 7f3f 6606 823f 46e6 803f
000000f0: 8d5e 803f 24bc 7d3f 2374 803f 2492 7b3f
00000100: 52d5 753f 78ab 773f 64e4 823f 2209 833f
00000110: 6606 823f 9ac5 843f 34ee 793f ccc0 833f
00000120: bec3 803f b262 7b3f e006 813f c400 813f
00000130: 16d4 7b3f 681c 7c3f 2e04 7f3f dcf8 823f
00000140: deb2 7f3f 3c90 7b3f a87f 7d3f a028 803f
00000150: a489 813f f873 7d3f 56f1 803f 1059 7d3f
00000160: 84ba 833f d88e 823f 055d 803f 6832 813f
00000170: 4966 823f 3c16 823f d4ab 7d3f 9e54 813f
00000180: 247f 7d3f 3214 7e3f b647 803f bc8f 7c3f
00000190: eca7 7e3f 8aba 7e3f 6cfb 813f e4df 7a3f
000001a0: 5678 793f bc6b 823f 52d5 813f 7e0b 833f
000001b0: 9f0e 803f b21c 833f e37f 7e3f 15b7 7d3f
000001c0: aa6c 843f c17f 853f ea28 7f3f f5fa 7d3f
000001d0: e265 7c3f 7c95 7f3f 9a14 823f fe64 813f
000001e0: fa54 7d3f e8f8 843f 5786 7f3f 7e22 803f
000001f0: 3013 7a3f 226a 803f e880 7d3f 1c28 803f

bn1_mlp.bias f4 [128]
0.00088670425 0.019092161 0.009919136 -0.005485417 0.005720207 0.0071401005 -0.014197169 -0.006225348
-0.010092098 0.014705544 -0.0064423513 -0.049278617 0.0049025873 -0.00348333 0.018438986 0.0017004942
-0.0017642714 0.026201986 0.0073138294 0.0028723807 -0.009986398 -0.026760194 0.014860282 -0.034879055
-0.0062218076 0.0034037826 -0.009114169 -0.0018601401 -0.018881874 0.027980013 0.002260821 0.013818057
0.009358512 0.035852946 0.00063286023 0.001663463 0.0013656053 0.02049053 -0.0076150405 0.0013791542
-0.018974712 -0.008789626 -0.014563929 0.007317135 -0.0225524 -0.00987426 -0.027362183 -0.015701402
-0.032343667 0.027570404 0.027264277 0.0055630202 -0.016810833 0.0077318056 0.008506326 0.0021581468
0.01505349 0.00091368286 0.027892627 -0.0082306 -0.013182627 -0.008790718 0.023375174 -0.015294453
-0.0399891 -0.0055414173 0.01823317 -0.010124029 0.004311083 0.049211875 -0.015455459 0.017489817
0.0033097148 -0.014725531 0.007831543 0.017583435 -0.012574356 0.0018315943 -0.014790086 0.030294659
-0.0030899737 -0.017130932 -0.0045757177 -0.0012566713 0.019262005 0.004937466 0.012896016 0.021181403
0.02514592 -0.0018668264 -0.005718026 0.0056120544 0.023476265 -0.0009586925 -0.009127154 0.010550051
-0.0066628023 -0.03524512 -0.030105533 -0.015929272 -0.004928429 -0.0008099099 0.006353054 -0.016600706
-0.007908511 -0.016528506 0.00034572757 0.024784718 0.0045974967 0.016853616 -0.011353374 0.0059961444
0.020550702 0.008975954 -0.0040781447 -0.008794144 -0.041515484 0.0014563464 -0.011983865 0.0018806465
0.0017845007 0.03980473 -0.019766303 0.00024577734 -0.018289842 -0.0063287294 -0.012176505 0.0046869717
00000000: b771 683a 2a67 9c3c df83 223c 03bf b3bb
00000010: 9370 bb3b 81f7 e93b 3e9b 68bc 01fe cbbb
00000020: 5459 25bc 86ef 703c 5c1a d3bb 60d8 49bd
00000030: e2a5 a03b 9448 64bb 5b0d 973c 1ee3 de3a
00000040: 203f e7ba 8ca5 d63c d9a8 ef3b 8d3e 3c3b
00000050: fd9d 23bc 3238 dbbc 8a78 733c 57dd 0ebd
00000060: 4ee0 cbbb ff11 5f3b 9853 15bc f2cf f3ba
00000070: 29ae 9abc 5736 e53c 482a 143b 2265 623c
00000080: 7254 193c 8ada 123d 88e6 253a 8e08 da3a
00000090: 1cfe b23a c2db a73c 9787 f9bb bcc4 b43a
000000a0: db70 9bbc 5d02 10bc 8c9d 6ebc 94c4 ef3b
000000b0: d0bf b8bc a6c7 21bc a826 e0bc 3aa0 80bc
000000c0: cb7a 04bd 54db e13c 5559 df3c ff49 b63b
000000d0: dfb6 89bc 165b fd3b 1e5e 0b3c b26f 0d3b
000000e0: eaa2 763c 3884 6f3a 147f e43c a3d9 06bc
000000f0: f2fb 57bc f206 10bc 4b7d bf3c 9695 7abc
00000100: 9ccb 23bd c794 b5bb bb5d 953c 41df 25bc
00000110: fc43 8d3b 6492 493d e538 7dbc ce46 8f3c
00000120: cde7 583b 5b43 71bc df4f 003c 230b 903c
00000130: ac04 4ebc 1b12 f03a 1e52 72bc 812c f83c
00000140: 2881 4abb 2b56 8cbc e7ef 95bb e4b6 a4ba
00000150: 5acb 9d3c 77ca a13b d049 533c 9f84 ad3c
00000160: d1fe cd3c 4db0 f4ba 475e bbbb 53e5 b73b
00000170: 4c51 c03c c450 7bba 0f8a 15bc 1fda 2c3c
00000180: a353 dabb 305d 10bd e19f f6bc 1b7e 82bc
00000190: a97e a1bb 2250 54ba 482d d03b 34fe 87bc
000001a0: b392 01bc ca66 87bc c542 b539 5209 cb3c
000001b0: 99a6 963b 9810 8a3c 8103 3abc 4e7b c43b
000001c0: f259 a83c e10f 133c f5a1 85bb 5015 10bc
000001d0: 240c 2abd e0e2 be3a f957 44bc 0680 f63a
000001e0: e8e5 e93a 490a 233d f1ec a1bc addb 8039
000001f0: 94d4 95bc 3b61 cfbb f77f 47bc 2b95 993b

bn1_mlp.running_mean f4 [128]
-0.18352292 0.056128725 0.13039036 0.10357383 0.32259396 0.18901171 0.065258935 0.0015805676
-0.2953376 0.07482116 -0.09775806 -0.2748878 0.20210676 0.08795785 0.030061388 0.081932135
0.012847412 -0.271515 -0.25540298 0.27844155 -0.21428746 0.14859739 0.15278302 -0.26810044
-0.073926665 -0.23151591 0.040393494 -0.29259264 0.043171715 -0.14426298 -0.22258167 -0.3327478
0.04261814 0.13165519 -0.2751963 0.082752585 0.14481671 0.05838952 -0.17106168 0.05730524
0.07585315 -0.017239038 0.13512452 -0.21362735 0.24143763 -0.3078416 0.28126675 -0.024716927
-0.071813315 -0.17715777 -0.31629398 -0.08185481 0.12592 -0.11904261 0.19018485 -0.26232168
0.16980162 -0.14109899 -0.20537342 -0.14615524 -0.044207122 0.00018328351 0.2510249 0.23765005
-0.06442302 -0.14444114 0.2122989 -0.089238815 -0.07996532 0.19216707 -0.1678857 -0.24542181
-0.020689895 0.09617364 -0.2685032 -0.00018018519 -0.03470858 -0.015295492 0.21289529 -0.15624869
-0.10039729 0.053315863 -0.11618044 -0.09543278 0.25619227 -0.24446389 -0.16526908 -0.18103936
0.20230629 -0.29203567 -0.2055077 -0.28169647 0.028645562 0.35215956 0.117100164 0.24344184
0.026115125 0.2635049 0.05780675 0.33005542 -0.19273764 0.23960578 -0.01870091 0.15990216
-0.21647775 -0.28945208 -0.115907565 0.2992956 0.29374522 -0.13872257 -0.08019623 -0.09367679
-0.19182731 0.31837812 -0.039857134 -0.047032192 0.19827394 -0.25618464 -0.179575 -0.08864903
-0.2309404 -0.08514376 0.23797521 -0.16167164 0.27181438 -0.23793958 -0.2594594 0.3573634
00000000: 6fed 3bbe 3ce7 653d 0d85 053e 841e d43d
00000010: 092b a53e 498c 413e 7aa6 853d 0c2b cf3a
00000020: 7d36 97be d63b 993d 6135 c8bd 18be 8cbe
00000030: 13f5 4e3e 3f23 b43d 4d43 f63c 09cc a73d
00000040: f47d 523c 0404 8bbe 2ec4 82be e48f 8e3e
00000050: 2c6e 5bbe ea29 183e 2773 1c3e 7644 89be
00000060: dd66 97bd 8212 6dbe a673 253d b4ce 95be
00000070: d3d4 303d adb9 13be 73ec 63be eb5d aabe
00000080: 5c90 2e3d 9ed0 063e 88e6 8cbe 307a a93d
00000090: d54a 143e d929 6f3d cb2a 2fbe e6b8 6a3d
000000a0: e558 9b3d e238 8dbc 155e 0a3e 21c1 5abe
000000b0: 6d3b 773e 6a9d 9dbe 3202 903e 277b cabc
000000c0: dc12 93bd d968 35be 49f1 a1be 7fa3 a7bd
000000d0: 2cf1 003e 9dcc f3bd d1bf 423e 074f 86be
000000e0: 7ae0 2d3e 417c 10be 694d 52be b8a9 15be
000000f0: 8712 35bd cb2f 4039 5686 803e 895a 733e
00000100: 37f0 83bd 61e8 13be e264 593e d7c2 b6bd
00000110: dcc4 a3bd 72c7 443e 3bea 2bbe db4f 7bbe
00000120: db7d a9bc aff6 c43d 4079 89be 18f0 3cb9
00000130: 952a 0ebd f199 7abc 3901 5a3e a8ff 1fbe
00000140: 189d cdbd bc61 5a3d 03f0 edbd 4372 c3bd
00000150: a22b 833e be54 7abe 4c3c 29be 6262 39be
00000160: 6129 4f3e b385 95be 9c70 52be 853a 90be
00000170: 19aa ea3c 424e b43e 36d2 ef3d d148 793e
00000180: 63ef d53c 1dea 863e c5c6 6c3d 06fd a83e
00000190: 045d 45be 385b 753e a732 99bc 64bd 233e
000001a0: 58ac 5dbe 1033 94be f260 edbd 463d 993e
000001b0: c665 963e 4a0d 0ebe ec3d a4bd 9ed9 bfbd
000001c0: 616e 44be 7502 a33e 3c41 23bd d4a4 40bd
000001d0: 5308 4b3e a22a 83be 82e2 37be 9f8d b5bd
000001e0: a47b 6cbe da5f aebd c6af 733e 408d 25be
000001f0: 412b 8b3e 6fa6 73be ddd7 84be 56f8 b63e

bn1_mlp.running_var f4 [128]
0.315296 0.2790573 0.20470434 0.30019584 0.29908496 0.23785195 0.19827567 0.36566126
0.32046357 0.47681862 0.43594125 0.38617405 0.24946217 0.28923842 0.26035213 0.49731734
0.27431297 0.40076575 0.34607553 0.46519372 0.29804945 0.16523741 0.4076654 0.5496648
0.3546503 0.30774093 0.4735468 0.5973048 0.36843523 0.3264847 0.29742053 0.37275457
0.36060348 0.26922587 0.3076945 0.47582725 0.24186456 0.50620544 0.20397642 0.38528922
0.4530426 0.44775173 0.3946822 0.34930834 0.24612686 0.3336287 0.2943356 0.2910083
0.3213508 0.24793983 0.37079707 0.17445478 0.41929802 0.37644076 0.35987267 0.17039388
0.43652117 0.37934884 0.32955888 0.48955408 0.22585481 0.25430477 0.26207656 0.3378831
0.4190785 0.28808674 0.27865812 0.3636464 0.3673657 0.43117788 0.3197106 0.3786437
0.33218384 0.1589149 0.42029297 0.46687174 0.28460345 0.3547902 0.3845961 0.35685262
0.28176415 0.45351297 0.40875128 0.4510417 0.22337787 0.30029625 0.31168973 0.3162337
0.22497202 0.32420248 0.34049 0.30135256 0.3167861 0.22002761 0.21308136 0.28153262
0.3755861 0.32676926 0.35430142 0.46750054 0.32126635 0.4227902 0.28184032 0.2315528
0.4735415 0.19160998 0.36498716 0.5816014 0.4278116 0.24076463 0.35891137 0.38241246
0.26722658 0.29229513 0.21415457 0.23378249 0.33787873 0.28024927 0.42847872 0.31589422
0.24565442 0.48295733 0.34951067 0.4282328 0.21974073 0.18025638 0.2830109 0.28333572
00000000: 7a6e a13e 99e0 8e3e 049e 513e 45b3 993e
00000010: aa21 993e 768f 733e c708 4b3e f437 bb3e
00000020: cd13 a43e 9221 f43e b133 df3e 9bb8 c53e
00000030: 0373 7f3e 0f17 943e e04c 853e 61a0 fe3e
00000040: c072 8c3e 2b31 cd3e d030 b13e df2d ee3e
00000050: f099 983e ff33 293e 85b9 d03e d5b6 0c3f
00000060: b994 b53e 3890 9d3e ba74 f23e f8e8 183f
00000070: 8ba3 bc3e 0129 a73e 8147 983e b0d9 be3e
00000080: 05a1 b83e f9d7 893e 228a 9d3e a19f f33e
00000090: 58ab 773e ae96 013f 32df 503e a144 c53e
000000a0: 33f5 e73e b73f e53e c913 ca3e 8bd8 b23e
000000b0: ae08 7c3e 62d1 aa3e 28b3 963e 0aff 943e
000000c0: 1888 a43e f0e3 7d3e 1dd9 bd3e 46a4 323e
000000d0: 3bae d63e d8bc c03e 3b41 b83e bc7b 2e3e
000000e0: b47f df3e 033a c23e f1bb a83e d5a6 fa3e
000000f0: 7c46 673e 3c34 823e e62e 863e 04ff ac3e
00000100: 7591 d63e 1b80 933e 47ac 8e3e dc2f ba3e
00000110: 5b17 bc3e 59c3 dc3e 1cb1 a33e 96dd c13e
00000120: 0014 aa3e 96ba 223e a430 d73e d009 ef3e
00000130: 8bb7 913e 10a7 b53e c8e9 c43e 63b5 b63e
00000140: 6443 903e da32 e83e d947 d13e f0ee e63e
00000150: 2bbd 643e 6ec0 993e cc95 9f3e 62e9 a13e
00000160: 115f 663e defd a53e b554 ae3e e24a 9a3e
00000170: ca31 a23e eb4e 613e 0032 5a3e 0b25 903e
00000180: d24c c03e 4d4e a73e ff66 b53e 3b5c ef3e
00000190: 067d a43e f577 d83e 604d 903e 2d1c 6d3e
000001a0: 0874 f23e 6835 443e 99df ba3e d4e3 143f
000001b0: 1f0a db3e 018b 763e 3bc3 b73e 91cb c33e
000001c0: ecd1 883e b5a7 953e 564b 5b3e ad64 6f3e
000001d0: 71fe ac3e d57c 8f3e 9061 db3e e3bc a13e
000001e0: d58c 7b3e 2f46 f73e 10f3 b23e 5441 db3e
000001f0: b703 613e 2195 383e cee6 903e 6111 913e
