Model Results/NCF Hybrid Embedding/Cluster_1/best_custom_model.pt (torch, 564027 bytes, 19 tensors)

fc1_mlp.weight f4 [128, 10]
000000 43 92 30 be 3e 83 5d be c8 92 ce 3d 8b fa b7 bd
       -0.17243294 -0.21632096 0.1008659 -0.08983334
000010 80 63 41 be 05 bf 8d 3e 9b d7 86 3e a3 d2 7a bd
       -0.18885612 0.276848 0.2633637 -0.061236035
000020 65 b9 9b 3d b8 70 6c bc d4 04 fa 3d ed 7b 2a be
       0.076037206 -0.014431171 0.12207952 -0.16648836
000030 8c 2f ae 3d 12 1f fc bd 20 35 84 be 0a 29 82 3e
       0.085051626 -0.12310614 -0.2582178 0.25421935
000040 bc cc 8b 3e 85 fa fc 3c b4 ca 79 3e 10 b3 28 3e
       0.27304637 0.030881176 0.24393731 0.16474557
000050 88 cf 29 3d f2 5b 02 3e aa 4c 40 bd 50 65 67 3e
       0.041457683 0.12730387 -0.046948113 0.22597241
000060 17 a9 4a 3e b8 8a 78 be 25 ef 33 bd d7 f8 87 be
       0.19791065 -0.24271667 -0.043929238 -0.26557037
000070 2e 50 68 be 67 9c 06 3f 5b 1a 54 be 22 83 fd 3d
       -0.22686836 0.525824 -0.20713179 0.12378527
000080 cb c2 61 bd 6c 2b 95 bd 47 73 43 3e 8e 90 74 be
       -0.05511741 -0.07283673 0.19086944 -0.23883268
000090 c5 d0 d5 3b d0 b9 9e 3d 86 4a 23 be 11 ed 14 3e
       0.0065251314 0.07750285 -0.15946397 0.14543559
0000a0 06 61 87 3e 9f e0 f7 3d 97 8b 3f 3d 98 00 51 3e
       0.2644121 0.1210339 0.046763983 0.20410383
0000b0 1b 2e 14 3e 7d 1a 82 be 05 4d 96 be e4 92 b3 be
       0.14470713 -0.25410834 -0.29355636 -0.35073006
0000c0 e5 48 21 3e b9 6d 0a 3d b7 d8 0b bc e1 d7 4e 3e
       0.15750463 0.033796046 -0.008535556 0.20199539
0000d0 e8 3f 17 3d aa 8e 95 3e bb 3f 90 be 78 50 22 3e
       0.03692618 0.29210407 -0.28173622 0.15851009
0000e0 b6 9d c0 3d 2e 08 95 be af 36 82 3e 1c b6 d5 be
       0.09405081 -0.29107803 0.25432345 -0.417405
0000f0 0f c3 19 bc 6c 66 52 be 13 ee d7 3a 29 eb fe bd
       -0.0093848845 -0.20546883 0.001647415 -0.12447197
000100 f5 40 b9 3e db 86 0b 3e 45 86 40 be c2 cb 89 be
       0.3618237 0.13625662 -0.1880122 -0.26913267
000110 06 f9 7e be 8d da 14 3e 44 7e 1b be 6d c7 a1 3e
       -0.24899682 0.14536496 -0.15184885 0.31597462
000120 52 4e be 3d 38 66 91 be 23 8f 55 bd cb c4 15 be
       0.09292282 -0.283983 -0.05213846 -0.14625852
000130 f8 8a f5 3d bc f3 60 3e 1a bd 2c bd 7e e0 6b be
       0.11989397 0.21967977 -0.04217253 -0.23034856
000140 6e 38 02 3e f5 45 05 be 20 61 9c 3c 63 5b c8 bd
       0.12716839 -0.13014968 0.019089282 -0.09783056
000150 1a a1 5f bd 8e 16 41 be d5 62 1f 3d 89 0d 43 3e
       -0.054596998 -0.1885626 0.038912613 0.19048132
000160 f2 43 68 be c9 cd ad bf 2e 60 ee bd f2 5a 85 3d
       -0.22682169 -1.3578426 -0.116394386 0.06511487
000170 7e 6a 3d 3e 0e b1 11 be 35 28 78 be 24 dd 9c 3e
       0.18497655 -0.14227697 -0.24234088 0.30637467
000180 8d 34 8d 3d e4 f8 a6 3e e1 00 6d 3e 1a a6 43 bc
       0.06894789 0.32611763 0.23144867 -0.011941457
000190 14 8d 94 bd 98 5b 1a 3e 3e e7 1f be d3 e7 6a be
       -0.07253471 0.15074003 -0.15615556 -0.22939996
0001a0 40 ed 3f 3e 56 7f 0b 3e 54 7a a0 be 49 f1 4b 3d
       0.18742847 0.13622794 -0.3134333 0.049790654
0001b0 6c e4 0f 3e 98 21 c0 3d c1 e4 c8 3d c2 9a 77 bd
       0.1405198 0.093814075 0.09809256 -0.060450323
0001c0 b1 72 ac 3d 86 28 59 be 41 69 32 3e a3 88 86 3d
       0.08420313 -0.21206865 0.17422964 0.0656903
0001d0 46 fb 64 be 6b 37 6d 3e 0f cd 5d 3e 5a 7f 3c 3c
       -0.22361478 0.23165672 0.21660255 0.011504972
0001e0 75 16 a7 bd 2b 09 88 3e 11 5b 44 be b5 f6 04 be
       -0.0815858 0.26569495 -0.19175364 -0.12984736
0001f0 d4 a0 31 3e e4 7d 3b 3e c2 1f 85 3d db 98 4a 3e
       0.17346507 0.18309742 0.06500198 0.19784872
000200 df c7 8a be 9a 92 c7 3c 2e a3 88 3e 5d 9c 0a be
       -0.27105615 0.024361897 0.26686996 -0.1353621
000210 1c 2d ca 3d 8c dc 83 be a7 72 35 bd a2 1f fd 3d
       0.09871885 -0.257542 -0.044298794 0.12359549
000220 49 a1 7f 3e c3 0e 82 be de 5f b6 3d e5 bc 51 be
       0.24963869 -0.25401887 0.08905004 -0.20482214
000230 b4 10 56 3e 11 fa 0b 3e 23 50 ae bc 73 dd 8b 3e
       0.20904809 0.13669612 -0.021278447 0.2731739
000240 8f 84 d7 bc e7 87 8f be 57 9c 8d be 49 9a 59 3e
       -0.026308326 -0.28033373 -0.2765834 0.21250261
000250 61 2c 52 bd 61 62 a8 bd cb b3 0e 3e 12 96 84 be
       -0.051311854 -0.08221889 0.13935773 -0.25895745
000260 a9 e1 88 bd 4a 52 f5 3d 19 a9 0c 3e 86 2a 04 be
       -0.06683666 0.11978586 0.1373638 -0.12906846
000270 67 b2 32 be fa 0b 2e 3d a1 2e b9 3e 8e db 92 3e
       -0.17450868 0.04249189 0.36168388 0.28683132
000280 3f c7 a8 be c2 57 d7 bd db 74 0f 3e 62 a2 d8 3d
       -0.32964513 -0.10514785 0.1400942 0.10577847
000290 70 aa c0 3d 0e 7b 3b be d4 54 6e be b0 b7 1e be
       0.094075084 -0.1830866 -0.23274547 -0.15499759
0002a0 78 44 8b 3d db 45 5c 3e e4 10 60 3d a5 6d 98 3d
       0.06800169 0.21511023 0.05470361 0.07442788
0002b0 f6 86 dc 3d da 29 37 3e 92 14 11 be 7f 50 73 3e
       0.10767929 0.17887059 -0.14168003 0.23761176
0002c0 fa 8e 0c 3e 2c 54 97 3e 1e cc a7 3e fa e3 fd 3d
       0.13726416 0.29556406 0.32772917 0.12396999
0002d0 c6 9e 13 3d cd b9 fe 3d 05 50 a3 bd 1d 2e 2d be
       0.03604009 0.124377824 -0.07974247 -0.16912122
0002e0 dc 78 d7 3c 96 ce 06 3e fe dc 8a 3e 22 3e 7d 3e
       0.026302747 0.13164744 0.2712173 0.24730733
0002f0 75 24 c3 3e 21 b0 d9 bd 53 2e 92 be dc fd 53 bd
       0.38113752 -0.10629297 -0.28550968 -0.05175577
000300 83 84 27 3e f2 51 77 be 8d 8c 5f 3e 86 e1 da ba
       0.16359143 -0.24152353 0.2183096 -0.0016699291
000310 87 a7 bb be e5 3b 9c 3d e2 7e a8 3d cf cc ab 3d
       -0.3665125 0.076286115 0.08227326 0.083886735
000320 3d 8a b4 3d 15 67 c7 3d 14 c6 a0 bc 06 a9 6e bc
       0.08815429 0.09736458 -0.019625701 -0.0145666655
000330 69 f0 69 be db e9 9c be 77 79 65 3e d9 26 05 3b
       -0.22845615 -0.30647168 0.22409616 0.0020317344
000340 b8 34 ba 3b f3 f6 57 bf 1c 00 70 be f4 bd 47 3e
       0.005682554 -0.8436119 -0.23437542 0.19506055
000350 bd 27 10 3e b8 aa 6b be ea 21 24 be e9 77 a4 be
       0.14077659 -0.23014343 -0.16028562 -0.32122734
000360 e4 aa bd 3c c0 f7 f6 bd 48 b4 7b be ff ea f1 be
       0.023152776 -0.12058973 -0.2458049 -0.472496
000370 68 60 b0 be 56 1e d9 bd 58 cf 22 3e 75 ae 94 3e
       -0.34448552 -0.10601489 0.15899408 0.2903935
000380 82 96 a4 3a b6 16 28 bd 26 33 79 3d a0 57 45 3e
       0.0012557062 -0.041037284 0.060839795 0.19271708
000390 23 7f 3b bd e6 b5 08 3e 69 3c 83 3e 13 aa 7b 3e
       -0.045775544 0.13350639 0.25632027 0.24576597
0003a0 6e f7 1a 3e 68 d3 79 3e 85 97 83 bd d2 15 6a bd
       0.1513345 0.24397051 -0.064253844 -0.057149716
0003b0 bd 7e 4e be 58 6a 3d be a1 07 29 3e da 25 c7 3d
       -0.20165534 -0.18497598 0.16506816 0.097240165
0003c0 55 a2 f8 3d 5c 6c 8b 3d f7 ec 7c 3e d6 d4 ae be
       0.121403374 0.06807777 0.2469977 -0.34146756
0003d0 40 90 66 be a5 ca b2 be 7c 23 8b 3e 07 ab 37 3d
       -0.22515965 -0.3492023 0.2717551 0.04484084
0003e0 6a 9f 3c 3e 60 12 4a bd 76 06 27 3e e8 3e 64 be
       0.18420187 -0.04933393 0.16311058 -0.22289622
0003f0 87 a9 a3 3b 0f 6f 9a be e3 e6 87 3e 37 b3 d1 be
       0.0049945745 -0.30162856 0.2654334 -0.40957043

fc1_mlp.bias f4 [128]
000000 47 65 63 3e d7 2d 91 3e 2b 0a 1c be 95 a3 9a 3e
       0.22206603 0.28355286 -0.15238254 0.30202928
000010 92 10 7d be a0 95 1f be 8f b7 de 3d d2 58 22 bd
       -0.24713352 -0.15584421 0.10874855 -0.039635487
000020 6a 3f ea 3d 37 ec 15 3d 02 c4 f3 bd ff 26 4e 3e
       0.114378765 0.036602225 -0.1190262 0.20132063
000030 f7 fc ea bd 53 5c c6 bc c4 0d 80 be d3 55 9f be
       -0.114740305 -0.024213945 -0.25010502 -0.31120166
000040 5e 4c fd bc 21 ed af bd 7c f4 8e 3e ec 9e 18 be
       -0.030920204 -0.085901506 0.27920902 -0.14904374
000050 01 03 39 be e2 55 6f be c0 46 33 be 77 93 d8 3d
       -0.18067552 -0.23372605 -0.17507458 0.10575002
000060 69 8f 8e bc 6a 6d 25 be d7 d5 57 be ce bb 47 be
       -0.017402368 -0.1615502 -0.21077667 -0.19505236
000070 5f 27 89 3e a5 10 83 3e e7 66 01 bb 70 69 00 be
       0.2678785 0.25598636 -0.0019745172 -0.12540221
000080 ee 25 84 3e 5e ed 3a be 3a 06 84 3e 41 5c 2a be
       0.25810188 -0.18254611 0.25786 -0.16636755
000090 e7 8f 4b 3e b2 d0 d6 bd f8 75 1f 3d 22 95 6b 3e
       0.19879113 -0.10489024 0.038930863 0.23006108
0000a0 63 88 2a be e0 ea af 3d 2c a6 eb 3d b5 4d dd bd
       -0.1665359 0.08589721 0.11506304 -0.10805837
0000b0 78 68 a2 bd 55 68 74 be 92 b9 5a bd 53 51 ad 3d
       -0.07930082 -0.23867925 -0.05339963 0.08462777
0000c0 2b 64 48 3e f3 7f 26 3e eb 89 2e 3e 15 d0 37 3e
       0.19569461 0.16259746 0.17044799 0.17950471
0000d0 ac db 66 3e e9 8b 78 be e4 b0 73 bd cb a4 6a be
       0.22544736 -0.24272121 -0.059494868 -0.22914426
0000e0 01 81 75 be 5d e0 16 bc e7 41 59 bd 8e e5 47 be
       -0.23974992 -0.009208766 -0.053041365 -0.19521162
0000f0 33 c1 4b be f6 e9 60 bd 76 b3 8c ba f0 54 8b be
       -0.19897918 -0.054910623 -0.0010734636 -0.2721324
000100 1c 26 b2 be 5b 9f f7 bd 1d ac f6 3d 08 d6 49 3e
       -0.347947 -0.120909415 0.12044547 0.19710553
000110 38 40 65 be b2 6c 76 be 92 a4 43 3e b1 dd 3b 3e
       -0.22387779 -0.24064901 0.19105747 0.18346287
000120 8b cf c8 bd 7d 69 99 3e a1 72 d1 3d 5c df 09 3e
       -0.09805211 0.29963294 0.10226942 0.13464111
000130 e3 45 13 3d b5 20 2a 3e 8f d4 15 3d 2d 56 21 be
       0.03595532 0.16614039 0.036579665 -0.1575553
000140 22 d5 a8 bd ef 3a 12 3d ac 56 76 3e f7 74 91 be
       -0.08243777 0.035700735 0.240565 -0.2840955
000150 1b 01 09 bd 6e 2d 9e 3e fc ea 88 3e 19 da 21 3e
       -0.03344832 0.30894035 0.2674178 0.15805854
000160 7b 10 3f be 6e 14 79 3e 0d e0 1b be 41 ac 0f be
       -0.1865863 0.243242 -0.15222187 -0.14030553
000170 c9 86 cc bd 95 d9 54 3d 6f 21 86 be d1 89 0e be
       -0.09986646 0.051965315 -0.26197383 -0.1391976
000180 10 9a 5c be cb bf 15 3e 2b 87 8d be 83 ac 90 3e
       -0.21543145 0.14623944 -0.27642187 0.28256616
000190 c4 9a 66 3e 6f 48 a0 be 0b 91 4a be 1f ed 3f bd
       0.22519976 -0.31305262 -0.19781892 -0.046856996
0001a0 1c dd 92 3d 95 39 03 3d c7 20 10 be 32 61 3c be
       0.071710795 0.032037336 -0.14075004 -0.18396452
0001b0 26 b5 a6 bd a4 72 7e be 54 97 9f 3d c0 18 b6 bd
       -0.0814002 -0.2484842 0.077925354 -0.088914394
0001c0 2a 4f 8f bc 73 04 24 be 6c 89 82 be a2 66 59 3d
       -0.017493803 -0.16017322 -0.2549547 0.053076394
0001d0 fc 5d 4f 3e 56 37 28 be b7 c1 88 3d 28 77 64 be
       0.20250696 -0.16427359 0.06677573 -0.2231108
0001e0 e5 13 da 3c 41 d6 f2 bd c6 27 a6 3d a8 a4 69 3e
       0.026620815 -0.11857272 0.08113055 0.22816718
0001f0 42 bd 54 3e b5 13 03 3e 63 db 8c be da 18 dc bd
       0.20775321 0.12800486 -0.2751113 -0.107469276

bn1_mlp.weight f4 [128]
000000 b4 27 7d 3f fc 53 84 3f ba 9c 7d 3f a2 12 89 3f
       0.9888871 1.033813 0.9906727 1.0708811
000010 fe 1f 7a 3f 44 37 85 3f 2d 27 84 3f be 7e 89 3f
       0.97705066 1.0407491 1.0324455 1.0741804
000020 08 bb 8d 3f d2 73 87 3f 6e fa 7f 3f 40 36 79 3f
       1.1072702 1.058222 0.999915 0.97348404
000030 9f 65 80 3f 28 74 7d 3f e6 ec 7b 3f 95 dc 69 3f
       1.0031012 0.99005365 0.98408353 0.91352206
000040 c7 1d 80 3f 78 75 7c 3f d6 f9 85 3f dd ad 81 3f
       1.0009087 0.98616743 1.0466869 1.0131184
000050 2e 53 78 3f 66 56 7e 3f 32 af 86 3f ae a9 77 3f
       0.9700192 0.99350584 1.0522215 0.96743286
000060 6f 29 72 3f 38 53 75 3f 5c eb 80 3f e3 52 7d 3f
       0.9459447 0.95830107 1.0071826 0.989546
000070 96 23 77 3f f4 8b 81 3f a4 fd 6e 3f 16 c2 7d 3f
       0.96538675 1.0120835 0.93355775 0.99124277
000080 9a 8c 77 3f 13 9d 79 3f ca 66 7d 3f 6d d9 71 3f
       0.96698916 0.975053 0.9898497 0.9447239
000090 74 9a 7a 3f c5 08 81 3f d7 2d 71 3f 34 26 6a 3f
       0.97891927 1.0080801 0.9421057 0.91464543
0000a0 40 ae 8b 3f 48 57 83 3f d2 58 79 3f 4b 92 7f 3f
       1.0912552 1.0261011 0.97401154 0.998326
0000b0 20 39 7d 3f 12 cf 8c 3f 2e ba 83 3f 74 13 77 3f
       0.9891529 1.1000693 1.0291193 0.9651406
0000c0 ae ff 7e 3f 10 4c 86 3f b8 f9 78 3f 07 45 7d 3f
       0.99608886 1.0491962 0.9725604 0.9893345
0000d0 4d 4f 80 3f 46 5f 7d 3f 32 2d 7d 3f 6e 54 72 3f
       1.0024201 0.989735 0.9889709 0.9466008
0000e0 07 5e 83 3f 01 b6 7e 3f 7c fe 7f 3f 1d b3 82 3f
       1.026307 0.99496466 0.9999769 1.0210911
0000f0 92 9f 7b 3f 4a 98 86 3f d0 03 82 3f 6b 03 7b 3f
       0.9829036 1.0515225 1.0157413 0.9805209
000100 26 e6 7f 3f 8d f4 79 3f 15 d4 81 3f e0 64 87 3f
       0.99960554 0.9763878 1.0142847 1.057766
000110 64 59 86 3f 72 57 81 3f d4 ba 70 3f 63 f3 7f 3f
       1.049603 1.0104811 0.9403508 0.99980754
000120 ba 3a 87 3f 6c cb 7f 3f f0 f1 80 3f 06 72 8c 3f
       1.0564797 0.9991977 1.0073833 1.0972297
000130 62 f0 7b 3f 57 8f 6e 3f dc 6e 8c 3f 23 99 80 3f
       0.9841367 0.9318747 1.0971332 1.0046734
000140 4a 68 73 3f fa cc 7e 3f ea d5 74 3f 22 ed 7f 3f
       0.9508101 0.9953152 0.95638907 0.9997121
000150 5c d2 7d 3f 29 c5 85 3f 32 b9 82 3f f4 89 75 3f
       0.9914911 1.0450794 1.0212767 0.95913625
000160 50 e2 78 3f 5a 91 77 3f 8c bd 79 3f 76 8c 7a 3f
       0.97220325 0.96706164 0.9755485 0.97870576
000170 4c 57 80 3f 8b df 77 3f 34 24 76 3f 71 94 83 3f
       1.0026641 0.96825475 0.9614899 1.0279676
000180 4c 33 8a 3f 43 f6 82 3f 00 18 86 3f 86 22 82 3f
       1.0796905 1.0231403 1.0476074 1.0166786
000190 0e 19 83 3f 8c 69 84 3f 82 a7 92 3f ba d7 80 3f
       1.0242021 1.034471 1.1457369 1.0065835
0001a0 4c e6 81 3f 02 e3 7b 3f fd 9a 67 3f cb b4 82 3f
       1.0148406 0.9839326 0.9047087 1.0211424
0001b0 cc fa 75 3f 56 f6 75 3f b4 50 79 3f 21 92 81 3f
       0.9608581 0.96079004 0.9738877 1.012272
0001c0 5f 78 7e 3f 46 f8 7c 3f 4c d0 75 3f a8 de 80 3f
       0.9940242 0.98816335 0.9602096 1.0067949
0001d0 b0 c1 7c 3f 64 04 85 3f cb cc 7f 3f e4 17 7c 3f
       0.98733044 1.0391965 0.99921864 0.98473954
0001e0 6b dd 82 3f 44 4f 64 3f f4 1b 81 3f be f0 84 3f
       1.0223821 0.8918345 1.0086656 1.0385969
0001f0 7d 39 83 3f f4 23 7e 3f e8 74 7e 3f 10 be 8b 3f
       1.0251919 0.9927361 0.99397135 1.0917377

bn1_mlp.bias f4 [128]
000000 b1 b4 77 bc 36 d9 14 3d 72 6d ce bc e0 d8 d2 3c
       -0.015118764 0.03633996 -0.025198672 0.02573818
000010 b4 b6 65 3c 8f 7d aa 3d 32 87 02 3b d0 e8 60 3d
       0.014020611 0.0832473 0.0019917008 0.054909527
000020 94 3e 4c 3b f3 37 87 3d 5c 1f 5e 3d 32 14 05 bb
       0.003116523 0.06602468 0.054229125 -0.0020306227
000030 d6 f9 2f 3d 89 50 00 bd 90 a1 06 bd 73 3f 28 bc
       0.04296287 -0.031326804 -0.03286892 -0.010269034
000040 8b e4 8c 3c dd 66 54 bc 19 c0 14 3d a9 74 93 bd
       0.017198822 -0.012963978 0.03631601 -0.071999855
000050 69 87 07 bd 6c 04 fb 39 1c 7e 13 3d cd bb e7 bc
       -0.03308812 0.00047877745 0.03600894 -0.028287793
000060 6e 85 75 bd f0 9d 04 bd fc 1d 8d bc 78 63 41 3c
       -0.0599417 -0.032377183 -0.017226212 0.0118035
000070 45 9b 1b bd e8 c6 a8 3c 66 9c 3a bd a7 a3 8f 3c
       -0.037989873 0.020602658 -0.04555931 0.01753409
000080 9b 75 e3 bc a9 fa 83 3c 35 6b 24 bd 4e 92 5e bd
       -0.02776604 0.016110735 -0.040141303 -0.054338746
000090 c8 65 1e 3d e5 6f 0b bd 5e 7f 35 bd e2 d2 9d bd
       0.038671285 -0.034042258 -0.04431092 -0.07706238
0000a0 50 04 6b 3d f2 84 b9 3c 63 51 a7 bc cd b1 7b 3c
       0.05737716 0.022646401 -0.02042455 0.015362215
0000b0 64 ff f9 bc 9e c6 92 3d 79 16 32 3c ce 7d 36 bc
       -0.030517288 0.071667895 0.010869616 -0.011138393
0000c0 6d d6 12 bd 8a 61 a7 3c 5d 2f 99 bc d9 e1 37 3d
       -0.035849024 0.020432252 -0.018699342 0.04489312
0000d0 43 6b 37 bd b5 46 20 3c 0c 5a 54 3c ed 80 3a bd
       -0.044780027 0.009782483 0.012960922 -0.04553311
0000e0 c6 e0 08 3d f7 c2 fc bb 93 e7 60 3c 83 41 74 3c
       0.033417486 -0.0077136713 0.013727087 0.014908197
0000f0 03 d3 87 bc 50 ef 3e 3d 04 47 fb 38 ba 7d da bc
       -0.01658011 0.046614945 0.0001198184 -0.02667128
000100 42 7e b9 3d eb 56 f9 bc b6 4a 15 3d 35 2d 8f 3d
       0.09057285 -0.030436954 0.036448203 0.069910444
000110 e9 2a 69 3d aa f2 2b 3c ca 84 5e bd 0a 46 c0 3c
       0.056925688 0.010494867 -0.054325856 0.023470897
000120 67 1f 9e 3d d9 5e 85 3c a2 22 c4 3c f3 66 da 3d
       0.07720833 0.016280578 0.023942295 0.10664167
000130 1a ff 25 bd 49 48 72 bd 70 c9 c2 3d 4d d9 27 3c
       -0.040526487 -0.059150968 0.095110774 0.01024468
000140 24 84 8a bd 16 38 b7 3b a6 aa 62 bd a1 9b 14 3c
       -0.06763485 0.0055914028 -0.055338524 0.009070308
000150 47 76 46 bd a4 ae 35 3c ef a6 4f 3d 03 ee b9 bc
       -0.04845264 0.011089001 0.05069631 -0.0226965
000160 77 cb 10 3d 06 c9 04 bd 46 a6 81 3c e2 33 50 3d
       0.03535029 -0.032418273 0.015826356 0.05083073
000170 e6 df e0 3c 67 c4 96 b9 92 ab ec bc 3d 85 74 3d
       0.027450513 -0.0002875656 -0.028890405 0.05969738
000180 b7 e5 5a 3c 08 d4 a7 3c 0b bf 67 3d eb c3 bc 3c
       0.013360432 0.020486847 0.056578677 0.02304264
000190 3e 1f 20 3d 7f 43 8b 3d b4 03 fe 3d 07 c9 fe 3c
       0.039092295 0.06799983 0.1240305 0.031101717
0001a0 e9 ba b9 3c 62 a9 b6 3c 31 d0 b3 bd f1 ff e5 3d
       0.022672134 0.022297565 -0.08779944 0.112304576
0001b0 e1 90 92 bc 0a b4 99 3c 48 67 3f 3d 74 27 94 3b
       -0.01789135 0.018762607 0.046729356 0.0045213047
0001c0 46 c8 cb 3c 1e b6 91 bc 13 b9 45 bd 65 ca 2b 3c
       0.024875771 -0.017787036 -0.048272204 0.010485266
0001d0 b2 b7 9b 3c d5 0a 85 3d 83 54 ea 3b 76 bc aa bc
       0.019008491 0.06496207 0.007151188 -0.020841818
0001e0 18 15 7b 3d e9 3d 9f bd cb b9 12 3c 25 8d 7b 3d
       0.061299413 -0.0777548 0.008955429 0.061413903
0001f0 72 ea aa bc 20 83 b2 bc ac d9 8c bb d1 f4 0e 3e
       -0.020863745 -0.02179104 -0.0042984094 0.13960578

bn1_mlp.running_mean f4 [128]
000000 82 0f 68 3e 36 ff 99 3e a2 b7 15 be 97 54 84 3e
       0.22662166 0.30077523 -0.14620832 0.25845787
000010 c9 ad 5a be c0 d8 2b be ce 50 06 3e cf 27 1e be
       -0.21355356 -0.16781902 0.13116762 -0.15444873
000020 e5 88 0d 3e ba 46 ae bc 7b 21 23 be cc 72 4a 3e
       0.13821752 -0.02127396 -0.1593074 0.19770354
000030 b2 51 43 be 5c 81 67 bc 7f 79 63 be 08 40 5d be
       -0.19074133 -0.014129963 -0.22214316 -0.21606457
000040 63 13 a0 bc 64 92 c4 bd f5 24 73 3e 51 bd 3f be
       -0.019540494 -0.09598234 0.23744567 -0.18724562
000050 01 f1 3f be 4c 20 a3 be 21 2b 2c be 70 60 cb 3d
       -0.1874428 -0.31860578 -0.16813327 0.09930503
000060 e1 60 87 bd 8b 70 ff bd 39 46 81 be 3e c3 90 be
       -0.06610275 -0.12472638 -0.25248888 -0.28273958
000070 0f 2f 56 3e 4e 87 a5 3e eb 89 4d 3c 53 90 4d be
       0.20916389 0.32329792 0.012545089 -0.20074587
000080 26 3a 95 3e a8 d8 8f bd a2 64 4a 3e 72 3b 46 be
       0.29145926 -0.07023746 0.19764951 -0.19358614
000090 5f f1 f7 3d ef 75 fa bd 66 7a 01 3c cd 7d 5c 3e
       0.12106585 -0.12229525 0.007902717 0.21532364
0000a0 0b 2f 55 be a6 4e 27 3c 16 40 82 3d 17 7c d4 bd
       -0.20818727 0.010211622 0.0635988 -0.10375231
0000b0 bb 92 00 be f7 91 8a be bb 09 31 bd 8f 64 32 3d
       -0.12555973 -0.27064487 -0.04322217 0.04355293
0000c0 0c af 59 3e f5 61 2a 3e d3 86 7d 3e 5a a6 04 3e
       0.21258181 0.1663893 0.24758463 0.12954083
0000d0 c6 20 3c 3e 51 8b 58 be 45 d2 30 3d 5b af 54 be
       0.18371877 -0.21146895 0.04316928 -0.20770018
0000e0 0f 75 3b be 02 fc c4 3b 7b 93 c3 bc f5 87 11 be
       -0.18306373 0.006011487 -0.023874035 -0.1421202
0000f0 cc 7c 68 be 14 35 19 3d 07 99 7a bc 66 a1 51 be
       -0.22703856 0.037404135 -0.015295274 -0.20471725
000100 77 32 8f be d0 c6 0a bd a1 0b fb 3d 78 43 67 3e
       -0.2796819 -0.03388101 0.122580774 0.22584331
000110 6a 67 52 be 92 7e 48 be 80 9b 00 3e 36 ad 05 3e
       -0.20547262 -0.19579533 0.12559319 0.13054356
000120 e5 7b 19 be 46 cd a3 3e 5b 34 03 3e 3e 7b f9 3d
       -0.14988668 0.3199255 0.12812941 0.1218171
000130 c6 b9 86 3c 68 17 57 3e 11 88 6d bd 62 a6 4d be
       0.016446006 0.21005023 -0.05799109 -0.20083001
000140 e9 98 a6 bd 5a 1b a8 3c 0d 55 93 3e 9b 19 b6 be
       -0.08134634 0.020520855 0.28775826 -0.3556641
000150 3f 7c 90 bd 5c c4 aa 3e 05 fd 65 3e f8 9e 26 3e
       -0.07054948 0.33352935 0.224598 0.1627158
000160 99 c0 74 be 25 67 79 3e 0d 1e 63 be fd e8 00 be
       -0.23901595 0.24355753 -0.22179432 -0.12588878
000170 67 68 34 be 2d 00 df 3d 9f 1e 6d be b8 e1 d0 bd
       -0.17617951 0.108887054 -0.23156212 -0.101993024
000180 40 f5 74 be b4 58 1b 3e 0a 51 b7 be b6 0d 7c 3e
       -0.2392168 0.15170556 -0.35804015 0.24614605
000190 f9 c3 92 3e fc f5 91 be 56 18 ff bd 50 0e 5c bd
       0.2866514 -0.28507984 -0.124558136 -0.053724587
0001a0 17 0b a7 3d bd 16 29 bd b8 e4 ae bd 24 77 e6 bd
       0.08156412 -0.04128145 -0.085397184 -0.11253193
0001b0 a5 2d be bd 6e b9 5b be 99 3d e9 3d 56 f0 24 be
       -0.0928605 -0.21457455 0.11388702 -0.16107306
0001c0 14 d0 68 bc ab 40 5a be 1f 62 35 be bd ee 34 3b
       -0.014209766 -0.21313731 -0.17713211 0.002760812
0001d0 42 40 4d 3e de 7d cb bd a2 fe 6a bc 07 4e 9a be
       0.20044044 -0.09936117 -0.014342936 -0.30137655
0001e0 c0 79 65 3d a5 01 f8 bd bb 97 b7 3c 8b bb 2c 3e
       0.056024313 -0.12109689 0.022411218 0.16868417
0001f0 9e 39 69 3e 59 88 ca 3d 06 f7 63 be 36 d8 42 bd
       0.22775885 0.098892875 -0.222622 -0.047569476

bn1_mlp.running_var f4 [128]
000000 09 9d d2 3e 90 8c b8 3e d8 d0 77 3e b0 14 67 3e
       0.41135433 0.3604474 0.24200761 0.22566485
000010 d1 26 19 3f 65 d7 98 3e ec 69 81 3e 86 2f e1 3e
       0.59824854 0.29851833 0.25276124 0.4398157
000020 c4 93 50 3e 99 e3 a1 3e 99 29 ae 3e f0 5f 5d 3e
       0.20368868 0.31618956 0.34016111 0.21618629
000030 df c7 99 3e 72 2c ea 3e 20 b1 01 3f 55 a4 98 3e
       0.30035302 0.45737034 0.50660896 0.29812875
000040 bc 24 e5 3e 9b bf 7c 3e da 03 9f 3e 34 38 07 3f
       0.4475459 0.24682467 0.31057626 0.52820134
000050 1e d9 94 3e fd e4 e1 3e 22 8c d4 3e ba da fc 3e
       0.29071897 0.44120017 0.41513163 0.49385625
000060 0c 0d 1a 3f 95 23 19 3f bc db b2 3e da df 9b 3e
       0.6017616 0.5981992 0.3493327 0.30444223
000070 6e a6 a5 3e ac 71 1d 3f 3e e0 88 3e d0 1d 5d 3e
       0.32353538 0.61501575 0.26733583 0.21593404
000080 a5 89 bf 3e 07 1e 1b 3f 67 d7 dc 3e bb 2a 0b 3e
       0.37409702 0.60592693 0.4313309 0.13590519
000090 24 9e 0e 3f f3 bf 8e 3e 85 a0 de 3e 02 f6 ff 3e
       0.55710053 0.2788082 0.43481842 0.49992377
0000a0 90 47 9a 3e 82 d9 cf 3e f0 1d d9 3e ff e4 70 3e
       0.30132723 0.40595633 0.42405653 0.23524855
0000b0 4a f1 8d 3e 7f 17 0d 3e c4 2b 13 3f 3b 97 a9 3e
       0.2772315 0.13778494 0.57488656 0.33123192
0000c0 6a 45 ab 3e 65 52 a5 3e d7 1a 0c 3f af 9a 90 3e
       0.33451396 0.32289425 0.54728454 0.28243014
0000d0 45 af b0 3e 88 7a 87 3e 43 40 da 3e 01 84 14 3f
       0.3450872 0.2646067 0.42627153 0.5801392
0000e0 77 2e 8b 3e 6c 4e c6 3e 3a f7 b3 3e 66 d1 c0 3e
       0.27183887 0.38731706 0.35149556 0.37659758
0000f0 48 33 6e 3e d6 c1 da 3e 4c b1 b4 3e 88 e6 d9 3e
       0.2326175 0.4272601 0.35291517 0.42558694
000100 05 82 d3 3e 89 30 ab 3e aa ba 62 3e 97 09 93 3e
       0.41310135 0.33435467 0.22141519 0.28718254
000110 e2 9c b1 3e 39 23 99 3e ae a3 e8 3e 61 20 65 3e
       0.34690005 0.29909685 0.45437378 0.22375633
000120 7a 38 b8 3e e9 85 b4 3e 29 e9 aa 3e 97 34 a6 3e
       0.35980588 0.35258415 0.33381012 0.32461998
000130 ba e5 3c 3e 71 55 c1 3e bf c6 23 3f c7 da b2 3e
       0.18447009 0.377605 0.6397514 0.3493254
000140 0e a6 36 3e a9 75 a9 3e 08 9d 88 3e ae 65 18 3f
       0.17836782 0.3309758 0.26682305 0.5953015
000150 fb fc 9a 3e 59 e9 b2 3e 66 e4 d2 3e ee 74 39 3f
       0.30271134 0.34943655 0.4118988 0.72444046
000160 3f dd b5 3e 36 cb 8c 3e ff f9 06 3f 2c a1 be 3e
       0.3552036 0.27498788 0.52725214 0.3723234
000170 6c 14 c8 3e d6 90 c2 3e c1 e5 c4 3e ba 2d e1 3e
       0.3907808 0.38001126 0.38456538 0.439802
000180 fe 9c 9a 3e 6f 80 0f 3e c2 c3 b8 3e 62 a3 b5 3e
       0.301979 0.14013837 0.3608685 0.35476214
000190 65 08 ad 3e 99 fe db 3e 08 4c b2 3e 6c a2 75 3e
       0.33795467 0.4296768 0.34823632 0.2398774
0001a0 4f c3 d4 3e d6 76 b3 3e 7a 7a ec 3e 18 5e ef 3e
       0.4155526 0.35051602 0.46187192 0.46751475
0001b0 ea 84 0a 3f 83 d3 c2 3e 77 a1 e8 3e 97 32 21 3e
       0.5410906 0.38051996 0.45435688 0.15741955
0001c0 9f d2 41 3e ef 6b 06 3f 70 9c f4 3e 45 bc b0 3e
       0.18928002 0.52508444 0.47775602 0.34518638
0001d0 44 a4 07 3e 6c 35 97 3e b5 fe b3 3e 6d ac 06 3f
       0.13246256 0.29532945 0.35155264 0.5260685
0001e0 da d3 aa 3e 84 fe 27 3e bb 55 d1 3e 8f 7a 87 3e
       0.33364755 0.16405684 0.4088572 0.26460692
0001f0 62 ee 1a 3e 70 ca 70 3e cc 9e 47 3e cc bf 8b 3e
       0.15129998 0.23514724 0.1949417 0.27294767

fc2_mlp.weight f4 [64, 128]
000000 37 a9 1e 3d 4a 3c c5 bd 5d 88 72 bd 08 5a 9d bd
       0.038735595 -0.0963064 -0.059212077 -0.07683188
000010 6e 30 52 bd db 34 4e 3c 2c b0 a6 3d 99 a7 90 3d
       -0.051315717 0.012585844 0.08139071 0.07063217
000020 29 4b 16 3e f9 70 a6 bd 61 09 9b bd 6e d8 50 3c
       0.14677109 -0.081270166 -0.07570148 0.012746913
000030 67 6b 98 bd 69 78 68 bd e1 7e 9a 3d 3d c9 4e bd
       -0.0744236 -0.056755457 0.075437315 -0.050484885
000040 ae cc a3 3d 7c 6f 29 3b 25 c3 07 bc 05 b0 f1 3c
       0.07998024 0.0025853803 -0.008286272 0.029502878
000050 b2 ba bf 3c c4 2b ce 3a fd 58 59 bd a9 6c a9 bd
       0.023404453 0.0015729596 -0.05306338 -0.082726784
000060 57 0a 1f 3c 20 90 ea 3c 27 b7 83 3d 02 bf c0 bc
       0.009707055 0.028633177 0.06431418 -0.02352858
000070 a4 eb 92 bb 3a 68 1d 3d 6a cb 91 bd a2 48 b7 3d
       -0.004483657 0.038429476 -0.07118876 0.089494005
000080 8f 2d 38 bd 94 41 55 3c 6d 41 0b bd c2 0e 8e 3c
       -0.044965323 0.013016123 -0.03399794 0.017341021
000090 d0 cb f4 bc 8d 8e b8 bb 30 8a 8a bc d4 5b 15 3d
       -0.029882342 -0.0056322278 -0.016911596 0.036464527
0000a0 42 00 a9 bc 32 ed e1 bc a3 d0 3e 3d 6a 46 39 3d
       -0.020630006 -0.027578924 0.04658569 0.045233168
0000b0 6f 40 19 ba 20 85 0c 3c 3c 86 d6 bc a3 22 83 3d
       -0.0005846088 0.008576661 -0.026187055 0.06403091
0000c0 08 98 09 3d 08 b1 31 3d bc 1d 61 3b 01 b8 9b bc
       0.033592254 0.04338172 0.0034349998 -0.019008638
0000d0 0e be 84 3d 30 50 03 bd 5b d3 86 3d e6 32 13 3d
       0.064815626 -0.032058895 0.065832816 0.035937212
0000e0 94 b6 61 3d 5e 79 fb bc 72 3d 5c bc 1c 9c 3f 3c
       0.05510576 -0.03069752 -0.013442384 0.011694934
0000f0 02 74 9b bd 7a 03 91 bb 76 8b 16 3d 4b fc 3a 3d
       -0.07590486 -0.0044254633 0.036754094 0.04565076
000100 b0 12 1e 3d 9f 04 12 3d c9 74 42 3c 32 61 0b 3e
       0.03859204 0.03564894 0.011868664 0.13611296
000110 a8 4c 06 be 2f 2d ec bc d6 23 27 bd cf 5a 3b 3d
       -0.1311518 -0.028830139 -0.04080566 0.0457409
000120 6c 62 3c bd 3b 4d 9d bd 34 df 61 bd 2b e4 af bd
       -0.0459923 -0.07680746 -0.055144504 -0.085884415
000130 7a 3d 39 3d 51 62 a5 3d 89 0e ce bd 62 b8 43 3d
       0.045224644 0.08075393 -0.10061366 0.047783263
000140 d5 4a 90 bd 1f a1 28 3c 61 fb 10 3c ea c0 65 bd
       -0.07045523 0.0102923205 0.008848996 -0.05609218
000150 44 0d af bd 20 1d 20 3d ec a0 cf bd 85 24 14 3d
       -0.08547452 0.039090276 -0.10138115 0.03616764
000160 93 0b 3a 3d 46 9b 80 bd aa 6e a6 bd 67 c3 0a bd
       0.045421194 -0.06279616 -0.08126576 -0.033877756
000170 68 ed 9f 3c 0b 85 99 3d 95 19 81 bb 38 c9 ec 3d
       0.019522384 0.07496079 -0.003939817 0.11561817
000180 20 92 83 3c f3 3f e4 bd 91 13 9b bd b0 fd aa bd
       0.016060889 -0.1114501 -0.07572091 -0.08349168
000190 a0 37 60 3c e9 bb 06 3d c5 7f 9b 3d e7 b9 d2 ba
       0.013685137 0.03289405 0.075927295 -0.0016077132
0001a0 21 fa aa bc d0 c0 fe ba f5 98 93 3c a0 ab 94 3c
       -0.020871224 -0.0019436125 0.018017272 0.018148243
0001b0 19 b8 56 bd f7 11 95 3d e9 f1 b8 bd 39 1e f1 bd
       -0.052421663 0.07278817 -0.09030516 -0.11773343
0001c0 b4 ee 57 bd 35 7a 4c 3d a4 c1 a1 3d 2f 01 c8 bc
       -0.05271788 0.049921233 0.07898262 -0.024414627
0001d0 e9 b0 45 3d 68 9c 65 bd 16 3f ae bc 14 96 bb bd
       0.048264418 -0.056057364 -0.021270316 -0.091594845
0001e0 7a 54 9c 3c 0a ba 48 bd 43 ca 25 3d 3b 06 4b bd
       0.01908325 -0.049005546 0.040476095 -0.04956649
0001f0 7d 40 4b bd 98 59 05 3c be 52 68 3c bb db 4c bc
       -0.049622048 0.008139037 0.0141798835 -0.01250356
000200 44 3e 8f 3d 0c 88 9e bc 2c 30 c0 3d d1 46 5d bd
       0.06994298 -0.019351982 0.09384188 -0.054022614
000210 da 53 31 3d 06 eb 93 3d 6c 21 16 3c 8e 1b cc 3d
       0.043292858 0.072225615 0.009163242 0.09966193
000220 de 98 4a bd de 91 11 3d 40 01 09 3d b2 e3 93 bd
       -0.04946219 0.0355395 0.033448458 -0.07221164
000230 a6 6c 8b bd fa a9 40 bd 1d aa 8a bd bc 00 21 3d
       -0.068078324 -0.047037102 -0.06770728 0.03930734
000240 f4 34 a5 bd f3 8b 4e 3d 81 c4 72 3d a6 be d2 3c
       -0.08066741 0.050426435 0.059269432 0.025725674
000250 65 58 3e bd 0a 24 91 3a 9a 8c d9 bb 55 78 a3 3d
       -0.04647102 0.0011073363 -0.0066390755 0.07981936
000260 c6 a8 7b bd 97 bc 2a bd 26 c4 ae 3d f6 03 17 bd
       -0.06144025 -0.04168376 0.08533506 -0.03686901
000270 4b b8 88 3d 11 ad 9a 3d 8b a9 8b bd ce ca 73 3d
       0.06675776 0.07552541 -0.06819447 0.05951958
000280 cf 06 5d bd 47 60 34 ba 44 bc 9c 3d f6 81 94 3d
       -0.05396157 -0.00068808015 0.07653096 0.072513506
000290 a8 b5 0c bd 32 7f 9c bd c0 3f d1 3c c0 8f ba bc
       -0.03435293 -0.07641448 0.025543094 -0.022773623
0002a0 b4 23 48 bd d4 95 6e 3d 7c 74 8d bd e6 ee 54 3c
       -0.048862174 0.058248356 -0.06906983 0.012996411
0002b0 9c 6b 8c 3d 44 75 91 bc db 3f c4 3c b6 6a f3 bb
       0.06856462 -0.017756112 0.02395623 -0.0074284924
0002c0 71 cb 95 3d 46 e7 7b bd 35 ea 54 3d f9 ae b6 3a
       0.07314194 -0.061499856 0.05198117 0.0013937644
0002d0 8c 2a 72 3d c5 a3 35 3d 73 a7 96 bd 7c 9e d4 bc
       0.059122607 0.044345636 -0.07356157 -0.025954477
0002e0 84 f7 ae 3c 66 f5 80 bd 83 3a 2a 3d 8b 2b 0b bd
       0.021358259 -0.06296806 0.041559707 -0.033977073
0002f0 37 73 db 3c db 88 3c bd 96 eb 44 bd b9 c3 5b 3c
       0.026788337 -0.046028953 -0.048076235 0.013413363
000300 49 90 72 bc 5e 33 0e 3c bf 04 b7 bd e7 90 e2 bd
       -0.014804908 0.008679239 -0.08936452 -0.11062794
000310 68 2a c6 3c fa 29 b0 bd 22 71 50 bd 24 25 98 bc
       0.024190143 -0.086017564 -0.05088914 -0.018572398
000320 61 f2 b9 3d 68 99 b7 3d 7e 3d e4 bc 70 4f a4 3c
       0.09079433 0.08964807 -0.027861353 0.02005741
000330 e2 22 d6 bc 94 df bf 3c 38 be 89 3b f9 b3 63 bd
       -0.02613968 0.02342204 0.004203584 -0.055591557
000340 2d e7 96 3c f7 a4 4b bc eb 52 88 3d 12 82 5b bb
       0.01842078 -0.012429467 0.0665644 -0.0033494276
000350 5d a4 6a bd d9 6c b9 bd 5d f4 b6 3d 0a bc 47 bc
       -0.057285655 -0.09053964 0.08933327 -0.012190828
000360 b1 42 6f 3d 32 4b 47 bc 96 95 82 bc ec f1 31 bd
       0.05841321 -0.012163924 -0.015940469 -0.043443605
000370 c4 12 a6 3c b2 e0 38 3d b4 9b 2d bd 2c 72 a2 bd
       0.02027262 0.04513616 -0.04238482 -0.07931933
000380 e5 92 0e 3c d3 81 4c 3d a0 5b aa bc 62 dc 6d bd
       0.008702015 0.049928498 -0.020795643 -0.0580715
000390 4c fe 56 3c 73 d9 be bc 35 4e a2 bd 12 23 d2 bd
       0.013122153 -0.023297047 -0.07925073 -0.102605954
0003a0 e9 09 9b bd ae 1b 6c 3b d2 34 86 3d 15 7a 9c bd
       -0.075702496 0.003602724 0.065530434 -0.07640473
0003b0 20 e5 bb bd 9e 0c 90 3c 34 1c dc bc 2b 5e 40 3d
       -0.091745615 0.017584141 -0.026868917 0.046964806
0003c0 e8 1e 27 bc a6 f1 5e bd ae 68 b9 3c e3 ab 97 3c
       -0.01020024 -0.054429673 0.022632923 0.01851458
0003d0 7c ce 9a bc 1b 7e 02 bd 74 2c af bc b4 1a 45 bd
       -0.018897288 -0.031858545 -0.021383502 -0.04812117
0003e0 8d 1b cb bb 2d 4b 6a bd b5 0c 98 bd 7c 4e 16 3d
       -0.0061983527 -0.0572006 -0.07424299 0.036695942
0003f0 32 1d 83 3c f9 c5 63 bc af 6e e7 bc 34 86 47 3c
       0.016005132 -0.013902181 -0.02825102 0.012177993

fc2_mlp.bias f4 [64]
000000 2b f3 91 bd 32 8f d1 bc a8 4f 8c 3d 0b 66 3f bc
       -0.07126459 -0.025580976 0.06851131 -0.011682044
000010 e3 08 08 3d d3 f3 56 bd 3d f0 cd 3c bd 1b 9a bd
       0.0332116 -0.052478623 0.025138969 -0.07524822
000020 0c 97 18 bc 9e 43 d5 3d 21 07 c3 3d 5d 73 96 3c
       -0.009313356 0.104132876 0.09522844 0.018365556
000030 34 d5 a0 bd d2 44 95 bd bf 67 8b 3d 62 2d c8 bc
       -0.07853165 -0.07288517 0.06806897 -0.024435703
000040 59 40 e6 3c 72 2c 10 bd 59 72 55 3c 38 42 d2 bb
       0.028106855 -0.035198636 0.013027751 -0.0064165853
000050 42 d2 5b bd 34 5a 50 bd 51 02 10 3d 90 68 88 3c
       -0.053667314 -0.050867274 0.03515846 0.016651422
000060 fe a8 7b 3d 5f 77 8d 3b 2b 50 28 3d c0 da e2 3c
       0.06144046 0.0043172087 0.04109208 0.027692199
000070 1e 6a 03 bd 7a bb f0 3c 58 03 4a b9 45 47 d5 bc
       -0.032083623 0.02938627 -0.00019265467 -0.02603496
000080 c0 b7 86 bd 2a 6d 48 3b d4 b7 81 bd 61 23 d4 bd
       -0.06578016 0.0030582645 -0.063338906 -0.103583105
000090 db b0 c7 bd c8 70 6f bd 08 ab b4 bc 64 17 a9 bd
       -0.097505294 -0.058457166 -0.02205421 -0.082564145
0000a0 7a 16 83 3c bc 4e 7f bc f2 f1 f0 3c 0a 34 0d 3d
       0.016001929 -0.015582737 0.029412244 0.034473456
0000b0 1d 6a 55 bd f8 d4 b8 3c b2 ba 7d 3d e7 65 31 3d
       -0.05210315 0.022562489 0.061945625 0.043310072
0000c0 7c b6 9e bd db 64 9f bd cc 05 6d bd 96 be 5a bd
       -0.0774965 -0.077829085 -0.057866856 -0.053404413
0000d0 49 0f 9a bd 7b 42 b2 3d 2c 21 4e 3c b1 b1 40 bd
       -0.07522447 0.087040864 0.012581151 -0.04704446
0000e0 68 1b 42 3d 6b c3 ad 3d 43 dd 3e 3d 13 eb 9b 3d
       0.047389418 0.08484539 0.04659773 0.07613196
0000f0 d4 42 f1 3c 34 40 93 3d 47 cf 64 3d 40 46 1f bd
       0.029450811 0.0718998 0.055861738 -0.038885355

bn2_mlp.weight f4 [64]
000000 cd 64 83 3f 5d 58 84 3f e6 9b 73 3f 18 37 84 3f
       1.0265137 1.0339466 0.9515976 1.0329313
000010 c2 02 89 3f ea 4c 76 3f 9c d8 7d 3f b2 70 7d 3f
       1.0703967 0.9621111 0.99158645 0.99000084
000020 46 9a 78 3f 02 61 81 3f 5a 84 7b 3f 2c d1 82 3f
       0.971104 1.010773 0.9824883 1.0220084
000030 2c 71 7a 3f f6 8f 85 3f f2 60 76 3f c9 01 84 3f
       0.97828937 1.0434558 0.96241677 1.0313045
000040 6a 45 7f 3f e6 5d 74 3f b0 d4 7c 3f 0f 88 7c 3f
       0.9971529 0.9545578 0.98762035 0.9864511
000050 be ea 85 3f 66 32 80 3f 3c 9e 70 3f bf ca 81 3f
       1.0462263 1.001538 0.93991446 1.0139998
000060 56 92 7c 3f 70 6c 81 3f 10 b9 86 3f 90 81 7c 3f
       0.9866079 1.0111217 1.0525227 0.98635197
000070 8f 83 75 3f 29 63 81 3f 86 18 76 3f f4 ac 71 3f
       0.9590387 1.0108386 0.9613117 0.9440453
000080 1e ff 78 3f af 17 80 3f 6b 6c 81 3f b8 a9 75 3f
       0.9726428 1.0007228 1.0111212 0.95962095
000090 80 2b 7b 3f 00 9c 77 3f 44 d3 75 3f 8e 01 80 3f
       0.9811325 0.9672241 0.9602549 1.0000474
0000a0 c4 f9 76 3f 80 ca 7b 3f 7e 48 83 3f f1 ce 88 3f
       0.9647486 0.98355865 1.0256498 1.0688154
0000b0 b6 6d 76 3f cd d6 79 3f ac 3e 77 3f 46 e7 7d 3f
       0.96261156 0.97593385 0.96580005 0.9918102
0000c0 6a 0c 7a 3f ec 12 84 3f 8e 07 84 3f 6a 7d 7c 3f
       0.9767519 1.0318274 1.0314806 0.98628867
0000d0 a4 54 7b 3f e7 37 85 3f 93 0c 82 3f d5 a3 7f 3f
       0.98176026 1.0407685 1.0160087 0.9985936
0000e0 73 6b 80 3f 78 d5 88 3f 3e 72 79 3f 86 5e 83 3f
       1.0032791 1.0690145 0.97439945 1.0263221
0000f0 28 e9 86 3f d9 d2 83 3f 18 7d 81 3f 22 3b 75 3f
       1.0539904 1.0298721 1.01163 0.95793355

bn2_mlp.bias f4 [64]
000000 40 cd 85 3d 47 5a 17 3c 9b 78 26 bc 6f a6 19 3c
       0.06533289 0.009237832 -0.0101605905 0.00937806
000010 b5 21 da 3d 47 7f 8f 3c 56 42 e4 bc ba 3c ac bc
       0.1065096 0.017516745 -0.027863663 -0.02102505
000020 69 eb 94 bc 31 2f d1 3a 5e 68 1d bd 04 61 30 bc
       -0.018178659 0.0015959499 -0.03842961 -0.010765318
000030 66 01 f9 bb 7c 6e 83 3d ae 42 c1 bc 30 b6 66 3c
       -0.0075990437 0.064175576 -0.023591366 0.014081523
000040 56 5c 48 3d a1 8d 23 3d 7a 38 15 bc 96 eb a1 bc
       0.048916183 0.03992999 -0.009107703 -0.019765656
000050 7e 2c 2d 3d fe 8f 57 3d ea d5 db bc 19 42 67 bc
       0.04227876 0.052627556 -0.0268354 -0.01411488
000060 ae 0b a7 3a ac 86 75 3d d9 cb 2b 3d 61 66 d4 3d
       0.001274457 0.059942886 0.04194245 0.1037109
000070 df 65 38 bd dc 7a 1b 3d 3b 63 94 bc 77 6a 88 bd
       -0.045019027 0.037958965 -0.018113723 -0.066609316
000080 b0 33 7f bc 76 24 53 3b 21 a9 07 3c 99 74 9e 3c
       -0.015576288 0.0032217777 0.00828007 0.019342707
000090 e2 fb c0 bc 4c 0d 39 3c d7 67 c8 bc be 7e fb ba
       -0.023557607 0.011294674 -0.024463577 -0.0019187552
0000a0 87 1b 45 bd eb ca 1e bd fc ee 88 3c 34 b2 cc 3d
       -0.048121955 -0.038767736 0.01671552 0.09994927
0000b0 45 39 7e 3b fd c3 aa bc 41 bb 16 bd eb 80 ee bb
       0.003879146 -0.020845408 -0.036799673 -0.007278552
0000c0 ae 6b 04 3d ea 20 e0 3c 67 a5 99 3c 49 02 a5 3a
       0.032329254 0.027359445 0.018755628 0.0012589182
0000d0 e4 a5 22 bc 70 f4 0b 3e d6 55 f9 3c 49 39 47 3d
       -0.009927247 0.13667464 0.030436438 0.048638616
0000e0 82 d0 34 3c 24 1a 21 3d 4a 19 44 3c 3c df 22 bc
       0.01103604 0.03933157 0.01196892 -0.009940919
0000f0 af ce 84 3d 5c b2 b0 3c 0a af a6 3c 22 a5 0e bd
       0.06484734 0.021569423 0.020347137 -0.03482545

bn2_mlp.running_mean f4 [64]
000000 05 44 9f be b3 7e 82 be db 50 33 be 51 2b 8b 3e
       -0.31106582 -0.2548729 -0.17511313 0.27181485
000010 5f c1 89 bf 56 23 3d bf e1 f1 e6 3d 2c 2a e4 be
       -1.0762137 -0.73882043 0.112766035 -0.44563425
000020 a3 c4 a1 be 02 66 aa be 4a 56 2e 3f f8 e1 6c 3d
       -0.31595334 -0.3328095 0.68100417 0.057832688
000030 d3 1e 0c bf 03 97 19 3c 19 26 83 3e 61 ef 9d bc
       -0.54734534 0.009374383 0.25615004 -0.019279184
000040 5e d4 4c bf b7 83 c7 be 2c f8 25 3e 24 d4 a6 3e
       -0.80011547 -0.38967678 0.16207951 0.32583725
000050 d4 1c b1 bc 74 94 0f bf a6 0f 86 bf af a2 4e 3e
       -0.021620192 -0.56085896 -1.0473526 0.20179246
000060 52 13 97 be 7f 35 8b 3e 13 61 22 bf 98 e1 37 be
       -0.29506928 0.27189252 -0.63429374 -0.17957151
000070 ac 6b b4 3c 96 ac 2d 3e ab 84 0e be 4f 46 11 3e
       0.022023998 0.16960368 -0.13917796 0.14186977
000080 15 9e 3d 3e 42 55 6f be f3 4e b2 3e 58 fa 05 3f
       0.18517335 -0.23372367 0.34825858 0.5233512
000090 3d ab 82 3e 68 0a 70 bf 32 5d 4b be 78 df aa be
       0.2552127 -0.9376588 -0.1985977 -0.33373618
0000a0 ea e9 2f 3f 62 6c dd be 66 c9 4e bf a4 9c 49 3c
       0.687163 -0.43246752 -0.8077606 0.012305412
0000b0 d2 85 67 be 62 9f e5 3e 21 d6 f8 3e 71 ad 75 be
       -0.22609642 0.44848162 0.48600867 -0.23991944
0000c0 aa b2 24 be 5f 71 09 3f 24 9d ce be 93 4c 42 3e
       -0.1608378 0.53688616 -0.40354264 0.18974523
0000d0 e4 89 4f 3d 16 bc b6 3e 4d d0 a5 be df 0a 7f bf
       0.050668612 0.35690373 -0.32385483 -0.9962596
0000e0 f3 af e2 3d c6 b2 67 3e 84 7a b8 3d fe 94 fc bd
       0.11068716 0.2262679 0.09007743 -0.123331055
0000f0 16 67 c3 3e 18 21 85 bc 55 fa 3d 3c 04 bc 2d 3f
       0.38164586 -0.016251132 0.011595328 0.67865014

bn2_mlp.running_var f4 [64]
000000 d5 fb e2 3e 34 28 3a 3e d6 13 75 3f 3e f5 d6 3e
       0.44332758 0.18179399 0.9573339 0.4198398
000010 30 20 fd 3f fe ce 62 3f 22 44 df 3e 3a 95 cf 3e
       1.9775448 0.88597095 0.4360667 0.40543538
000020 c8 32 53 3e f4 98 17 3f dd 7b 00 3f 9b d8 7f 3e
       0.2062484 0.5921776 0.50189 0.24984972
000030 f9 96 ce 3e 79 df 3e 3f 1f 8e 99 3f dc 64 55 3e
       0.40349558 0.7455974 1.1996497 0.20839256
000040 ed a5 ca 3f df ee d3 3f 73 77 fd 3e 8a 81 8c 3e
       1.5831887 1.6557273 0.49505195 0.2744258
000050 50 50 49 3f f9 ad 6b 3f 57 c0 b6 3f 93 3a a6 3f
       0.7863817 0.92062336 1.4277447 1.2986625
000060 a8 25 f8 3e 9b 0e db 3f 69 64 e6 3f d8 5f f4 3e
       0.4846623 1.7113832 1.7999393 0.47729373
000070 93 f1 18 3f 90 e5 0b 3f f5 f1 c5 3e ba d9 0d 3f
       0.59743613 0.5464716 0.3866116 0.5541035
000080 ef 15 fe 3e 34 71 d9 3e 4a 63 ca 3e 2d 03 7b 3f
       0.4962611 0.4246918 0.39528877 0.9805172
000090 3c b3 fe 3e f7 af 3b 3f 05 8e bd 3e e6 61 85 3f
       0.4974612 0.73315376 0.37022415 1.0420501
0000a0 3a 9d ff 3e 8b 39 27 3f 25 ab b2 3e e5 c9 1b 3f
       0.49924642 0.6532218 0.34896198 0.6085494
0000b0 1d 8d 13 3f 1e 8a 15 3f 1f 04 06 3f 5d 43 c5 3e
       0.57637197 0.58413875 0.5235004 0.38527957
0000c0 20 40 bb 3e df d4 db 3e df 46 3c 3f 66 9a 6c 3f
       0.3657236 0.42935845 0.7354564 0.92423093
0000d0 98 57 7c 3e da 4b be 3e 78 c0 5b 3e 81 f3 ea 3f
       0.2464279 0.37167245 0.2146014 1.8355561
0000e0 e8 c7 ed 3e ed f9 48 3f 65 09 33 3f 01 fd fc 3e
       0.4644158 0.78506356 0.6993621 0.49411777
0000f0 43 94 14 3f 53 1b c2 3e d4 78 d0 3f 93 1d 1d 3f
       0.5803873 0.37911472 1.6286874 0.6137325

fc1_combined.weight f4 [128, 69]
000000 35 7c c3 3a b0 8b 97 bd 2b fb 15 bd db 5a b4 3c
       0.0014914336 -0.0739969 -0.036616486 0.02201598
000010 0f e6 59 3d 48 b0 c3 3d b0 86 66 3c 64 ca a2 b9
       0.053197917 0.09555107 0.014070198 -0.0003104984
000020 98 a4 89 3c 3b 16 45 be d1 db ad bd 92 23 6f bd
       0.016802117 -0.19246762 -0.08489192 -0.058383532
000030 00 06 62 3d 4c 65 74 3d 42 9b 47 bd 10 82 fa bd
       0.055181503 0.059666917 -0.04873205 -0.12231839
000040 a2 c4 f0 3d bc f5 78 bd cc c6 af bd 7d 4d f2 bd
       0.11756255 -0.060781226 -0.08582839 -0.11831186
000050 5b f2 41 bc 0e b2 0f be 96 44 5b bd 2a 8f 58 3c
       -0.011837567 -0.14032766 -0.053532206 0.013217727
000060 5e f1 bb bd f4 70 cf bd 2a 43 a3 3c 5d fd ae 3d
       -0.091768965 -0.10128966 0.019929487 0.08544419
000070 18 e2 ce bd ba b5 07 bd 68 0c 5d 3c 8a a1 1a be
       -0.10101718 -0.033132292 0.013491727 -0.15100685
000080 e4 42 8f bd 48 29 03 be 9a d6 c2 bd c0 70 0f bd
       -0.0699518 -0.12808716 -0.09513588 -0.035019636
000090 48 6c 8a bd f3 e1 c3 bd bb 7a 39 3d 66 7f d0 3d
       -0.06758934 -0.09564581 0.04528306 0.10180549
0000a0 ba 5c e8 bd fb 32 8e bd d0 8e df bc bd d0 93 bd
       -0.11345811 -0.069433175 -0.027289778 -0.07217548
0000b0 64 a3 aa bd 78 22 64 3c ba 19 9d bd bc 17 a3 3d
       -0.083319455 0.013924234 -0.076709226 0.07963511
0000c0 ae 35 af 3d 09 cc d8 bb 64 44 14 3c 40 1b 00 3d
       0.085551605 -0.0066161198 0.009049509 0.031275988
0000d0 90 90 61 bd 5e 4d 34 be 65 24 95 3d 8a dd 9a 3d
       -0.055069506 -0.17607638 0.07282332 0.075617865
0000e0 ea e8 b8 bd 70 8c 91 3d 89 90 ca 3c f2 fb e3 bd
       -0.090288 0.071068645 0.024727123 -0.11132039
0000f0 ed 4e ca bd 3f 17 95 3d 55 93 54 3c 5e 7f 0f bb
       -0.09878335 0.072798245 0.01297458 -0.0021895985
000100 79 ae 88 bd 41 59 0f be 82 cb 4f bd cc 1f ed 3d
       -0.06673903 -0.13998891 -0.05073119 0.115783304
000110 16 c8 61 3c 3f 98 e1 3d 32 9c d0 3c 49 7d 0f 3e
       0.013780614 0.11015367 0.025465105 0.14012636
000120 54 7c 6c 3d d1 99 a1 ba fe 57 d1 bd fd 7a a6 3d
       0.057735756 -0.0012329166 -0.10221861 0.08128927
000130 2a ec 22 bd c3 fc aa bd 75 2d 0b be ea 2c 29 bc
       -0.039776005 -0.08348992 -0.13591559 -0.01032565
000140 e2 6d bc bd 4a 9e bd 3d 94 ea 8e 3d f1 9f f6 bd
       -0.09200646 0.09258707 0.06978336 -0.12042225
000150 58 a5 0e be 7d a2 c1 3d ab e3 8b 3b 7d 39 ab 3d
       -0.13930261 0.0945482 0.0042690835 0.083605744
000160 1e 9b 3a 3d 6a 53 c1 3c b0 5b b6 3d 90 ce 64 bc
       0.045558088 0.023599345 0.08904207 -0.013965264
000170 14 2d 18 3d 21 b0 20 3d 00 64 d3 3c 00 7b 56 bd
       0.037152365 0.03923047 0.02580452 -0.052363396
000180 eb df 3c bd e6 ee 85 bd a3 e0 cb 3d 75 b4 9b bd
       -0.046111982 -0.06539707 0.099549554 -0.07602779
000190 8a ce a7 bc c9 05 b2 3d d6 6c 66 bd b8 e2 6e 3d
       -0.020484228 0.0869251 -0.056256138 0.058321685
0001a0 11 28 ec bd 7e 9c b1 bd 00 d8 74 3d 03 dd c9 3d
       -0.115310796 -0.08672427 0.059776306 0.09856608
0001b0 d5 79 a4 3d 3e d3 7c bd 12 55 9f 3d 27 e4 90 3b
       0.0803105 -0.061724894 0.07779898 0.004421729
0001c0 d8 de 1e bd f2 06 e3 3b ee be 26 bd 88 97 55 bd
       -0.03878674 0.006928318 -0.04070943 -0.052146465
0001d0 f5 9d 4b 3d fc 06 99 3d 3f 62 94 3d 60 e7 9d 3d
       0.049711186 0.07472035 0.072453015 0.07710147
0001e0 9a ed c6 bc 75 32 a6 3d 3b 17 95 3d c4 9c 85 bc
       -0.02428322 0.08115093 0.072798215 -0.016310103
0001f0 62 8a bb 3d ab 0a 84 3d 12 7a 86 bb b0 c4 6e 3c
       0.09157254 0.06447347 -0.0041039074 0.014573261
000200 0c 2b b0 bd c8 d4 9f 3c 23 5d cf 3d 6e 29 26 3c
       -0.086019605 0.019510642 0.10125186 0.010141714
000210 38 88 e5 3c e3 2e 9c bd 9d 81 3e bd f2 3d a1 3c
       0.028019056 -0.076261304 -0.046510328 0.019682858
000220 db b9 a7 3d 1a 67 ec bd c8 ed e1 bd ef 8c 84 bb
       0.08189746 -0.115431026 -0.11031681 -0.004045121
000230 78 02 ba bc 2c 15 30 bd 6c 0e bf 3e a6 78 37 bd
       -0.022706255 -0.04298894 0.3731569 -0.044792794
000240 74 dc 2f bd 7d f5 e6 bd 94 59 dc bd c0 f8 86 bd
       -0.04293485 -0.11277292 -0.10759273 -0.06590414
000250 bb dd ba bd 5b cd c5 3d 4a 04 7d 3d 6d 66 56 bd
       -0.09124323 0.09658309 0.06177167 -0.052343775
000260 17 a2 97 bc 51 96 88 3d 07 1a 48 bd 30 08 d8 bd
       -0.018509908 0.066692956 -0.048852947 -0.10548437
000270 16 2b df bd 61 fb 1d 3d af 22 55 bd ec d9 e4 3d
       -0.1089689 0.03856981 -0.05203503 0.11174378
000280 4c 28 76 bc ab 45 e4 3d 2e fd a6 3b 1a 60 26 bd
       -0.015024256 0.111461006 0.0050960993 -0.040618993
000290 ab 31 87 bd f4 e3 b1 bd 4a dd 7a 3d 5d c6 3b 3c
       -0.0660127 -0.08686057 0.061246194 0.011460868
0002a0 ec cc 1f 3a 27 ca a9 bc c7 89 b8 3d 60 8b ac 3d
       0.00060959044 -0.020726277 0.09010654 0.08425021
0002b0 aa a6 a5 bd 31 83 84 bd 39 5e fa 3b 5a ea 51 bd
       -0.08088429 -0.06470335 0.0076406267 -0.051248886
0002c0 6b 6f 4a bd 73 a1 06 bd 71 37 51 3d 66 bf 0b be
       -0.049422663 -0.032868814 0.051078264 -0.13647231
0002d0 35 34 ae 3d 08 c9 ca bc 58 be d2 3d 56 b2 9c 3d
       0.085060515 -0.024754062 0.102902114 0.076512024
0002e0 c3 79 23 bd 5a 13 2a bd 46 2c f2 bd a4 86 8f 3c
       -0.039911043 -0.04152236 -0.11824851 0.017520256
0002f0 cc b8 ab 3d fd a4 47 3d d9 a8 9e bd 42 7e 0f bd
       0.083848566 0.04874133 -0.07747049 -0.03503252
000300 29 fc 9b 3d a3 54 70 bd bb 9f 48 3d 49 25 03 be
       0.07616455 -0.058674466 0.048980456 -0.12807192
000310 8d 10 2b bd c0 89 c0 3d e6 c6 d6 3d de dc 2d bd
       -0.04176383 0.09401274 0.104871556 -0.042446963
000320 c9 8f da bd 99 21 6c bd 33 13 95 3d 38 b8 0b be
       -0.10671956 -0.05764923 0.072790526 -0.13644493
000330 67 69 3c 3d 2a 60 57 3d 0c 67 aa 3d 3a 33 38 3d
       0.045998957 0.052581944 0.08320436 0.04497073
000340 d2 8d c0 bc f8 81 8e bd 1d bb dc bc 8d fe 2f 3e
       -0.023505125 -0.06958383 -0.026944691 0.17186947
000350 f1 96 87 bd 46 4d a1 bc 26 6b 4e bd 15 70 0a be
       -0.06620587 -0.019690167 -0.050395153 -0.13519318
000360 6e 11 01 3d 92 64 c8 bd 8e db 5b bd 07 e2 d5 3d
       0.031510763 -0.09784807 -0.05367618 0.10443502
000370 1c 60 ab bd 09 03 d6 bd 06 e1 af 3d 8a 25 09 3a
       -0.08367941 -0.10449798 0.08587842 0.0005231729
000380 2d d9 a3 bd 54 6e 15 be b0 7f 1a bd 08 ef 72 3d
       -0.08000407 -0.14592868 -0.03771943 0.05930999
000390 93 6c 87 3d 14 00 4b 3d 94 bf f9 bd e7 af fa bd
       0.06612506 0.04956062 -0.12194744 -0.12240582
0003a0 2a 71 07 3c ca fd 18 be 81 98 bf bc 88 27 db bd
       0.0082667265 -0.14940563 -0.02338815 -0.10700899
0003b0 6a e3 97 3c b7 1d 9e bc da 0b 82 bd 70 17 7b 3d
       0.018541057 -0.019301279 -0.06349917 0.06130165
0003c0 05 d1 b7 bd cd 34 b4 3c 09 91 a0 bd 8b 52 b6 bd
       -0.08975414 0.021997834 -0.07840163 -0.089024626
0003d0 16 7c 88 bc b5 1c f1 bd d4 da 10 be 67 7b 00 be
       -0.016660731 -0.117730536 -0.14145976 -0.12547074
0003e0 c7 d3 fd 3d fb 80 8f bd a4 c6 c5 bd 2f 25 e3 bd
       0.12393909 -0.07007023 -0.09657028 -0.110910766
0003f0 86 cc 43 3d da 36 d3 3d c1 f3 34 3e d6 74 c1 bd
       0.04780247 0.103131965 0.1767111 -0.09446113
