Model Results/NCF Hybrid Embedding/Cluster_2/best_custom_model.pt (torch, 500027 bytes, 19 tensors)

fc1_mlp.weight f4 [128, 10]
-0.19524768 0.3080472 -0.22642286 0.13324416 0.20492 0.12056725 0.049955122 0.3500407
0.21416743 -0.23883733 0.18133171 0.2008048 0.034755245 0.11864813 -0.014347976 0.08579885
0.16719308 -0.120115906 0.15975145 -0.10400495 -0.022939693 -0.08767958 0.24032462 -0.11400469
0.03675931 -0.34082106 0.14586653 0.3943691 -0.09993433 0.0677511 -0.1351966 0.3239147
-0.054305874 0.2094598 0.11973858 -0.08113387 0.13626865 0.36982864 0.22345357 -0.1831618
0.16900918 0.29703787 -0.19118471 -0.041062787 0.08985409 0.3119441 -0.109555796 -0.013332432
0.036846966 -0.17305794 -0.018289197 -0.09477191 -0.15093134 -0.1843906 -0.174535 -0.22121596
0.28773597 0.070819855 -0.07298132 -0.26369166 -0.06886057 -0.15530448 0.24369766 -0.25691724
-0.2680349 0.17042743 -0.124055415 0.052665435 0.052223906 0.11640079 -0.12850659 0.31278196
-0.12378644 -0.1800836 0.15665384 -0.1355988 0.1557774 0.0071930243 -0.0027573565 -0.14630273
0.03541112 -0.06721619 0.035457794 -0.0823407 0.12977667 0.24548686 0.23332869 -0.6465382
-0.20966023 -0.11431765 -0.28646922 -0.011841785 0.10756396 0.13559236 0.0074287807 0.10869807
0.0044186846 0.010024291 -0.24125539 0.2900875 0.11981318 0.23381859 -0.13584991 -0.1112705
0.1086549 -0.2526736 -0.3180035 0.19167897 -0.2863598 -0.29654092 0.063944474 -0.09954843
0.15432209 0.05104722 0.27156103 -0.01714231 -0.014790297 0.08257218 0.20350721 0.1538914
-0.08995111 -0.13370508 0.107334964 -0.024176933 0.10494302 0.11122331 0.11264662 -0.03531164
0.14285226 0.25104517 -0.046571545 0.20215175 0.20991552 -0.15568136 -0.1654025 -0.014778378
-0.010763384 -0.13870563 0.028236624 -0.03258021 0.2011975 -0.18543594 0.24162385 -0.14559609
0.0053578652 0.023399258 -0.01252088 -0.53626686 0.11994228 -0.053343907 0.12314972 0.015216494
0.27372953 0.040194403 0.20459734 -0.038602944 0.3177559 -0.20450829 -0.04452491 -0.18998209
-0.22120146 -0.1932239 0.07391169 0.16882186 -0.18921246 -0.042410925 0.06785119 -0.26159462
-0.029242408 -0.31150207 -0.28129306 0.3126456 0.08519223 0.010321494 -0.020992177 -0.17777187
0.01772813 0.049346644 0.2104939 0.09180962 -0.10746528 0.13831374 0.2100064 -0.078693576
0.0115100825 -0.2592097 0.33888492 -0.24897431 0.12978639 -0.3274754 0.13981664 0.24275173
-0.2170453 0.017947478 0.30800527 -0.03529734 0.049362026 0.04035937 0.01483012 0.3450561
-0.22356695 -0.052806158 0.19054222 -0.23389505 0.21819778 0.33641812 0.10782863 0.13566193
0.27294278 -0.041367218 0.14738466 -0.24637166 -0.15041004 -0.24514337 -0.006486944 0.08332171
-0.24804276 0.23057161 -0.27058673 0.2014717 0.28624535 -0.25844276 0.2735673 0.2131989
0.101976894 0.06477033 -0.0446378 -0.0057557616 0.15160224 0.10283607 -0.2942222 -0.15590158
0.18618454 0.045303583 0.046299424 0.1625462 -0.24088305 0.1199503 0.098161176 -0.23186311
0.22796954 0.21037915 -0.053079274 -0.17985241 0.15434098 0.06675156 0.13999851 -0.117500395
-0.15570448 0.09633746 0.2436857 -0.042468958 -0.19131833 0.16713428 -0.16372219 0.019393606
00000000: 02ef 47be 5db8 9d3e 65db 67be 2871 083e
00000010: 8cd6 513e f6eb f63d be9d 4c3d 8938 b33e
00000020: b54e 5b3e c691 74be 05af 393e c69f 4d3e
00000030: 845b 0e3d cafd f23d c613 6bbc 4fb7 af3d
00000040: aa34 2b3e 54ff f5bd e295 233e 8c00 d5bd
00000050: 06ec bbbc 5a91 b3bd a817 763e 4a7b e9bd
00000060: ee90 163d 1980 aebe 095e 153e bfea c93e
00000070: 5faa ccbd 17c1 8a3d fa70 0abe 26d8 a53e
00000080: d66f 5ebd a17c 563e 8039 f53d 8429 a6bd
00000090: 028a 0b3e 2e5a bd3e 03d1 643e c48e 3bbe
000000a0: be10 2d3e 5915 983e edc5 43be 7431 28bd
000000b0: 6c05 b83d 23b7 9f3e ca5e e0bd 4670 5abc
000000c0: d8ec 163d 1a36 31be 3ad3 95bc c617 c2bd
000000d0: bf8d 1abe e4d0 3cbe 4eb9 32be 7086 62be
000000e0: 2152 933e 000a 913d 3b77 95bd 9802 87be
000000f0: c506 8dbd 2308 1fbe e18b 793e a88a 83be
00000100: df3b 89be 8784 2e3e c410 febd b6b7 573d
00000110: bce8 553d 8a63 ee3d 3b97 03be f524 a03e
00000120: bf83 fdbd d667 38be dd69 203e 69da 0abe
00000130: 1c84 1f3e 76b3 eb3b c4b4 34bb 62d0 15be
00000140: 400b 113d a4a8 89bd 313c 113d 3ea2 a8bd
00000150: 2de4 043e e860 7b3e b7ed 6e3e 8783 25bf
00000160: 2cb1 56be 5f1f eabd 18ac 92be 0c04 42bc
00000170: 7e4a dc3d b9d8 0a3e 216d f33b 189d de3d
00000180: 9dca 903b ed3c 243c a70b 77be 5986 943e
00000190: 9d60 f53d 246e 6f3e 3d1c 0bbe cae1 e3bd
000001a0: 7686 de3d 6f5e 81be 5bd1 a2be 7e47 443e
000001b0: c09d 92be 36d4 97be 52f5 823d 0ce0 cbbd
000001c0: 9c06 1e3e e416 513d 0c0a 8b3e 086e 8cbc
000001d0: 0053 72bc 9a1b a93d 3264 503e b595 1d3e
000001e0: 4a38 b8bd fce9 08be 6fd2 db3d b40e c6bc
000001f0: 5eec d63d 0cc9 e33d 45b3 e63d f0a2 10bd
00000200: dd47 123e fe88 803e cec1 3ebd de00 4f3e
00000210: 18f4 563e ef6a 1fbe 465f 29be 0321 72bc
00000220: e858 30bc d908 0ebe 7e50 e73c d472 05bd
00000230: b806 4e3e ebe2 3dbe 3e6c 773e 2417 15be
00000240: 0891 af3b cdaf bf3c 6124 4dbc c948 09bf
00000250: 4ca4 f53d 247f 5abd ec35 fc3d 9a4e 793c
00000260: 4726 8c3e e3a2 243d f781 513e 1f1e 1ebd
00000270: e7b0 a23e 9f6a 51be c15f 36bd aa8a 42be
00000280: a382 62be 7cdc 45be 035f 973d a3df 2c3e
00000290: e9c0 41be 14b7 2dbd 91f5 8a3d bbef 85be
000002a0: c68d efbc 337d 9fbe a505 90be 1613 a03e
000002b0: 4479 ae3d 7c1b 293c c9f7 abbc d409 36be
000002c0: 953a 913c b51f 4a3d b78b 573e af06 bc3d
000002d0: c216 dcbd 1ea2 0d3e eb0b 573e 192a a1bd
000002e0: c994 3c3c 22b7 84be 5382 ad3e 1ff3 7ebe
000002f0: b9e6 043e dbaa a7be 182c 0f3e e993 783e
00000300: 2041 5ebe 9706 933c deb2 9d3e f293 10bd
00000310: d62f 4a3d de4f 253d 08fa 723c 31ab b03e
00000320: bcee 64be 454b 58bd 801d 433e 2f82 6fbe
00000330: 3d6f 5f3e ff3e ac3e 42d5 dc3d f6ea 0a3e
00000340: 28bf 8b3e ac70 29bd 01ec 163e da48 7cbe
00000350: 1705 1abe dd06 7bbe 6e90 d4bb 93a4 aa3d
00000360: ecfe 7dbe f71a 6c3e 588a 8abe 994e 4e3e
00000370: c08e 923e 9c52 84be 0311 8c3e d050 5a3e
00000380: 43d9 d03d 4fa6 843d 20d6 36bd d49a bcbb
00000390: 9e3d 1b3e b89b d23d 4ba4 96be aaa4 1fbe
000003a0: 29a7 3e3e 4090 393d 77a4 3d3d 8372 263e
000003b0: 0caa 76be 81a8 f53d ba08 c93d 866d 6dbe
000003c0: d970 693e a26d 573e a769 59bd 3b2b 38be
000003d0: 900b 1e3e 0bb5 883d c55b 0f3e 0ca4 f0bd
000003e0: ff70 1fbe 934c c53d bf88 793e eef3 2dbd
000003f0: f4e8 43be 4025 2b3e caa6 27be 57df 9e3c

fc1_mlp.bias f4 [128]
-0.15583402 -0.14063458 -0.12249879 0.124108985 0.025151266 -0.19047335 0.18876742 -0.30246225
-0.28426945 -0.059794523 0.09150822 0.2554774 0.071966365 -0.18418542 0.2602857 -0.26927575
-0.06335234 0.12131229 -0.050446756 0.09670948 -0.04828098 -0.069044 0.08610912 0.005654275
-0.22526996 -0.15630895 0.14897545 0.1832336 0.16311266 -0.21482012 0.30178374 -0.2389587
-0.13383995 -0.051883053 0.20354185 0.18078369 -0.1650625 0.16529953 0.04982325 -0.062861405
-0.12969972 0.27876708 0.24215975 0.19571108 -0.23780257 0.00093358924 0.06164315 0.1307177
-0.28923717 -0.13308105 -0.10144203 0.15660927 0.17378856 0.24013251 -0.09532998 0.21994618
-0.17459601 0.011569963 -0.16683732 0.13352586 0.20264982 0.016723342 -0.117984675 -0.122078516
0.0740288 0.18994062 -0.17605473 -0.04648897 0.20354563 -0.28537214 0.084472954 0.047319602
0.19344708 -0.13890484 -0.09132905 0.08418838 0.012532362 -0.006640384 0.12931387 -0.19376624
-0.021444168 0.014152969 0.26049188 0.29638055 -0.13286437 0.05520008 -0.3183819 0.14315318
-0.13684827 -0.22061732 0.2769867 0.035932463 -0.04266791 -0.023782605 0.11690231 -0.24461041
0.16918065 0.22525235 -0.1258833 -0.23242427 -0.04239514 0.13070786 0.040370043 0.1000249
0.23682947 0.16323939 0.1521694 0.23540811 -0.008554609 -0.14872792 0.13327216 0.17021133
-0.2294945 0.08221171 -0.30545902 -0.30925325 -0.02117285 -0.030265158 0.26867694 0.15039971
-0.07528764 0.24775952 -0.15331346 -0.22589818 -0.028717184 0.27667466 -0.036173478 -0.23433338
00000000: f492 1fbe 8302 10be a5e0 fabd da2c fe3d
00000010: 070a ce3c 720b 43be 3f4c 413e 55dc 9abe
00000020: c48b 91be 1aeb 74bd a968 bb3d efcd 823e
00000030: 1a63 933d 1a9b 3cbe 2b44 853e 83de 89be
00000040: dfbe 81bd 9472 f83d 42a1 4ebd 9f0f c63d
00000050: 47c2 45bd f166 8dbd fa59 b03d 7f47 b93b
00000060: 2bad 66be 740f 20be 058d 183e 97a1 3b3e
00000070: 0107 273e cef9 5bbe 6683 9a3e 97b1 74be
00000080: 570d 09be 5383 54bd 466d 503e 5c1f 393e
00000090: 2506 29be 4844 293e 7713 4c3d 7bbd 80bd
000000a0: 01d0 04be 8fba 8e3e baf8 773e 7c68 483e
000000b0: 8482 73be 1dbc 743a 877d 7c3d dcda 053e
000000c0: e516 94be 6646 08be d7c0 cfbd 2e5e 203e
000000d0: a1f5 313e 4ce5 753e 5d3c c3bd 9239 613e
000000e0: 4cc9 32be f18f 3d3c 67d7 2abe 01bb 083e
000000f0: 6f83 4f3e 64ff 883c f3a1 f1bd 4d04 fabd
00000100: 699c 973d cb7f 423e b147 34be 386b 3ebd
00000110: 446e 503e 4c1c 92be 2800 ad3d 33d2 413d
00000120: fe16 463e 123d 0ebe ba0a bbbd f56a ac3d
00000130: 8954 4d3c 9497 d9bb db6a 043e a86a 46be
00000140: aeab afbc dbe1 673c 315f 853e 31bf 973e
00000150: 990d 08be 7b19 623d f402 a3be bf96 123e
00000160: f421 0cbe 82e9 61be 33d1 8d3e eb2d 133d
00000170: 8cc4 2ebd bdd3 c2bc 7a6a ef3d 277b 7abe
00000180: b13d 2d3e 8da8 663e 8de7 00be a100 6ebe
00000190: 87a6 2dbd 48d8 053e 0f5b 253d dbd9 cc3d
000001a0: 6d83 723e 3a28 273e 4cd2 1b3e d30e 713e
000001b0: a128 0cbc 224c 18be 7f78 083e e14b 2e3e
000001c0: 9b00 6bbe 9d5e a83d 2065 9cbe 7156 9ebe
000001d0: af72 adbc a3ee f7bc 0690 893e 6202 1a3e
000001e0: 6830 9abd acb4 7d3e 34fe 1cbe da51 67be
000001f0: 4d40 ebbc 4da8 8d3e a42a 14bd 17f5 6fbe

bn1_mlp.weight f4 [128]
1.0098392 0.9832386 0.9792509 0.97289604 1.021754 0.9954069 1.0378203 0.99367726
1.0216559 0.9966352 0.95966053 1.005389 1.0107903 0.9760541 1.0627265 1.0036349
0.9789288 1.0120169 1.0141852 0.96691155 0.99310875 0.99731654 0.97819865 1.0175432
1.0194154 0.9574257 0.9638461 0.9673408 1.0597496 0.97942233 1.0036231 1.0345068
1.021795 0.99782866 0.9637867 0.9849505 1.0173483 1.0229918 1.0203936 0.9737018
1.0183284 1.0235245 0.98768127 1.041841 0.96012497 1.0040674 1.0206856 0.9526589
1.0275561 0.9727894 0.94723165 1.0816305 1.0366406 0.9453435 0.9681912 1.0935197
1.049223 0.97455215 1.0471761 1.0267322 1.0045898 0.9585993 0.9964787 0.9665127
0.9376737 1.0131445 1.030808 1.0097697 0.99778444 0.96756554 1.0221918 1.0031736
0.9827018 1.0265167 0.99403006 1.0153515 0.99156547 0.99086046 0.9293488 1.0000902
1.0096169 0.9891569 0.99365354 0.9918894 0.9852817 1.1865119 0.96396244 0.9756352
0.9774561 0.94479764 0.97986555 1.0173975 1.0072249 1.0233953 0.9369979 0.96897936
0.9883222 1.0022349 1.025298 1.037046 0.9681381 1.0059413 0.9676268 1.1124532
0.95039976 1.0014358 0.98289394 1.0152658 1.0013597 0.9695841 1.0961887 1.034656
1.0128472 0.9951797 0.99291265 1.0085418 1.0140693 0.99251246 1.0011146 0.9741215
0.97499424 0.99874455 0.9927205 1.0086179 0.97114134 0.9946446 1.0157506 1.0151176
00000000: 6942 813f 86b5 7b3f 30b0 7a3f b70f 793f
00000010: d6c8 823f fdd2 7e3f 4cd7 843f a261 7e3f
00000020: 9fc5 823f 7c23 7f3f 50ac 753f 96b0 803f
00000030: 9461 813f aede 793f 6c07 883f 1c77 803f
00000040: 149b 7a3f c589 813f d2d0 813f 8487 773f
00000050: 603c 7e3f 2350 7f3f 3a6b 7a3f db3e 823f
00000060: 347c 823f da19 753f 9ebe 763f a6a3 773f
00000070: e0a5 873f 6cbb 7a3f b976 803f b86a 843f
00000080: 2eca 823f b371 7f3f baba 763f b725 7c3f
00000090: 7838 823f 65f1 823f 429c 823f 8544 793f
000000a0: 9658 823f da02 833f aed8 7c3f 0c5b 853f
000000b0: c0ca 753f 4885 803f d3a5 823f 74e1 733f
000000c0: f586 833f ba08 793f c67d 723f de72 8a3f
000000d0: a4b0 843f 0802 723f 61db 773f 74f8 8b3f
000000e0: f04c 863f 407c 793f de09 863f f66b 833f
000000f0: 6696 803f c466 753f 3a19 7f3f 606d 773f
00000100: 620b 703f b8ae 813f 84f1 833f 2240 813f
00000110: cd6e 7f3f 60b2 773f 2ed7 823f fe67 803f
00000120: 5892 7b3f e664 833f c178 7e3f 0af7 813f
00000130: 3cd7 7d3f 08a9 7d3f cee9 6d3f f502 803f
00000140: 203b 813f 6339 7d3f 1460 7e3f 77ec 7d3f
00000150: 6c3b 7c3f 9fdf 973f 3ec6 763f 3ac3 793f
00000160: 903a 7a3f 42de 713f 78d8 7a3f 153a 823f
00000170: bfec 803f 9efe 823f 18df 6f3f 080f 783f
00000180: af02 7d3f 3c49 803f f73c 833f ecbd 843f
00000190: e6d7 773f afc2 803f 64b6 773f de64 8e3f
000001a0: 664d 733f 0c2f 803f f09e 7b3f 3bf4 813f
000001b0: 8e2c 803f aa36 783f e94f 8c3f 9c6f 843f
000001c0: faa4 813f 19c4 7e3f 862f 7e3f e617 813f
000001d0: 06cd 813f 4c15 7e3f 8624 803f 0760 793f
000001e0: 3999 793f b9ad 7f3f ee22 7e3f 641a 813f
000001f0: b89c 783f 07a1 7e3f 1e04 823f 60ef 813f

bn1_mlp.bias f4 [128]
0.013988426 -0.03856797 -0.016962972 -0.031035773 -0.052388046 -0.005521177 0.0060733575 -0.070204586
0.009069134 -0.036849506 -0.03177343 -0.009260024 -0.041201975 -0.023465123 -0.0148109915 -0.023286674
-0.037494004 0.0033901185 -0.022304995 -0.020952934 -0.0067302543 -0.04181109 -0.059662335 -0.0064327316
0.010922559 -0.042260725 -0.048393153 -0.0022834395 -0.03324664 0.0127151385 0.0056656906 0.010836039
-0.008037305 -0.027740931 -0.030870818 -0.09121484 -0.04182615 -0.020307796 -0.0063524833 -0.032254275
0.0379988 0.10768839 -0.016310971 -0.011313821 -0.025893591 0.0004087591 -0.012982759 -0.028758278
0.022480583 -0.029982457 -0.033582475 0.046277553 0.033621736 -0.04251515 -0.058985863 0.08966613
0.039939117 -0.0023679417 0.055193998 0.023756022 -0.11125899 -0.02980901 0.011790233 -0.01854078
-0.04518325 0.0020713517 0.016553555 -0.03193792 -0.019533098 -0.035706904 0.028110188 0.008768186
-0.0011705462 0.020648729 -0.013719255 -0.08178758 -0.050396588 -0.057620056 -0.0067573367 -0.013517998
-0.043330226 -0.030964654 -0.014983348 0.042020325 0.009066651 0.090548724 -0.03531264 -0.014818377
-0.05580333 -0.011541016 -0.014819048 0.021959212 -0.0031114356 -0.0070634647 -0.029359128 0.011687308
-0.061220486 -0.024314344 -0.021351242 0.0055025755 -0.025276212 -0.01103967 -0.022301802 0.1450816
-0.028484257 0.0010643905 -0.018907508 -0.0050081047 -0.034924343 -0.028131552 0.024656119 0.07608216
0.014022609 -0.051235616 0.004831956 0.0057590115 -0.0069441595 -0.0049294843 0.044501334 -0.08717175
0.025322448 0.028666671 0.020567602 -0.044481296 -0.014973087 0.059134737 -0.02169462 0.021673046
00000000: b62f 653c 73f9 1dbd eef5 8abc bc3e febc
00000010: d994 56bd fdea b4bb 0403 c73b 6cc7 8fbd
00000020: b496 143c 82ef 16bd db24 02bd 5bb7 17bc
00000030: 67c3 28bd ee39 c0bc cda9 72bc b2c3 bebc
00000040: 5093 19bd c02c 5e3b f7b8 b6bc 7da5 abbc
00000050: 7789 dcbb 1b42 2bbd 7e60 74bd aac9 d2bb
00000060: 88f4 323c 9519 2dbd e637 46bd c2a5 15bb
00000070: a12d 08bd 2853 503c 42a7 b93b a489 313c
00000080: e7ae 03bc f340 e3bc cce4 fcbc d9ce babd
00000090: e651 2bbd 895c a6bc 7e28 d0bb 0f1d 04bd
000000a0: a1a4 1b3d bb8b dc3d 969e 85bc 9b5d 39bc
000000b0: cc1e d4bc b84e d639 a3b5 54bc 7b96 ebbc
000000c0: 3329 b83c c59d f5bc c78d 09bd 888d 3d3d
000000d0: f2b6 093d 5e24 2ebd 299b 71bd e0a2 b73d
000000e0: 3397 233d 782f 1bbb 1a13 623d fd9b c23c
000000f0: c1db e3bd 0632 f4bc d22b 413c d5e2 97bc
00000100: 1212 39bd 84bf 073b 529b 873c 56d1 02bd
00000110: e003 a0bc 6741 12bd 5647 e63c 70a8 0f3c
00000120: 036d 99ba 8627 a93c bac6 60bc 3f80 a7bd
00000130: a76c 4ebd 0203 6cbd a66c ddbb 987a 5dbc
00000140: 097b 31bd 96a9 fdbc b77c 75bc 811d 2c3d
00000150: 4a8c 143c 9c71 b93d fda3 10bd c7c8 72bc
00000160: 0892 64bd 8816 3dbc 98cb 72bc cee3 b33c
00000170: 3ae9 4bbb a374 e7bb 8e82 f0bc 1f7c 3f3c
00000180: 55c2 7abd e02e c7bc cde8 aebc f34e b43b
00000190: 0f10 cfbc bbdf 34bc 45b2 b6bc 4590 143e
000001a0: d157 e9bc 0583 8b3a ebe3 9abc 071b a4bb
000001b0: d40c 0fbd 2474 e6bc a1fb c93c f7d0 9b3d
000001c0: 16bf 653c 70dc 51bd 6255 9e3b 17b6 bc3b
000001d0: d58b e3bb 8387 a1bb 0847 363d 1a87 b2bd
000001e0: 0671 cf3c 5ed6 ea3c 637d a83c 0532 36bd
000001f0: ae51 75bc 4437 723d eab8 b1bc ac8b b13c

bn1_mlp.running_mean f4 [128]
-0.14286834 -0.10710345 -0.044062313 0.18014814 0.023943322 -0.27422673 0.17768453 -0.28042173
-0.29773062 -0.05103458 0.13295954 0.3398758 0.088423096 -0.14233297 0.2930428 -0.1660917
-0.11695329 0.16887899 0.007895209 0.12880652 0.008560499 -0.12519425 0.16416028 0.035387505
-0.18946363 -0.22884507 0.18401435 0.2182515 0.14067991 -0.19580248 0.3165303 -0.2874684
-0.1020608 -0.1099702 0.1780443 0.20853887 -0.08904032 0.11077281 0.008661804 -0.08876569
-0.17239918 0.2055877 0.21601364 0.30934116 -0.24130031 -0.03437334 -0.008879353 0.1844989
-0.3492426 -0.19673379 -0.20270415 0.13613327 0.1645173 0.22682862 -0.038239222 0.26831064
-0.1997864 -0.02109146 -0.18483801 0.04562542 0.27976793 -0.022453016 -0.031159753 -0.091457024
-0.016428294 0.1436785 -0.18225312 -0.0008967498 0.14228682 -0.29778317 0.12469694 -0.016851038
0.21331781 -0.18285626 -0.0559679 0.07214797 0.01763812 0.06903844 0.16726866 -0.24900395
-0.059607457 -0.053128105 0.07029889 0.42499936 -0.10387559 0.02459376 -0.3935661 0.16221896
-0.030274427 -0.24521527 0.20693538 0.092562295 -0.10159547 -0.040128034 0.02713411 -0.2722873
0.26649335 0.19352628 -0.14543143 -0.24507317 -0.07575983 0.05690398 -0.038974002 0.06346476
0.26930368 0.20005585 0.2544665 0.30985117 0.02103022 -0.19748639 0.11285356 0.15377483
-0.3244087 0.15368205 -0.38704604 -0.2539608 -0.13481629 -0.08806074 0.22183834 0.26729473
-0.018429404 0.20689593 -0.098955184 -0.20295405 0.058216576 0.21119662 -0.03408356 -0.16420788
00000000: 144c 12be 0e59 dbbd af7a 34bd c178 383e
00000010: c924 c43c 7267 8cbe eff2 353e 7093 8fbe
00000020: 2670 98be a309 51bd 8c26 083e 3304 ae3e
00000030: 2b17 b53d bcbf 11be b509 963e f113 2abe
00000040: 3585 efbd 9dee 2c3e e85a 013c dbe5 033e
00000050: 5641 0c3c ec32 00be a219 283e 7df2 103d
00000060: c102 42be 5d56 6abe 426e 3c3e 527d 5f3e
00000070: 650e 103e 7280 48be 4210 a23e 0f2f 93be
00000080: 4105 d1bd 0e38 e1bd 3f51 363e 378b 553e
00000090: c55a b6bd dbdc e23d 3dea 0d3c c9ca b5bd
000000a0: 6989 30be 9585 523e ae32 5d3e f761 9e3e
000000b0: 6e17 77be 0fcb 0cbd b57a 11bc 48ed 3c3e
000000c0: edcf b2be 9574 49be ad91 4fbe 8566 0b3e
000000d0: 3977 283e c345 683e bba0 1cbd 0360 893e
000000e0: ce94 4cbe ffc7 acbc 2d46 3dbe b8e1 3a3d
000000f0: be3d 8f3e 63ef b7bc bd42 ffbc d24d bbbd
00000100: a194 86bc 7520 133e 90a0 3abe dc13 6bba
00000110: a3b3 113e 0977 98be 1c61 ff3d 300b 8abc
00000120: fc6f 5a3e ac3e 3bbe 993e 65bd 51c2 933d
00000130: d27d 903c 0764 8d3d 7a48 2b3e e4fa 7ebe
00000140: f326 74bd db9c 59bd ddf8 8f3d 8499 d93e
00000150: babc d4bd da78 c93c 7f81 c9be ba1c 263e
00000160: 1302 f8bc b619 7bbe dee6 533e 4d91 bd3d
00000170: 4911 d0bd 4b5d 24bd 5a48 de3c 3e69 8bbe
00000180: d171 883e c12b 463e faeb 14be 76f4 7abe
00000190: f827 9bbd 2614 693d 34a3 1fbd d0f9 813d
000001a0: 2ce2 893e 71db 4c3e 6f49 823e d0a4 9e3e
000001b0: 9147 ac3c df39 4abe c41f e73d 2677 1d3e
000001c0: e618 a6be d45e 1d3e e62a c6be 2607 82be
000001d0: 480d 0abe 3059 b4bd 9729 633e dbda 883e
000001e0: 43f9 96bc 87dc 533e 04a9 cabd 30d3 4fbe
000001f0: 8174 6e3d ed43 583e 349b 0bbd 1c26 28be

bn1_mlp.running_var f4 [128]
0.6431859 0.30744892 0.5023651 0.6201899 0.45814365 0.3758276 0.3303141 0.3491609
0.85235006 0.34204212 0.5630452 0.21948059 0.16603756 0.20835538 0.7085501 0.5062035
0.45956308 0.41117394 0.5088801 0.35784495 0.58451563 0.49405238 0.539385 0.5871226
0.42207667 0.43350548 0.3739939 0.3970224 0.7359516 0.40080878 0.40702507 0.5222731
0.4462114 0.38314807 0.6787051 0.26296404 0.48172018 0.217302 0.32109278 0.3071827
0.2984295 0.49115407 0.49497852 0.81296885 0.5134137 0.41890043 0.9089906 0.39220256
0.46695855 0.31133103 0.8150274 0.4877202 0.26369652 0.79442644 0.29177538 0.6093577
0.67777604 0.5910378 0.8341126 0.51883274 0.5182519 0.42173424 0.4983968 0.46945882
0.4028218 0.49370563 0.43257648 0.4021243 0.6334946 0.33281878 0.48229423 0.45576897
0.31770256 0.42183065 0.5085373 0.45861793 0.500013 0.24421819 0.6383997 0.44607425
0.3354991 0.33202288 0.7490397 0.75767773 0.53558993 0.7655212 0.43287405 0.7391655
1.0308611 0.5404296 0.52125806 0.54557574 1.0322932 0.5096273 0.4047898 0.54395604
0.61766845 0.4420461 1.0541103 1.3896989 0.37854564 0.47130835 0.3270992 1.2528217
0.30628493 0.54358715 0.57332975 0.5751532 0.3969454 0.22554214 0.8268546 0.6260243
0.6788479 0.6989365 0.32164404 0.5059152 0.40750024 0.71596855 0.47405112 0.58716327
0.61487365 0.3254581 0.30875582 0.58006305 0.44689602 0.66927516 0.5692524 0.5563715
00000000: d5a7 243f f269 9d3e 009b 003f c4c4 1e3f
00000010: ce91 ea3e 7a6c c03e ee1e a93e 38c5 b23e
00000020: 9d33 5a3f 2520 af3e bb23 103f 85bf 603e
00000030: c005 2a3e 1d5b 553e 8a63 353f 8d96 013f
00000040: da4b eb3e 6485 d23e f745 023f 7437 b73e
00000050: d1a2 153f 6ff4 fc3e 2315 0a3f ab4d 163f
00000060: 6f1a d83e 6ef4 dd3e 217c bf3e 8546 cb3e
00000070: 5367 3c3f cf36 cd3e 9765 d03e b1b3 053f
00000080: d275 e43e fc2b c43e 9ebf 2d3f 39a3 863e
00000090: 07a4 f63e 6a84 5e3e 4666 a43e 0d47 9d3e
000000a0: c0cb 983e 8c78 fb3e d36d fd3e ba1e 503f
000000b0: 156f 033f 1e7a d63e 9cb3 683f c6ce c83e
000000c0: 3115 ef3e c866 9f3e a3a5 503f 76b6 f93e
000000d0: 3b03 873e 885f 4b3f 9563 953e defe 1b3f
000000e0: bb82 2d3f 414e 173f 6788 553f 39d2 043f
000000f0: 28ac 043f 8ded d73e de2d ff3e e85c f03e
00000100: a93e ce3e fcc6 fc3e aa7a dd3e 3ce3 cd3e
00000110: b42c 223f 3967 aa3e 45ef f63e 8d5a e93e
00000120: e9a9 a23e 30fa d73e 802f 023f f8cf ea3e
00000130: da00 003f 5514 7a3e 2a6e 233f d863 e43e
00000140: 8ac6 ab3e e7fe a93e 11c1 3f3f 2bf7 413f
00000150: 6c1c 093f 33f9 433f aba1 dd3e f339 3d3f
00000160: 42f3 833f 9859 0a3f 2b71 053f daaa 0b3f
00000170: 2f22 843f ef76 023f 9c40 cf3e b440 0b3f
00000180: 851f 1e3f de53 e23e 16ed 863f a7e1 b13f
00000190: bcd0 c13e 544f f13e 8c79 a73e 765c a03f
000001a0: 61d1 9c3e 8728 0b3f bdc5 123f 3d3d 133f
000001b0: 6d3c cb3e 85f4 663e beac 533f 2143 203f
000001c0: fac8 2d3f 81ed 323f 87ae a43e a983 013f
000001d0: dfa3 d03e b749 373f d4b6 f23e 5550 163f
000001e0: 5c68 1d3f 72a2 a63e 3e15 9e3e 037f 143f
000001f0: 8ecf e43e 9e55 2b3f 86ba 113f 5d6e 0e3f

fc2_mlp.weight f4 [64, 128]
0.088130295 0.038997445 0.10514492 0.07116521 -0.0806571 0.053954657 -0.043989845 0.07692948
-0.08777127 0.114133276 0.0673468 -0.08905056 -0.010243029 0.017165476 -0.06662028 0.04069549
-0.056430988 0.12024203 -0.06347528 -0.06964229 -0.05297127 0.007956849 0.062598765 -0.07783034
0.06982163 0.013507847 -0.033138216 -0.053179465 -0.09029911 0.057226837 -0.10632202 -0.08121768
-0.031688426 -0.08685404 -0.08477101 0.032083325 -0.07371983 -0.024489306 0.024796326 0.03871412
-0.018598532 -0.042657048 0.06480199 -0.049425617 -0.06492351 -0.08940597 0.05846473 -0.04630282
-0.025866248 -0.0076681385 -0.040185943 -0.094312906 0.0375045 0.04211567 -0.10521854 0.097537585
0.027015453 -0.061023444 -0.021519106 -0.09959747 -0.030759647 0.04642349 0.04389828 0.027569465
-0.020418484 0.077714816 -0.09427025 -0.036632925 0.014858352 -0.03522169 0.009050208 -0.047095444
0.02946436 -0.016250966 0.036838666 0.046983685 -0.05823105 -0.016051698 0.055718046 0.027222816
-0.068654776 0.028077954 0.067099884 -0.03585934 -0.06724751 0.0063464195 0.012570278 -0.075827934
-0.016350338 -0.13370708 0.017598607 0.04837092 -0.006991978 -0.0054723597 0.010619571 -0.037232123
0.02384938 0.044472594 -0.065587915 0.051712792 -0.023594582 -0.07214291 -0.048389837 -0.02062173
0.024831966 0.02555632 -0.032764427 0.08569735 -0.09226684 0.037593786 -0.030891284 -0.0007449599
0.034358833 -0.044409815 0.07293553 0.045111973 0.07333124 -0.03907317 -0.029848598 0.044623535
0.0766925 -0.07135335 -0.0503773 0.08112515 0.0906017 0.015626706 -0.10611863 -0.06069225
0.068825476 0.08013403 -0.019987533 -0.042261142 0.033322465 0.019286923 -0.012252933 -0.06468719
0.006788332 -0.06718999 0.054700654 -0.056494683 -0.0470324 0.032184765 0.06737476 0.06985872
0.03345649 -0.054480083 0.09716356 0.06323004 0.088159 -0.062028915 -0.0023676795 0.04037463
0.102690816 0.07050542 -0.044499844 0.06773239 0.05296589 0.037495874 -0.106446564 0.0752792
-0.060529616 -0.081175074 -0.048467427 -0.056694545 -0.004027137 -0.049360614 -0.034031868 -0.025836252
-0.0012250587 -0.012000626 0.095596544 0.0960191 0.030163942 0.036316156 -0.03016507 -0.009071937
0.02469423 -0.0033334717 0.046915643 -0.039871376 0.060559973 0.0018572846 0.008057124 -0.02790961
0.029935792 -0.09783757 0.0147641 -0.07194886 -0.050084215 0.040577848 0.08330517 0.015751742
-0.03155625 -0.11734069 -0.09322992 0.050997302 -0.03573382 0.019176379 0.04796143 -0.09651196
0.06643323 0.030196091 -0.016601088 0.046811722 -0.04067365 0.021985132 0.04020551 -0.040144276
-0.028174417 -0.035701208 -0.05427069 -0.030259695 -0.08552598 -0.020925324 -0.059376977 -0.010618134
0.034222957 -0.02464235 -0.020057809 -0.009893674 -0.094263144 0.07511819 0.016918933 0.08958062
0.091984995 -0.11417448 0.042064343 0.010139158 0.06608395 -0.007909534 -0.047295846 6.166964e-05
0.03581405 0.038448606 -0.044140343 0.06688542 0.029625986 0.03792495 -0.038853288 -0.021646734
0.03278866 0.004326359 0.04864277 0.08272182 0.061417438 0.013984065 0.0044986596 0.032514047
-0.031362075 -0.023782011 0.028202873 0.069311045 0.0072651017 0.06546778 0.058531962 0.08409663
00000000: a87d b43d c9bb 1f3d 3856 d73d 11bf 913d
00000010: 8d2f a5bd 8fff 5c3d b22e 34bd 348d 9d3d
00000020: 6cc1 b3bd b5be e93d 1eed 893d 2460 b6bd
00000030: 61d2 27bc 9d9e 8c3c 3770 88bd 50b0 263d
00000040: 2e24 67bd 7441 f63d 54ff 81bd 9ea0 8ebd
00000050: 67f8 58bd 725d 023c c833 803d 8365 9fbd
00000060: a5fe 8e3d 0450 5d3c f0bb 07bd b6d2 59bd
00000070: bdee b8bd b066 6a3d 5cbf d9bd 7455 a6bd
00000080: b9cb 01bd 88e0 b1bd 6c9c adbd ce69 033d
00000090: 6cfa 96bd cc9d c8bc aa21 cb3c b292 1e3d
000000a0: f35b 98bc 28b9 2ebd e8b6 843d 8472 4abd
000000b0: 9ef6 84bd 7a1a b7bd b678 6f3d 07a8 3dbd
000000c0: 74e5 d3bc 0245 fbbb 049a 24bd 2027 c1bd
000000d0: 529e 193d 7b81 2c3d d17c d7bd c9c1 c73d
000000e0: 834f dd3c b8f3 79bd d648 b0bc c2f9 cbbd
000000f0: a8fb fbbc 8f26 3e3d afce 333d 5cd9 e13c
00000100: aa44 a7bc f228 9f3d c310 c1bd 680c 16bd
00000110: 7270 733c 9e44 10bd 5347 143c 27e7 40bd
00000120: 3e5f f13c bf20 85bc 24e4 163d f771 403d
00000130: ae83 6ebd da7e 83bc 9b38 643d 6202 df3c
00000140: e09a 8cbd bd03 e63c aa6b 893d 3ee1 12bd
00000150: 10b9 89bd a0f5 cf3b 91f3 4d3c ad4b 9bbd
00000160: 25f1 85bc 82ea 08be f42a 903c 9620 463d
00000170: f61c e5bb 7b51 b3bb b6fd 2d3c b680 18bd
00000180: c65f c33c e528 363d f552 86bd cbd0 533d
00000190: 6d49 c1bc a9bf 93bd 6c34 46bd e7ee a8bc
000001a0: 686c cb3c 7d5b d13c fe33 06bd 1882 af3d
000001b0: 66f6 bcbd f1fb 193d b80f fdbc 6a49 43ba
000001c0: d9bb 0c3d 11e7 35bd 395f 953d 55c7 383d
000001d0: b02e 963d 300b 20bd 0c85 f4bc 2bc7 363d
000001e0: f510 9d3d b521 92bd 6d58 4ebd f124 a63d
000001f0: 628d b93d 9403 803c b954 d9bd 7098 78bd
00000200: 5ff4 8c3d 4f1d a43d e5bc a3bc 051a 2dbd
00000210: 237d 083d 9cff 9d3c 87c0 48bc b87a 84bd
00000220: a870 de3b e89a 89bd cb0d 603d f866 67bd
00000230: 0ca5 40bd 2cd4 033d c7fb 893d 1712 8f3d
00000240: ac09 093d 8226 5fbd b0fd c63d c07e 813d
00000250: b58c b43d 0812 7ebd 122b 1bbb de5f 253d
00000260: 904f d23d 2565 903d 7845 36bd 47b7 8a3d
00000270: c3f2 583d 4695 193d a800 dabd fb2b 9a3d
00000280: e7ed 77bd 1e3f a6bd c885 46bd 8a38 68bd
00000290: 13f6 83bb 5b2e 4abd 0065 0bbd 8ca6 d3bc
000002a0: 2692 a0ba 469e 44bc 1fc8 c33d a9a5 c43d
000002b0: 5f1a f73c 40c0 143d bd1c f7bc 76a2 14bc
000002c0: 8e4b ca3c 6076 5abb 9e2a 403d 2b50 23bd
000002d0: bc0d 783d 2170 f33a 0702 043c b2a2 e4bc
000002e0: e83b f53c 105f c8bd 20e5 713c ed59 93bd
000002f0: 1b25 4dbd f534 263d e79b aa3d cc09 813c
00000300: 2041 01bd 5150 f0bd 54ef bebd 8ce2 503d
00000310: a05d 12bd c817 9d3c 3473 443d 10a8 c5bd
00000320: 250e 883d cb5d f73c 01ff 87bc a6bd 3f3d
00000330: 6a99 26bd 2a1a b43c 88ae 243d 536e 24bd
00000340: 09ce e6bc 6e3b 12bd f14a 5ebd 2ee3 f7bc
00000350: 3f28 afbd 966b abbc 4635 73bd aff7 2dbc
00000360: 5f2d 0c3d c1de c9bc 4650 a4bc 1419 22bc
00000370: 090d c1bd 91d7 993d 9399 8a3c 0b76 b73d
00000380: a162 bc3d 4fd4 e9bd a94b 2c3d b61e 263c
00000390: 0657 873d fd96 01bc 4ab9 41bd a354 8138
000003a0: c1b1 123d 497c 1d3d 81cc 34bd 39fb 883d
000003b0: 32b2 f23c 3157 1b3d a024 1fbd 7e54 b1bc
000003c0: 674d 063d 21c4 8d3b a43d 473d 0f6a a93d
000003d0: da90 7b3d 6b1d 653c 7e69 933b 732d 053d
000003e0: 8575 00bd 7ed2 c2bc b609 e73c f3f2 8d3d
000003f0: 1710 ee3b f913 863d 36bf 6f3d db3a ac3d

fc2_mlp.bias f4 [64]
-0.0585364 0.013905264 0.08598272 0.019958256 0.06603274 0.028667497 -0.007710511 0.051098466
0.023613092 0.05218583 0.0567265 -0.02073403 0.038645245 -0.034096185 -0.010821829 -0.044980902
-0.0129574705 -0.009752944 -0.062249426 0.0016273025 0.035485726 0.085255906 0.016842494 -0.008625655
-0.050823223 -0.046800844 0.015314098 -0.045015823 0.02478332 0.038263142 0.012842887 -0.09151988
-0.01204119 0.017168377 0.08823135 -0.018777702 -0.03882744 -0.017337495 -0.0014300885 0.009448873
-0.081268586 -0.006456802 0.068365514 0.006249324 0.05696312 -0.049711064 -0.011814669 0.106970415
0.019933729 -0.025136385 0.016339352 -0.035856254 0.06418348 0.026534121 0.00988802 -0.039462406
0.02599068 0.0021034167 -0.06831886 0.012734162 0.06516061 -0.032357674 -0.06597392 0.022024423
00000000: ddc3 6fbd e8d2 633c b517 b03d 7f7f a33c
00000010: 2c3c 873d 19d8 ea3c 74a8 fcbb a04c 513d
00000020: 3e70 c13c cfc0 553d 0c5a 683d 6ada a9bc
00000030: 7a4a 1e3d 71a8 0bbd 0a4e 31bc e53d 38bd
00000040: 924b 54bc d0ca 1fbc 41f9 7ebd 364b d53a
00000050: 7b59 113d a69a ae3d 45f9 893c 9f52 0dbc
00000060: 032c 50bd 3eb2 3fbd fce7 7a3c 8362 38bd
00000070: 6406 cb3c d0b9 1c3d f96a 523c c66e bbbd
00000080: 6948 45bc b2a4 8c3c a3b2 b43d b2d3 99bc
00000090: 8609 1fbd 5d07 8ebc cf71 bbba 72cf 1a3c
000000a0: 2570 a6bd 9593 d3bb 3803 8c3d 21c7 cc3b
000000b0: 2952 693d d49d 4bbd 5092 41bc 4e13 db3d
000000c0: 0f4c a33c d2ea cdbc 1bda 853c 02de 12bd
000000d0: a172 833d 165e d93c 5d01 223c 55a3 21bd
000000e0: 68ea d43c 7ad9 093b c2ea 8bbd f2a2 503c
000000f0: ed72 853d 7b89 04bd 561d 87bd 906c b43c

bn2_mlp.weight f4 [64]
0.99617445 0.9740586 1.0260777 1.0168369 1.0343788 1.006791 1.0353183 1.0052414
0.99134886 1.0394349 1.0065843 1.0057383 1.010092 0.99992263 1.0107578 0.99427354
0.9595135 1.0876489 0.9604173 0.9835769 0.9521471 0.93320584 0.99786377 1.0248523
1.009913 1.0345452 0.9861484 0.9820442 1.0026339 0.9745835 1.0068803 0.9535067
1.0018425 1.0195 1.002408 0.9682683 0.99551845 0.9562826 0.95720136 0.99665785
0.9811692 1.0002133 1.0203141 0.96955323 0.9590553 1.0193007 0.9726573 1.0726469
1.0662589 1.056405 1.0769086 1.000073 0.9996283 1.0367749 0.9451928 0.97679293
0.9699339 1.000656 0.99059856 0.9983505 0.97664917 0.9695189 1.0284767 0.9813863
00000000: 4a05 7f3f e85b 793f 8456 833f b627 823f
00000010: 8666 843f 87de 803f 4f85 843f c0ab 803f
00000020: 0ac9 7d3f 340c 853f c1d7 803f 08bc 803f
00000030: b24a 813f eefa 7f3f 8360 813f b688 7e3f
00000040: ada2 753f 1438 8b3f e8dd 753f b2cb 7b3f
00000050: eabf 733f 94e6 6e3f 0074 7f3f 5c2e 833f
00000060: d444 813f fa6b 843f 3974 7c3f 4067 7b3f
00000070: 4f56 803f 4e7e 793f 74e1 803f 0419 743f
00000080: 603c 803f fa7e 823f e84e 803f 6ee0 773f
00000090: 4cda 7e3f f0ce 743f 260b 753f f824 7f3f
000000a0: e82d 7b3f fd06 803f a799 823f a434 783f
000000b0: a684 753f 7278 823f 1200 793f 7e4c 893f
000000c0: 2c7b 883f 4738 873f 24d8 893f 6402 803f
000000d0: a4e7 7f3f 0ab5 843f 28f8 713f 1a0f 7a3f
000000e0: 974d 783f 7f15 803f de97 7d3f e693 7f3f
000000f0: ae05 7a3f 6432 783f 20a5 833f 223c 7b3f

bn2_mlp.bias f4 [64]
-0.003355655 -0.050256014 -0.00707906 0.048841864 0.049937136 -0.015149116 0.015040753 0.014617085
0.07770918 0.040292207 -0.015858926 0.0013674496 -0.0034720807 0.093008675 0.016940244 -0.083115675
0.012486963 0.12464358 -0.026793197 -0.008142593 -0.0052921777 -0.057711765 -0.021061456 0.036959313
-0.043494847 -0.02011777 0.019028222 -0.00795452 -0.03389095 -0.027427353 0.031616073 -0.054744136
-0.035695918 -0.013818319 0.014915548 -0.022417752 -0.0126901865 -0.061474625 -0.034808934 -0.011455389
-0.058878284 -0.033161324 0.0030171685 -0.035162497 0.00786877 0.004502801 -0.022106707 0.090057455
0.055714127 -0.0032346025 0.07768954 -0.0087390235 -0.008086271 0.014073366 0.00454362 0.011468888
0.0004942212 -0.0015098698 -0.0024147977 -0.014475019 -0.028750736 -0.02049828 -0.017811289 0.030733617
00000000: 8cea 5bbb 40d9 4dbd 76f7 e7bb 680e 483d
00000010: e28a 4c3d ff33 78bc 7e6d 763c 807c 6f3c
00000020: fe25 9f3d 7109 253d 94ea 81bc ff3b b33a
00000030: d98b 63bb 557b be3d 44c6 8a3c 8d38 aabd
00000040: 1e96 4c3c 2245 ff3d 687d dbbc 8368 05bc
00000050: 016a adbb 2c63 6cbd 1389 acbc a662 173d
00000060: a727 32bd 06ce a4bc 13e1 9b3c ad53 02bc
00000070: 3dd1 0abd 54af e0bc db7f 013d 633b 60bd
00000080: e235 12bd 3b66 62bc 5860 743c 6fa5 b7bc
00000090: 80ea 4fbc d1cc 7bbd d093 0ebd 62af 3bbc
000000a0: 5b2a 71bd 2bd4 07bd b0bb 453b 8d06 10bd
000000b0: 03ec 003c 3c8c 933b 2019 b5bc 0b70 b83d
000000c0: 7f34 643d a0fb 53bb b21b 9f3d 1f2e 0fbc
000000d0: 477c 04bc fa93 663c a6e2 943b 01e8 3b3c
000000e0: a08e 013a d3e6 c5ba 9541 1ebb a128 6dbc
000000f0: aa86 ebbc 02ec a7bc fbe8 91bc 11c5 fb3c

bn2_mlp.running_mean f4 [64]
-0.32853356 0.24071236 0.69737625 -0.07018663 -0.47466928 0.3201323 0.4210129 -0.14424695
-0.11014577 0.4884999 0.3503024 -0.036093317 0.3665903 -0.5516861 -0.30890062 0.50100476
-0.1636111 -0.05526876 -0.22480856 0.54046726 -0.41969883 0.24519908 -0.11484415 0.05690683
0.424688 0.098017916 -0.4910371 0.43705282 0.73197794 -0.34066424 -0.12613575 -0.5495914
0.60560465 0.4077203 0.20154656 0.084656574 0.065291725 -0.6246473 -0.49238232 0.1499915
0.6494758 -0.012128722 0.38359985 -0.48446447 -0.43365893 0.26883253 -0.4940255 0.42921746
0.1411922 0.22787091 0.14276312 0.0038694607 -0.064195365 0.077851176 0.3300981 -0.424878
0.16936514 0.20933035 -0.79066205 0.5011068 -0.38643122 -0.18124264 0.50545347 -0.053871315
00000000: 8d35 a8be 4d7d 763e 4087 323f 02be 8fbd
00000010: da07 f3be 61e8 a33e 018f d73e 79b5 13be
00000020: 1b94 e1bd a91c fa3e d65a b33e 96d6 13bd
00000030: b9b1 bb3e 4d3b 0dbf 3928 9ebe d941 003f
00000040: ab89 27be 7f61 62bd 3734 66be 105c 0a3f
00000050: c4e2 d6be 7815 7b3e 6933 ebbd 2317 693d
00000060: b570 d93e 9ebd c83d 3769 fbbe 63c5 df3e
00000070: e862 3b3f 8b6b aebe bb29 01be 06b2 0cbf
00000080: e808 1b3f b7c0 d03e 3962 4e3e 6d60 ad3d
00000090: abb7 853d e3e8 1fbf 8919 fcbe 5f97 193e
000000a0: 0c44 263f 8cb7 46bc 3367 c43e ba0b f8be
000000b0: 8b08 debe 6ba4 893e e9f0 fcbe 64c2 db3e
000000c0: b094 103e fe56 693e 7f30 123e c796 7d3b
000000d0: dc78 83bd 7070 9f3d 9e02 a93e 9c89 d9be
000000e0: 0e6e 2d3e b25a 563e d468 4abf 8948 003f
000000f0: 50da c5be ac97 39be 6665 013f 2ba8 5cbd

bn2_mlp.running_var f4 [64]
0.5172662 0.46304315 0.52691466 0.58035374 0.5367459 0.5544461 0.749145 0.5620873
0.65170425 0.52072227 0.7849217 0.43379578 0.63080806 0.36401844 0.6609791 0.5966793
0.42939603 1.0063745 0.55833757 0.52299726 0.32490805 0.43242335 0.57771325 0.8457108
0.439881 0.82099134 0.39871892 0.57850945 0.6436401 0.6205724 0.55853707 0.5164375
0.8426291 0.6789021 0.7007467 0.4402232 0.38249758 0.56321967 0.41731334 0.3076984
0.86938614 0.59591347 0.5541126 0.80094415 0.4673466 0.41214824 0.44513273 1.37296
0.5279163 0.44245648 0.61220646 0.45962435 0.40013352 0.5118751 0.43946832 0.7635146
0.709881 0.5824747 0.61895335 0.43199795 0.62034994 0.65119 0.69174373 0.39736935
00000000: 8f6b 043f fe13 ed3e e1e3 063f 1092 143f
00000010: 2e68 093f 2ef0 0d3f f7c7 3f3f f4e4 0f3f
00000020: 17d6 263f 0e4e 053f a1f0 483f 7b1a de3e
00000030: a37c 213f a060 ba3e ed35 293f f9bf 183f
00000040: ccd9 db3e e1d0 803f 36ef 0e3f 26e3 053f
00000050: 595a a63e 9866 dd3e 04e5 133f 8180 583f
00000060: 1538 e13e 7d2c 523f e324 cc3e 3219 143f
00000070: 99c5 243f d5dd 1e3f 49fc 0e3f 3f35 043f
00000080: 8ab6 573f 87cc 2d3f 2364 333f ef64 e13e
00000090: b9d6 c33e 2a2f 103f 18aa d53e a58a 9d3e
000000a0: 1790 5e3f c98d 183f 53da 0d3f ad0a 4d3f
000000b0: 0e48 ef3e 1805 d33e 70e8 e33e 27bd af3f
000000c0: 8625 073f a889 e23e 90b9 1c3f e253 eb3e
000000d0: 4dde cc3e 3f0a 033f fe01 e13e b175 433f
000000e0: c3ba 353f 101d 153f ba73 1e3f d62e dd3e
000000f0: 41cf 1e3f 63b4 263f 1e16 313f ff73 cb3e

fc1_combined.weight f4 [128, 69]
0.010934288 -0.08651196 0.027719468 -0.045790605 0.061529927 0.06946014 -0.030529995 -0.0862073
0.10453052 0.120757096 -0.09982306 0.10285308 -0.044757932 -0.065950334 0.0035721548 -0.013298973
0.045052126 -0.061909925 -0.039508566 0.15657802 -0.07805358 -0.10857597 -0.0644565 -0.062089577
0.011180026 -0.05011991 0.08901672 -0.057158522 -0.048797783 -0.15605406 -0.020153413 0.07642521
0.04830867 0.09370001 0.06890502 0.07221495 0.049043193 0.0494972 0.1264177 0.06983761
-0.085519 0.05076955 0.12339447 0.12822767 0.025755381 0.020754239 0.085231856 -0.057040684
0.10181191 -0.0148188425 -0.059179783 0.045157004 0.12768984 0.062790975 0.048954792 0.043348268
-0.17375587 -0.02385517 0.028436093 0.11099572 -0.036833134 -0.1328078 0.0946775 0.09511602
-0.07698373 0.13600938 0.05316062 0.09396027 -0.018349826 0.032744773 -0.08838893 -0.051126394
0.06140459 -0.05969371 -0.14314398 0.079629935 -0.10935755 -0.11481185 0.053435817 0.15069526
-0.024983607 -0.035905782 -0.16070525 -0.11519284 0.110758275 0.028687652 0.07566698 0.09365437
0.042870745 -0.06227575 -0.044354767 -0.10162279 -0.14482498 -0.06497389 -0.026492361 -0.08362294
0.17135945 -0.059794467 -0.0021954768 -0.055335604 -0.037113126 -0.0674623 0.07766396 -0.029019907
0.061876208 0.009329122 -0.1467061 -0.105054066 -0.009159467 -0.046309277 -0.096957885 -0.011525849
-0.106791236 0.03891613 -0.0908775 -0.080317125 0.06547031 -0.0567105 0.00577406 -0.034086328
0.031511024 0.07604737 -0.027184613 0.081664 -0.06857658 -0.029200023 -0.03807613 0.08194982
0.15882656 -0.035220776 0.024337344 -0.07533115 -0.0656022 -0.07235716 -0.025522184 -0.12967637
-0.0145818805 0.116950795 0.054494023 -0.24966653 -0.2889986 0.023437262 0.07947938 -0.13400118
0.063768454 0.059900865 0.040899735 -0.005921433 -0.010076778 -0.1314491 0.04757046 0.07167235
0.05622694 0.008059435 0.13828865 0.09844641 -0.050788343 -0.060462654 -0.021807915 0.049229976
-0.06136258 -0.02621574 0.07434762 0.04872838 0.07507564 -0.026533132 -0.07739568 -0.027207026
0.08841152 -0.06326668 -0.023397848 -0.07279205 -0.13817382 0.14362848 -0.035035446 0.061320893
-0.04302692 0.027672172 -0.12211272 0.09299429 0.015307239 -0.028547406 0.017020227 0.0565778
-0.023922926 -0.038747266 -0.014202526 -0.096943215 0.0089358445 -0.028270863 0.06560091 -0.024452906
0.022880808 -0.16753408 0.05049295 -0.16058718 0.005256166 0.008522445 -0.05717793 -0.11132667
-0.16501035 -0.02424927 0.057703957 0.11738117 -0.023379467 0.04484264 -0.009289088 0.003040599
0.07812789 -0.036680892 -0.14961198 -0.089963496 -0.057949312 0.060219113 0.012773425 -0.09360803
0.14131983 -0.039568562 0.079352394 0.061593153 0.107940815 -0.07006299 -0.119181946 0.009871604
0.11351161 0.044792205 -0.03584341 0.105762884 -0.02371634 0.14520691 0.058228 0.018755108
-0.045510486 -0.002506292 0.053629555 -0.09187885 0.04012818 -0.033508882 -0.015074855 -0.05694346
-0.1723341 0.14516951 -0.07556795 -0.021601459 0.07388632 0.050228402 -0.0029087998 -0.060391217
0.10252086 -0.06444035 0.118050754 -0.041708793 0.040151235 -0.09195328 -0.13919786 -0.020984437
00000000: ba25 333c 2f2d b1bd f013 e33c ee8e 3bbd
00000010: ce06 7c3d 1e41 8e3d 0a1a fabc 748d b0bd
00000020: 1914 d63d 7f4f f73d 0870 ccbd a3a4 d23d
00000030: 1854 37bd f810 87bd d01a 6a3b f0e3 59bc
00000040: 9488 383d 4395 7dbd bcd3 21bd fd55 203e
00000050: 8eda 9fbd 145d debd c501 84bd a451 7ebd
00000060: 6e2c 373c 894a 4dbd 664e b63d 0e1f 6abd
00000070: 2fe0 47bd a3cc 1fbe c518 a5bc d284 9c3d
00000080: 50df 453d cae5 bf3d 131e 8d3d 6fe5 933d
00000090: 84e1 483d 93bd 4a3d a473 013e 0507 8f3d
000000a0: 9624 afbd bbf3 4f3d 3db6 fc3d 1d4e 033e
000000b0: f3fc d23c cb04 aa3c 0a8e ae3d 7ea3 69bd
000000c0: c382 d03d bbca 72bc 8066 72bd 8df6 383d
000000d0: 20c1 023e 8e98 803d d284 483d f48d 313d
000000e0: 0fed 31be eb6b c3bc cff2 e83c b951 e33d
000000f0: 57de 16bd c5fe 07be 47e6 c13d 30cc c23d
00000100: a5a9 9dbd 0b46 0b3e f3be 593d 3e6e c03d
00000110: 6052 96bc 621f 063d 4105 b5bd e969 51bd
00000120: 6183 7b3d 6481 74bd 5694 12be 0515 a33d
00000130: daf6 dfbd 7a22 ebbd 84df 5a3d dc4f 1a3e
00000140: 6caa ccbc f111 13bd eb8f 24be 39ea ebbd
00000150: 3cd5 e23d 5e02 eb3c 4af7 9a3d ddcd bf3d
00000160: 3c99 2f3d db14 7fbd 58ad 35bd 9c1f d0bd
00000170: 004d 14be 0811 85bd 8206 d9bc 8142 abbd
00000180: da78 2f3e 0beb 74bd fde1 0fbb 96a7 62bd
00000190: ef03 18bd ad29 8abd 480e 9f3d 28bb edbc
000001a0: e871 7d3d 2cd9 183c 203a 16be 9626 d7bd
000001b0: 9711 16bc ccae 3dbd db91 c6bd ead6 3cbc
000001c0: 5db5 dabd 8566 1f3d fc1d babd 4e7d a4bd
000001d0: 4c15 863d 4549 68bd 5334 bd3b 1b9e 0bbd
000001e0: b411 013d b9be 9b3d 44b2 debc 753f a73d
000001f0: e171 8cbd e334 efbc b7f5 1bbd 4fd5 a73d
00000200: 6ea3 223e a943 10bd 1c5f c73c 3847 9abd
00000210: 725a 86bd fe2f 94bd e613 d1bc e2c9 04be
00000220: d7e8 6ebc e683 ef3d 2035 5f3d 95a8 7fbe
00000230: a0f7 93be 80ff bf3c 16c6 a23d 9b37 09be
00000240: 0999 823d 9c5a 753d 7b86 273d 9508 c2bb
00000250: 1219 25bc 989a 06be 3ed9 423d f4c8 923d
00000260: 384e 663d b80b 043c 8a9b 0d3e 459e c93d
00000270: 7007 50bd b0a7 77bd 83a6 b2bc 5fa5 493d
00000280: 5457 7bbd 64c2 d6bc 9143 983d 6997 473d
00000290: 42c1 993d 035c d9bc a081 9ebd 45e1 debc
000002a0: 1911 b53d f691 81bd d8ac bfbc 0014 95bd
000002b0: 707d 0dbe 5813 133e 5481 0fbd 9e2b 7b3d
000002c0: ff3c 30bd c0b0 e23c 3c16 fabd ca73 be3d
000002d0: 37cb 7a3c 40dc e9bc 016e 8b3c 20be 673d
000002e0: 03fa c3bc 74b5 1ebd b6b1 68bc 2a8a c6bd
000002f0: a667 123c 4c98 e7bc c559 863d 7651 c8bc
00000300: 8870 bb3c 0e8e 2bbe b2d1 4e3d f770 24be
00000310: eb3b ac3b baa1 0b3c 6833 6abd 3dff e3bd
00000320: 79f8 28be 68a6 c6bc fc5a 6c3d 8a65 f03d
00000330: 4c86 bfbc ebac 373d 4231 18bc c944 473b
00000340: 8401 a03d b43e 16bd e233 19be c83e b8bd
00000350: 425c 6dbd 51a8 763d a147 513c 91b5 bfbd
00000360: 25b6 103e a512 22bd 8283 a23d 1a49 7c3d
00000370: 1310 dd3d 2f7d 8fbd aa15 f4bd 82bc 213c
00000380: c678 e83d 0878 373d 8ad0 12bd 369a d83d
00000390: c548 c2bc 1fb1 143e 7c80 6e3d 50a4 993c
000003a0: 3469 3abd 9a40 24bb aaaa 5b3d fa2a bcbd
000003b0: 725d 243d 9c40 09bd 86fc 76bc 8c3d 69bd
000003c0: 5a78 30be 51a7 143e 5fc3 9abd 8bf5 b0bc
000003d0: b651 973d 4cbc 4d3d 90a1 3ebb c85c 77bd
000003e0: 75f6 d13d 4df9 83bd 98c4 f13d d7d6 2abd
000003f0: 9f75 243d 0052 bcbd e289 0ebe 8ee7 abbc

fc1_combined.bias f4 [128]
0.11410083 0.061178938 0.090639114 -0.06985833 0.11172965 0.103635274 -0.07755883 0.060748354
-0.06954939 0.07209773 -0.051803313 0.10241406 -0.0352896 -0.0007886821 0.07718465 -0.10227738
-0.003861194 -0.073254876 -0.02294623 0.044488803 -0.04012066 -0.09667805 0.09418416 0.11206931
0.0076115676 -0.05931948 -0.06034483 0.06858211 0.020408772 0.10190153 -0.0854072 0.01421385
-0.09893749 -0.11628142 0.0038520608 0.087370366 -0.048121314 0.024486607 0.044309624 0.09245848
-0.109095395 0.04957139 -0.05567099 -0.03344609 0.098846495 0.121524155 -0.06647763 0.054615073
-0.05342593 0.06913973 -0.038643513 0.071786016 -0.054535978 -0.07163879 -0.042093232 -0.0093701165
-0.012581835 0.0633877 0.02838671 0.053112555 0.01591618 -0.031957094 0.10210826 -0.078411065
0.006926003 0.109191455 0.0043448377 0.10726783 0.033233717 -0.10947625 0.030450165 -0.07073227
-0.056783944 -0.008900162 0.06896086 -0.083198264 -0.06909124 0.004068612 -0.034429602 -0.06154222
0.07428961 -0.10633875 -0.03311004 -0.062116295 0.029311111 0.036691874 0.0124420365 -0.025236437
0.007765934 -0.050535023 -0.060962714 0.04812655 -0.004168566 -0.014138082 -0.099358596 -0.0657472
-0.0016386163 -0.063180976 -0.06550036 -0.09771715 0.03896159 0.0757255 0.017068334 -0.037239064
-0.007778626 0.101666406 0.072355814 0.014493726 0.07229889 0.028307687 0.058109842 0.10404476
0.080564864 -0.006348706 0.10678617 -0.0039714854 -0.09165336 -0.08114924 -0.06194818 0.074452385
-0.03943101 0.059635986 0.02609288 0.07420389 -0.026544292 0.06123896 0.02523493 0.018502545
00000000: b2ad e93d c496 7a3d 00a1 b93d e211 8fbd
00000010: 84d2 e43d bb3e d43d 2ad7 9ebd 44d3 783d
00000020: e96f 8ebd faa7 933d b62f 54bd 76be d13d
00000030: d48b 10bd 8fbf 4eba fc12 9e3d ce76 d1bd
00000040: 160c 7dbb a706 96bd bbf9 bbbc e439 363d
00000050: 9055 24bd 24ff c5bd a0e3 c03d 9884 e53d
00000060: 756a f93b fcf8 72bd 242c 77bd c774 8c3d
00000070: 4c30 a73c c0b1 d03d f8e9 aebd 35e1 683c
00000080: bd9f cabd f424 eebd db72 7c3b 3cef b23d
00000090: db1a 45bd 2398 c83c 027e 353d df5a bd3d
000000a0: 686d dfbd 5f0b 4b3d 4407 64bd c4fe 08bd
000000b0: 0870 ca3d a8e1 f83d 6c25 88bd 0eb4 5f3d
000000c0: 26d5 5abd 2199 8d3d a948 1ebd 8c04 933d
000000d0: 1e61 5fbd 5cb7 92bd f469 2cbd 1e85 19bc
000000e0: 0a24 4ebc 69d1 813d 3f8b e83c 8d8c 593d
000000f0: a662 823c 71e5 02bd 231e d13d fb95 a0bd
00000100: 86f3 e23b c59f df3d 245f 8e3b 3caf db3d
00000110: 1420 083d 1635 e0bd a072 f93c 15dc 90bd
00000120: 4896 68bd fcd1 11bc 5a3b 8d3d da63 aabd
00000130: b57f 8dbd fe51 853b 0e06 0dbd b213 7cbd
00000140: 2725 983d 21c8 d9bd 659e 07bd a86d 7ebd
00000150: db1d f03c 384a 163d afd9 4b3c a5bc cebc
00000160: 6079 fe3b d0fd 4ebd 0ab4 79bd 5820 453d
00000170: 7798 88bb 6aa3 67bc 857c cbbd 78a6 86bd
00000180: d7c6 d6ba 0765 81bd 0e25 86bd ee1f c8bd
00000190: 3096 1f3d f915 9b3d e4d2 8b3c fd87 18bd
000001a0: d8e3 febb 7a36 d03d 492f 943d 1877 6d3c
000001b0: 7111 943d 86e5 e73c 9604 6e3d 6b15 d53d
000001c0: 31ff a43d ce08 d0bb b5b2 da3d 3c23 82bb
000001d0: c2b4 bbbd 9331 a6bd 60bd 7dbd 7e7a 983d
000001e0: 6982 21bd dd44 743d bcc0 d53c 36f8 973d
000001f0: 6a73 d9bc b4d5 7a3d 7cb9 ce3c a692 973c

bn1_combined.weight f4 [128]
0.9311261 0.9729067 0.9312147 0.9077842 0.9852535 0.97238606 0.9111823 0.96696603
0.9539076 0.94912183 0.958068 0.9989557 0.92482305 0.93067 0.9771326 0.9628291
0.9572674 0.9553896 0.90401495 0.95897055 0.97087467 0.97553325 0.95935214 0.989318
0.9582989 0.9716076 0.98619676 0.9224163 0.92559516 0.9619856 0.84313595 0.9593398
0.96976423 0.95134366 0.9708148 0.96383405 0.9522457 0.9897792 0.95911825 0.9413065
0.9837614 1.0520809 0.9810982 1.0146915 0.9285666 0.94699776 0.9655505 0.8857337
0.9535071 0.9521636 0.96195346 0.96838146 1.1516656 0.8989942 0.9563128 0.9713286
0.94545496 0.9444374 0.9451021 0.94422925 0.9581814 0.98591745 0.95710206 0.9568159
0.8841034 0.9824507 0.9756639 0.958402 0.9701092 0.9334166 1.0680468 0.96170723
0.9573126 0.9140196 0.96489084 0.97787887 0.9866383 0.948843 0.9708072 0.95148706
0.93213236 0.99187964 1.0015285 0.95232713 0.93417645 0.952773 0.9625466 0.9196385
0.99371105 0.97032225 0.9475801 0.97334164 0.9627495 0.95351243 0.9419725 0.977389
0.9433769 0.9473183 0.94690514 0.9614049 0.99574155 0.9850229 0.94626904 0.9705442
0.934463 0.95910144 0.8759508 0.96569395 0.9599482 0.9499669 0.9254396 0.9660038
0.9471097 0.96982896 0.9816696 0.9545311 0.96130973 0.9632813 0.9615452 0.93901503
0.97106457 0.9227158 0.9625981 1.0440029 0.9540943 0.9245205 0.97583926 0.95328134
00000000: 485e 6e3f 6a10 793f 1664 6e3f 8c64 683f
00000010: 9339 7c3f 4bee 783f 3e43 693f 168b 773f
00000020: 4a33 743f a6f9 723f f243 753f 90bb 7f3f
00000030: 34c1 6c3f 6440 6e3f 5d25 7a3f f87b 763f
00000040: 7a0f 753f 6a94 743f 866d 673f 187f 753f
00000050: 3e8b 783f 8cbc 793f 1a98 753f f243 7d3f
00000060: 1453 753f 47bb 783f 6477 7c3f 7a23 6c3f
00000070: cef3 6c3f b044 763f c2d7 573f 4b97 753f
00000080: 7842 783f 428b 733f 5287 783f d4bd 763f
00000090: 60c6 733f 2b62 7d3f c688 753f 76f9 703f
000000a0: cad7 7b3f 96aa 863f 4029 7b3f 69e1 813f
000000b0: 8ab6 6d3f 726e 723f 512e 773f 72bf 623f
000000c0: 0b19 743f fec0 733f 9542 763f d9e7 773f
000000d0: c769 933f 7c24 663f ead0 743f fea8 783f
000000e0: 5609 723f a6c6 713f 36f2 713f 02b9 713f
000000f0: 604b 753f 1665 7c3f a404 753f e3f1 743f
00000100: 9a54 623f e481 7b3f 1cc5 793f d559 753f
00000110: 1459 783f 64f4 6e3f c2b5 883f 7232 763f
00000120: 7012 753f 30fd 693f 1603 773f 4556 7a3f
00000130: 5494 7c3f 60e7 723f d286 783f a894 733f
00000140: 3aa0 6e3f d3eb 7d3f 1632 803f b6cb 733f
00000150: 3026 6f3f eee8 733f 7469 763f 6e6d 6b3f
00000160: d963 7e3f 0a67 783f 9c94 723f eb2c 793f
00000170: c076 763f 6419 743f 1c25 713f 2a36 7a3f
00000180: 2681 713f 7483 723f 6068 723f a21e 763f
00000190: ebe8 7e3f 762a 7c3f b03e 723f 9675 783f
000001a0: f838 6f3f ac87 753f 503e 603f b837 773f
000001b0: 2abf 753f 0831 733f 9ce9 6c3f 064c 773f
000001c0: c875 723f b646 783f b34e 7b3f 265c 743f
000001d0: 6518 763f 9a99 763f d427 763f 4a63 703f
000001e0: b097 783f 1a37 6c3f d46c 763f e3a1 853f
000001f0: 863f 743f 60ad 6c3f 9ad0 793f 3f0a 743f
