Model Results/NCF Hybrid Embedding/Cluster_2/best_random_model.pt (torch, 751035 bytes, 23 tensors)

customer_embeddings_gmf.weight f4 [1011, 8]
000000 11 30 12 3e 61 d6 98 3f 9b 99 89 3f 97 86 9a bf
       0.14276148 1.1940423 1.0750002 -1.2072324
000010 f3 3a fa bf 60 ff e0 bf c6 36 00 bf 6f 37 bd be
       -1.954924 -1.7577934 -0.5008358 -0.36956355
000020 6b c4 a6 3f 73 01 42 40 b2 72 da 3f 0e 07 23 c0
       1.3028692 3.0313385 1.7066252 -2.5473056
000030 b0 d8 22 3f b5 e1 1f 3e aa d2 a6 bf 2e 04 61 3f
       0.6361189 0.15613444 -1.303304 0.87897
000040 2c ec 51 3f 9c f4 9a bf e8 41 1e bf cc c1 c3 3f
       0.82000995 -1.2105899 -0.61819315 1.5293517
000050 60 54 7b 3d 38 e0 cc be 12 bc 36 3f c6 2d 15 bf
       0.061359763 -0.40014815 0.7138072 -0.5827297
000060 b7 4f 4d bf de 63 e5 be 80 d5 15 3e 87 ba 19 3e
       -0.8019976 -0.44802755 0.14632225 0.15012561
000070 ad e1 21 3f 41 a6 10 bf 2c c4 ee bf 62 63 8e bd
       0.6323498 -0.56503683 -1.8653617 -0.069525495
000080 00 9f 3c 3f 3a 20 92 3e 84 18 0f bf 15 2a bb 3f
       0.73680115 0.28540212 -0.5589678 1.4622217
000090 ee 7f 31 3f 05 df 09 40 19 5f 1f be 74 d5 31 3e
       0.6933583 2.154237 -0.1556362 0.17366582
0000a0 d7 fd ba bf 67 a2 1d be ab f1 4c 3f 6d 18 80 3f
       -1.4608716 -0.15393983 0.80056256 1.0007454
0000b0 0c dd 01 40 da a0 4b bd b7 46 a3 bf 97 c3 de 3e
       2.0291166 -0.049713947 -1.2755955 0.43508598
0000c0 48 4a 7c bf 3e 10 93 bf 55 20 32 bd 02 78 2f bf
       -0.98550844 -1.1489332 -0.043487865 -0.6854249
0000d0 2c df fe 3d b2 5b 6e bf 64 00 0e be 1e 65 29 be
       0.124449104 -0.93108666 -0.13867337 -0.1654248
0000e0 2c db 4a bf 4f ae b5 bd 6e 29 2f 3f ac 94 02 40
       -0.7924068 -0.08871137 0.6842259 2.0403242
0000f0 3f c3 ec be 1a d7 8e bf 64 6f 02 bf da 6c be be
       -0.4624271 -1.1159394 -0.5095122 -0.37192422
000100 88 f8 1c 40 ec 89 67 bf 62 83 94 be 78 c1 46 bf
       2.4526691 -0.9044483 -0.29006487 -0.7763896
000110 c1 3a 12 bf fe 10 83 bf bb bf 56 bf 11 d8 8a bf
       -0.571209 -1.0239561 -0.8388631 -1.0847188
000120 1c 56 11 bd 28 6a 4f 3f 28 76 81 3f 2a c1 97 3e
       -0.03548251 0.81021357 1.0114183 0.2963956
000130 b5 7b 2b 3f 04 e6 2b bf ec 21 99 be 3c 2a e0 3b
       0.66985637 -0.6714785 -0.29908693 0.006840972
000140 4f d6 22 3f ea ce f7 bf d7 9f 41 bf bc 5b 8b be
       0.6360826 -1.936002 -0.7563452 -0.27218425
000150 53 45 98 3f 29 fb 90 bd 10 b9 76 3d 50 63 86 3f
       1.1896156 -0.07079155 0.060235083 1.0499058
000160 40 1b 3d bf ce 6e 93 3d 0d d8 c9 3e d9 49 90 3f
       -0.73869705 0.07198869 0.39422646 1.1272537
000170 a2 31 60 be 55 f7 81 3e 6f 04 66 3f 82 5c 9e bf
       -0.21893933 0.25384012 0.89850515 -1.2371981
000180 f8 9a aa be c5 28 ad 3e da 6f ff bd 5e c2 2f 3e
       -0.33321357 0.33820167 -0.12472506 0.17163989
000190 c7 9b d1 bf b0 97 77 3d b6 b6 37 bf 45 f6 11 bf
       -1.6375664 0.060447395 -0.7176317 -0.570164
0001a0 27 00 91 be e8 54 49 3f f5 b9 b6 3e c5 09 00 3f
       -0.2832043 0.7864518 0.3568875 0.5001491
0001b0 79 01 9a bf 07 2f 33 bf fa b1 41 3f d9 9d 1d 3e
       -1.20317 -0.69993633 0.75662196 0.15392245
0001c0 45 db 33 bf 55 24 51 bf 6b 1e 2e be 96 74 ec 3f
       -0.70256454 -0.81696063 -0.17003791 1.8473079
0001d0 cb 4b d6 be 52 aa 72 3c 68 44 bd 3e fd 1e cd 3f
       -0.418547 0.014811115 0.36966252 1.6025082
0001e0 9b 45 21 3f 70 dd cd bf 22 41 58 3c e8 6a 9e 3f
       0.62996835 -1.6083202 0.013199123 1.2376375
0001f0 d7 d8 35 bf f5 c7 00 c0 a0 a7 92 3e 72 d0 00 40
       -0.71033996 -2.0122044 0.28643513 2.0127225
000200 f5 e7 4c bf 11 09 4c 3f 40 15 ab 3f 0b 2b 27 be
       -0.8004144 0.79701334 1.336586 -0.16325013
000210 f4 28 bd 3c b9 78 cb be 5a 1d c2 bf d4 af 57 3f
       0.023090817 -0.39740542 -1.5165207 0.8425267
000220 e5 76 a3 3c 14 c1 65 be 6b f5 ad 3e 01 cd f4 be
       0.019954154 -0.22436935 0.33976302 -0.47812656
000230 da ad 12 c0 b5 82 02 3f 78 5c 61 3f bb f2 10 40
       -2.291861 0.50980693 0.8803172 2.264815
000240 92 b7 13 3e 87 99 d4 3f 2b 4e 15 40 10 7e 7b 3f
       0.14425495 1.6609353 2.332896 0.9823923
000250 76 ad 37 3f 17 6b ce 3e 20 d9 08 be a0 6e 7f 3e
       0.71749055 0.40316078 -0.13364077 0.24944544
000260 02 24 4c 3d 15 6d b3 3e b2 92 5a 3f b6 f2 eb 3e
       0.049839027 0.3504416 0.8538009 0.4608361
000270 07 f7 01 40 d3 d5 2b bf a2 e4 6b be 28 98 bc be
       2.0307024 -0.67123145 -0.23036435 -0.36834836
000280 c0 e9 b5 bf 7a ad f8 be 37 f0 27 3f 5f 6f 4d 3f
       -1.421196 -0.48569852 0.65600914 0.80248064
000290 ce e3 dc bf 7f ef d8 3f 3a 91 b0 3f 78 40 8e bf
       -1.725702 1.6948088 1.379432 -1.1113424
0002a0 58 dd 04 c0 b0 08 85 bd 85 e9 d8 3f 7d 3a 84 be
       -2.0760098 -0.06495798 1.6946265 -0.25825873
0002b0 5e dd b5 bf ca da 73 bf ef 75 36 3f 61 f8 12 bf
       -1.4208181 -0.9525572 0.712737 -0.57410246
0002c0 40 93 3c 3f 37 f3 a9 bf 17 d7 bb bd f4 70 1b bf
       0.73662186 -1.3277348 -0.091718845 -0.6071923
0002d0 8d 46 3a bf 89 c9 32 3f 21 15 bb be f0 93 2a bf
       -0.727639 0.6983877 -0.36539558 -0.66631985
0002e0 7c 22 b9 be e1 11 3c 3e 42 e0 2b bf c5 06 0a 3f
       -0.36159122 0.18366195 -0.67139065 0.5391658
0002f0 28 c0 6f 3e 44 c0 71 bf 5d 4b df 3f 0d fb b3 be
       0.23413146 -0.94434 1.7444874 -0.35152474
000300 65 af a8 3d 38 26 3a bf e4 dd 2e 3e 01 52 4d 3f
       0.08236579 -0.7271457 0.17076832 0.80203253
000310 f5 d3 c6 bf 64 31 31 3f 53 41 d1 bf 02 9b f1 be
       -1.5533434 0.6921599 -1.634806 -0.47188574
000320 1f 64 ba 3f 97 c8 7c 3f dc 94 c1 3f 17 71 10 3f
       1.4561805 0.98743576 1.5123553 0.5642256
000330 8c 64 48 bf 9f 0d 84 3f d6 87 f9 bd 24 24 cf 3e
       -0.7827842 1.0316657 -0.12184112 0.4045726
000340 fe f9 06 be 4a b9 64 3f b7 5d 95 bd 29 e3 0a c0
       -0.13181302 0.8934523 -0.07293265 -2.1701148
000350 c2 45 b8 bf 0c cf 29 c0 c1 ac a7 bf 52 ee cc bf
       -1.4396288 -2.6532621 -1.3099595 -1.601023
000360 96 ce 96 be fc ec ec 3e 12 7a 65 be 01 d6 70 3e
       -0.29454488 0.46274555 -0.22409847 0.23519136
000370 33 76 90 be 2c 60 7f 3f 67 c0 62 3f 6c 72 d5 be
       -0.2821518 0.9975612 0.8857483 -0.4168886
000380 84 68 be 3e 91 6d b2 3e f6 8d 51 3e ac 8d a8 be
       0.37189114 0.34849218 0.2046431 -0.32920587
000390 0c 46 c3 be bd e4 c0 3f 49 df d7 3e 60 99 99 3b
       -0.3813938 1.5069805 0.4216254 0.004687473
0003a0 a1 24 4b 3f 78 20 90 bf de 0c eb be 10 2f be 3f
       0.79352766 -1.1259909 -0.45908254 1.4858112
0003b0 02 be a3 3f 32 64 f7 3f f5 86 8a 3f 53 2b 03 3f
       1.2792361 1.9327452 1.0822436 0.5123798
0003c0 52 59 37 be 36 64 66 be 78 4e ce 3f e5 0d 82 bf
       -0.17905167 -0.22499165 1.6117697 -1.016049
0003d0 5f 12 df 3e 0c 9b 73 3f a8 31 a1 3e e6 a0 b5 bd
       0.43568704 0.9515846 0.31483197 -0.088685796
0003e0 ef 56 25 3f 7c 98 12 bf 6e 29 77 3f ae 91 fd be
       0.64585775 -0.5726392 0.9654759 -0.49525207
0003f0 8e c7 6d bf 49 80 c5 3f 3c 52 f3 3f 6b 49 2e bd
       -0.9288262 1.5429775 1.9009471 -0.042550486

product_embeddings_gmf.weight f4 [9256, 8]
000000 88 e9 5d 3f 08 73 63 be fe e5 2b be a2 99 df 3e
       0.86684465 -0.2221185 -0.16786954 0.436719
000010 3e 3b e0 bf 6a 06 f2 3f 3b 6a 17 bf a4 58 22 be
       -1.7518079 1.8908207 -0.5914647 -0.15854126
000020 4a b1 7b bf 93 f2 8c bf e4 68 67 3e 3e ce ce 3f
       -0.98317397 -1.1011528 0.22598606 1.615669
000030 07 ef c2 bf 46 ca 35 bf 43 54 a9 bd 1e 76 7e bf
       -1.5229195 -0.7101177 -0.08268025 -0.9939898
000040 e6 d9 95 be c0 4e 05 bf 78 73 e5 3e a4 b9 ce be
       -0.29267806 -0.5207329 0.44814658 -0.40376008
000050 bd 19 f0 3e a5 60 e7 3f ae ee 55 3f 0e 21 d5 3d
       0.46894637 1.8076369 0.8356732 0.10406695
000060 92 37 c4 be bc f0 8a 3f fb f6 1e bf b5 2c 53 3d
       -0.38323647 1.0854716 -0.6209561 0.051556308
000070 b3 87 21 3f ab f3 8c 3f e5 1d fe bf d9 50 9f 3e
       0.63097686 1.1011862 -1.9852873 0.3111637
000080 f4 29 f6 3f 19 3a 55 bf 1c e8 9b bf 91 5b ca 3e
       1.9231553 -0.83291775 -1.2180209 0.39522985
000090 da 89 86 3f 46 7c e0 bc 71 9e 2c bf fd 66 1f 3f
       1.0510819 -0.027403008 -0.6742926 0.6226652
0000a0 83 22 46 bf fa 7f 93 3f c2 0b 15 40 f4 41 12 3e
       -0.7739641 1.152343 2.3288426 0.14282972
0000b0 cb ec 86 3f 7d b0 88 bf bc 73 7b be ce ac 83 3f
       1.0541013 -1.067886 -0.24555868 1.0287111
0000c0 95 50 3b be 6b 3e 8e bf ba 96 6b bf 2c f7 9f bf
       -0.18292458 -1.1112798 -0.92026865 -1.2497306
0000d0 af c6 bd bf 75 51 8d bd 3f 5e 2a 40 4f a8 b0 be
       -1.4826258 -0.06900302 2.6620023 -0.3450341
0000e0 54 33 9b 3d 21 7b 14 bf 5f d7 81 bf b5 f8 ce bf
       0.075781494 -0.5800038 -1.0143851 -1.6169649
0000f0 e8 8c a3 be 6b 3f 85 bf 1a f9 f3 be d9 ba de 3e
       -0.3194344 -1.0409979 -0.47650987 0.43501928
000100 0d 02 c4 3e 51 56 91 3e be 62 3d bf ca 43 7c 3e
       0.38282815 0.28386167 -0.73978794 0.24635234
000110 44 9c ae be dc fd 14 c0 e2 70 7e bf 29 d0 b6 3c
       -0.34103596 -2.3279943 -0.99390996 0.022316055
000120 b5 b5 28 3e 98 6d 95 3e ec e2 96 bf 44 77 77 3f
       0.16475566 0.29185176 -1.1788001 0.9666636
000130 cc 70 e4 be 31 15 95 bd 85 f8 bb bf 90 d5 e4 bb
       -0.44617307 -0.072794326 -1.4685217 -0.0069834664
000140 14 17 df 3e 7c d0 34 3f c9 a7 9f 3f b1 aa a2 be
       0.43572295 0.7063062 1.2473079 -0.31770852
000150 7a 0f f4 bf cd 45 2a 3f 64 c8 1c 3f 92 1b 84 bf
       -1.9067223 0.6651276 0.6124327 -1.0320914
000160 bd 9e db 3e 90 06 2c 3f 57 33 db be 90 5c dc be
       0.42894545 0.67197514 -0.42812607 -0.4303937
000170 a2 3e 9c 3e 28 a9 cf bf 75 38 3f 3e 3d 55 a9 3f
       0.30516535 -1.6223497 0.1867388 1.3229138
000180 f4 3f ac 3f b9 53 a4 3e 75 cc 49 3f b0 89 42 3f
       1.3457017 0.32095125 0.788276 0.75991344
000190 94 3b 4c 3f b0 42 2c bf e4 74 c0 3f a3 d0 d4 be
       0.7977841 -0.6728926 1.5035672 -0.41565427
0001a0 3b 6f 3a 3f 70 51 d7 3e fc 71 c4 bf d7 8a d6 bf
       0.72825974 0.4205432 -1.5347285 -1.676112
0001b0 d0 b8 ce bf 80 e3 3d bf 97 02 01 3f f5 ad d6 3f
       -1.615015 -0.7417526 0.50394577 1.6771837
0001c0 57 cd 53 40 a8 0a bc 3e 4c e7 06 3f 1c 83 60 bf
       3.309408 0.3672688 0.5269668 -0.8770006
0001d0 aa 6b 63 3f 58 93 95 3f 94 03 9c 3d 37 43 e6 be
       0.8883616 1.1685591 0.0761787 -0.44973156
0001e0 20 b3 cb 3f aa f6 be bd 7b 09 95 3e c4 e4 b3 bf
       1.591404 -0.09324391 0.29108796 -1.4054189
0001f0 9d 67 a5 be 29 53 cd 3f 6d c9 ca be 57 93 ef be
       -0.32305613 1.6041003 -0.396068 -0.467921
000200 cd 9f 19 3d 34 cc 36 3f 44 9a 1b bf 03 1d 38 3f
       0.037505914 0.7140534 -0.60782266 0.7191927
000210 8b 6c a8 3f 9c 9e 98 bf 91 df ad be 19 be 00 3f
       1.3158125 -1.1923404 -0.3395963 0.50290066
000220 3e 43 c9 bd a0 8a d6 3e 1a de 61 bd 91 54 bf bf
       -0.098272786 0.41902637 -0.055143453 -1.4947683
000230 98 5d 38 bf 24 59 86 bf d2 52 0c bf 98 4c 78 be
       -0.7201781 -1.0495954 -0.54813874 -0.24247968
000240 28 b5 22 bf c5 b8 13 3f 31 c8 63 bf 01 ec a8 be
       -0.6355767 0.5770381 -0.8897734 -0.32992557
000250 0f 3b 18 c0 91 e8 9d bf 70 c8 a4 bf ef 72 b7 3f
       -2.3786047 -1.2336599 -1.2873669 1.433195
000260 51 65 e7 3f 4d d7 36 3d 46 0a 36 bf b9 62 9c 3e
       1.8077794 0.04463892 -0.71109426 0.3054407
000270 6f 27 4e be 03 d0 c9 3f 93 b1 c2 3f 46 78 23 3f
       -0.2013223 1.5766605 1.5210441 0.638554
000280 5b e0 e7 bd 9e 27 1a bf 5d e1 57 be 2a 3b 42 3f
       -0.11322089 -0.602167 -0.21082063 0.7587153
000290 dc 8f 65 3f e6 85 52 3f 9b 8b 49 bf c8 01 6a bf
       0.89672637 0.8223556 -0.78728646 -0.9140897
0002a0 63 00 62 bf 94 71 1a bf 32 e5 77 3f 5a 39 76 bf
       -0.8828184 -0.60329556 0.968341 -0.9618126
0002b0 a3 d9 e2 be 42 7a c5 be 13 64 57 bf f7 bb 60 bf
       -0.4430667 -0.38569838 -0.84137076 -0.8778681
0002c0 44 f5 bc 3d e9 3d 77 3f 79 98 f7 bd 01 6a e8 3e
       0.09226468 0.9657884 -0.12089629 0.45393375
0002d0 71 e5 bf 3e 86 61 1f be 27 31 c3 3d 2e 7a c9 be
       0.37479737 -0.15564546 0.095308594 -0.39351028
0002e0 3d a6 35 3f 75 2c 11 40 14 66 98 be 21 10 9a be
       0.70956784 2.2683384 -0.2976538 -0.3009043
0002f0 1d 8f 45 be d4 c6 20 bf 02 f7 a5 bf 43 48 97 bd
       -0.19292875 -0.6280339 -1.2966006 -0.0738683
000300 82 6f 4f 3f 17 be 13 3f aa db 00 be 45 f6 13 c0
       0.8102952 0.5771193 -0.12583795 -2.311906
000310 90 d8 85 3f bf bf a7 bd f6 11 93 3f ae 0b 89 3e
       1.0456715 -0.081908695 1.1489856 0.26766723
000320 ae f5 d9 bf 4d 0a 6f 3f 52 6b 92 bf ed c9 55 3f
       -1.70281 0.9337509 -1.1439002 0.8351124
000330 90 f3 0a 40 12 06 68 3f c2 88 aa 3c 8d f3 66 3f
       2.1711159 0.9063426 0.020817164 0.9021538
000340 af 7d ef be f2 e0 e1 bf 74 cb a0 3f eb 4b 82 3f
       -0.46775576 -1.7646773 1.2562089 1.0179418
000350 ce b4 36 3d 14 fa 8d bf 92 b9 e9 3f a4 03 92 3f
       0.044606023 -1.1091943 1.8259757 1.1407361
000360 25 23 b0 bf 29 ac 01 c0 1e 6c 2f 3e d8 76 20 bf
       -1.3760725 -2.0261328 0.17131087 -0.6268134
000370 45 47 64 3f c4 14 39 bf 9a f2 6e 3f 3f 53 fa 3d
       0.8917125 -0.7229731 0.9333893 0.12222909
000380 8a 32 d5 3f 6e 2d 39 3f eb 5f 73 3f 86 4f 19 3f
       1.6656048 0.72334945 0.95068234 0.5988697
000390 7f 36 cc be 8a 9c 0d bf 47 0a b3 3f c3 23 ed 3e
       -0.39885327 -0.55316985 1.3987511 0.46316347
0003a0 0f 73 12 3f 73 56 d9 bf 99 2c 5d 3f 96 b9 6c bf
       0.57206815 -1.6979507 0.86396176 -0.9247068
0003b0 69 5f c5 3f 57 83 da 3e 21 d3 11 3f 09 9f aa 3e
       1.5419742 0.4267833 0.5696278 0.3332446
0003c0 28 f7 1e bf 58 de 15 bf 41 9e 44 3e 34 dc 41 bf
       -0.6209588 -0.58542395 0.19200994 -0.7572663
0003d0 05 ae 05 3e 8a 2f 8c be 76 63 51 bf 61 b4 bc 3f
       0.13054664 -0.2738002 -0.8179239 1.4742547
0003e0 3c d0 0e 3f fb 2c e3 3e 4d 78 af bf ca 0f 04 3e
       0.5578649 0.44370255 -1.3708588 0.12896648
0003f0 a2 58 05 c0 b5 90 08 be 11 6c 29 3d 90 00 bb 3e
       -2.0835347 -0.13336451 0.041362826 0.36523867

customer_embeddings_mlp.weight f4 [1011, 8]
000000 c4 46 b3 be 76 4b 95 3d fc ec a9 be 43 90 37 3f
       -0.35014927 0.07289784 -0.33188617 0.717045
000010 7f e9 8e be 4e 6d 51 3f e8 cb 80 3e 88 2a d4 bf
       -0.27912518 0.8180741 0.25155568 -1.657548
000020 a0 42 ae 3e a0 dd 67 3f 39 04 56 3f 0e 25 ae 3f
       0.34035206 0.9057255 0.83600193 1.3605058
000030 f3 8a 59 be ac a9 85 bf f7 7b cd 3f 6d 82 c2 bf
       -0.21244411 -1.0442405 1.6053456 -1.5196053
000040 94 09 21 c0 7e 9b 1a 3f 67 89 c1 3f 0b df 90 be
       -2.5162096 0.6039351 1.5120057 -0.28295168
000050 18 d8 0b 3f ca dd 7e bf 26 e0 dc be 54 8b 31 3f
       0.5462661 -0.99557173 -0.43139762 0.6935322
000060 74 f1 a3 3f 4a b4 44 3f c9 d6 4d 3d 9a 54 dc 3e
       1.2808061 0.768376 0.050253663 0.43033296
000070 f0 fe f4 bd da f0 21 3f 5f 2b 7b bf 27 3b 9b bf
       -0.11962688 0.63258135 -0.98113054 -1.2127427
000080 50 89 ee 3c 00 4e 23 bf f3 cd 11 3e 6a cb b5 bf
       0.02911821 -0.63790894 0.1423872 -1.4202702
000090 5f 45 97 3f 20 58 72 3f 28 fc 6d be 3d 1f 9b 3e
       1.1818045 0.9466572 -0.23240721 0.3029727
0000a0 7d 4c 17 3f a2 54 44 bf ad 23 58 3f b6 88 fa 3e
       0.59101087 -0.7669164 0.84429437 0.48932427
0000b0 1d 91 45 bf 59 56 17 40 bb 6e 65 3f ce 20 39 be
       -0.7717455 2.3646452 0.89622086 -0.1807892
0000c0 ac 27 cd bf 03 5a 94 be 2e 32 fb bd f8 df 00 40
       -1.6027732 -0.28974923 -0.122654304 2.01367
0000d0 37 a0 bb 3e c1 a1 11 c0 75 67 00 3e c2 83 b8 3f
       0.36645672 -2.2754977 0.12539466 1.4415209
0000e0 0a 74 e3 bf 17 ab 9a bf 3c 9e ad 3f 4b 58 48 3e
       -1.7769787 -1.2083462 1.3563914 0.19564931
0000f0 67 ae 4f 3f 8f 0b 5d bf 96 91 e5 3f 59 a0 43 bf
       0.8112549 -0.8634576 1.7935054 -0.76416546
000100 a4 96 03 3f 35 dd ef be 40 f7 87 3e f0 0e 86 3d
       0.51401734 -0.46848455 0.26555824 0.06545818
000110 13 93 f6 be ad 91 50 bf e7 c0 45 3f 21 26 43 3f
       -0.48159084 -0.81472284 0.7724747 0.76230055
000120 05 fd b9 bd 56 fe 31 be 88 0d b0 bf 8c 36 9d bf
       -0.09081463 -0.17382178 -1.375413 -1.2282271
000130 83 ff f2 bf a7 18 6f 3f 4d c5 e6 3f 17 1f b8 bf
       -1.8984226 0.9339699 1.8028961 -1.4384488
000140 77 fa d4 3f 02 cb 94 3e 54 37 fe bd 50 92 27 bf
       1.6638936 0.29061133 -0.12412897 -0.6545763
000150 d6 55 c3 3e 64 a2 83 bf 57 4a ee 3e df 1c 0d 3f
       0.38151425 -1.0283933 0.46541092 0.5512218
000160 a0 ac 08 bf 7e cb 10 bf 2e 13 d5 3f e6 01 2b 3f
       -0.53388405 -0.56560504 1.6646478 0.6679977
000170 e1 94 58 be ce 4a 44 bf a3 85 05 bf 95 4a 0c 3f
       -0.21150543 -0.7667664 -0.5215704 0.54801303
000180 d0 22 08 3f 19 6a 2d 3f 79 2f 28 bf 0b 31 06 bf
       0.5317812 0.6774002 -0.6569744 -0.52418584
000190 44 10 7a be 04 77 c2 bd d7 79 00 bf 8a 72 41 bf
       -0.24420267 -0.09495357 -0.5018591 -0.755654
0001a0 88 1f 34 be 3f 66 ec be e5 3d 90 3e 4d fd 02 3f
       -0.17590153 -0.46171758 0.28172222 0.51167756
0001b0 9b ce 8b bf ca d0 42 bf b8 98 cd 3e 1a b6 0d 3e
       -1.0922426 -0.76099837 0.40155578 0.13838997
0001c0 30 05 75 3e ae 1d 3b 3f 67 5c cd 3e e5 92 8b bf
       0.2392776 0.7309216 0.4010956 -1.0904204
0001d0 74 5a f5 3d cf 86 7f 3f 98 58 83 3f c4 28 ba 3f
       0.11980143 0.99815077 1.0261412 1.4543691
0001e0 05 e6 d6 3e 6e d8 86 3f ce 05 2d 3f 01 4c a6 bd
       0.41972366 1.0534799 0.6758698 -0.08119965
0001f0 cb 1c 41 be b2 65 54 3f 48 08 42 bf f6 fb 39 bf
       -0.1885864 0.82967675 -0.75793886 -0.72650087
000200 2d 01 95 3f 2d a4 0e 3f 79 30 06 3f a3 8d ac 3f
       1.1640984 0.5571926 0.52417713 1.3480724
000210 54 fb c9 3d db e6 61 3f 73 e2 86 bf 6f d2 e4 bf
       0.0986239 0.8824288 -1.0537857 -1.7876719
000220 b0 d4 81 bd e0 df dd 3f 6d f3 84 3f 35 ad 04 bf
       -0.06339395 1.7333946 1.0386788 -0.5182679
000230 a5 b6 ab 3f 45 d3 6d bc 2a a8 79 bc 78 d0 27 3f
       1.3415114 -0.014515703 -0.015237847 0.65552473
000240 ef 1a 76 3f 22 f7 54 3e 86 30 a6 3f a4 77 21 3d
       0.9613485 0.20797399 1.2983558 0.03942074
000250 64 70 b2 3e 2c 06 97 bf 1c 2f 9d bf 97 51 8b 3f
       0.34851372 -1.1798759 -1.2280002 1.0884274
000260 c9 38 b0 bf 2b 2d 21 bf 01 2c b3 3f 3b 92 9e bf
       -1.376733 -0.62959546 1.3997804 -1.2388376
000270 19 ed c0 3e 48 16 f1 bf 27 d9 cc 3f 67 c1 44 be
       0.3768089 -1.8834925 1.600377 -0.19214402
000280 9c e8 a5 3f a3 25 dc be 2a 21 3c bf 99 65 a7 3f
       1.2961612 -0.42997465 -0.73488104 1.307788
000290 b2 39 13 3f 54 4d df 3f ff 4e 31 bf 13 7e 3c be
       0.5750991 1.7445474 -0.69261163 -0.18407468
0002a0 29 8c 93 3e b3 78 08 bf 59 45 43 bf 39 97 87 bf
       0.2881787 -0.5330917 -0.7627769 -1.0593024
0002b0 76 62 03 3e 37 b1 fd 3e 51 90 b7 3e cd 1c aa bf
       0.12830529 0.49549267 0.35852292 -1.3290039
0002c0 e3 a9 5b 3f 02 4e f0 bc 1b 8b 4c 3f 54 f5 6c 3f
       0.858061 -0.029334072 0.7989976 0.9256184
0002d0 3d aa 2c 3f 5e dc 4d 3f cc 7c e7 3e a9 3e 10 40
       0.67447263 0.8041438 0.452124 2.2538245
0002e0 89 62 bc 3f 58 50 65 3f ad a6 34 3f 92 48 65 bf
       1.471757 0.8957572 0.7056683 -0.8956386
0002f0 77 56 c5 3f c4 2a ea bf cb 6b 41 bf 41 18 7d bf
       1.5417012 -1.8294301 -0.75555104 -0.98865134
000300 31 fe 75 3f 51 52 c9 bf f9 b1 bc 3c 79 bb 6a be
       0.9609099 -1.5728246 0.023034083 -0.22923078
000310 a2 2d 80 be f1 48 fb 3f a1 68 ab be cf c8 74 3e
       -0.25034815 1.9631635 -0.33478263 0.23904727
000320 77 c1 98 3f 0a 4b f5 be 27 e3 e7 3f 56 e9 1e 3f
       1.1934041 -0.47908813 1.8116196 0.6207479
000330 8f 5a b6 be 59 bb c1 3e 92 35 7b 3f 17 6a 93 3d
       -0.35615966 0.37838247 0.98128617 0.071979694
000340 ac 19 8e bf ff 8a 5f 3f b2 23 59 be ec 17 99 3f
       -1.1101584 0.87321466 -0.21205023 1.1960425
000350 1e f4 99 bd 17 2f 91 3e e2 bc c7 bc 1d 99 73 bf
       -0.07517265 0.2835624 -0.024382059 -0.9515551
000360 84 ab 24 bf 8f 12 c9 be 95 57 50 bf de 1b c3 3e
       -0.6432421 -0.39271972 -0.8138364 0.38107198
000370 46 df 24 bd 38 27 11 3f db 02 65 3f 58 0c 9f 3d
       -0.040251993 0.5670047 0.8945748 0.07766026
000380 1c d1 19 bf a5 8f 78 bd 37 02 c6 bf 78 eb 9f bf
       -0.600847 -0.060683865 -1.5469426 -1.2493734
000390 a6 62 ad bf 7e 39 59 bf c6 ff 01 3e c4 79 03 3f
       -1.354573 -0.8485335 0.12695226 0.51357675
0003a0 e6 fb d2 3e e6 81 d3 3e 8a 54 55 3f ee 6b ce bf
       0.41207808 0.41310042 0.8333212 -1.6126688
0003b0 0e 58 3e 3f 92 72 1d 3f 09 66 cd 3d d5 40 59 bf
       0.7435311 0.61502945 0.10029227 -0.8486455
0003c0 fc dc ef be 93 0b f1 bf 58 47 03 bf da c1 79 3e
       -0.46848285 -1.8831657 -0.51280737 0.24390355
0003d0 12 e3 0e c0 ba ca 8b be 69 77 94 be 3e 29 9f be
       -2.2326093 -0.27303106 -0.28997353 -0.31086153
0003e0 ec 3c 94 3e e5 3e aa 3f 7a c1 b4 3e e2 8c b4 3f
       0.2895273 1.3300444 0.3530386 1.4105494
0003f0 51 d3 00 bf 57 4f 2a 3f 23 ae a5 be 9e c9 6b be
       -0.50322443 0.66527313 -0.32359418 -0.2302613

product_embeddings_mlp.weight f4 [9256, 8]
000000 e4 63 c4 bf 24 81 6d bd 68 da 6b 3e 7c 11 23 c0
       -1.5342984 -0.057984486 0.23032534 -2.5479422
000010 b2 ac e2 bd 76 fa 48 3f 0e 5a dc 3e 67 3c be 3e
       -0.11068095 0.78507173 0.43037456 0.37155458
000020 3e 43 e4 bd a1 6a 9e 3e 11 58 2a 3e ce 7e 00 c0
       -0.11145638 0.30940726 0.16635157 -2.0077395
000030 58 0d 84 3f cd e8 0e 40 5a a6 9b 3e 4b fa 76 3f
       1.0316572 2.232959 0.30400354 0.96475667
000040 72 73 b0 bf 54 63 c9 be 0e d3 6d 3f 51 e8 39 bf
       -1.3785231 -0.39333594 0.9290017 -0.7262011
000050 f8 db d3 3b c5 b2 b5 bc 89 05 df bd b7 12 76 be
       0.0064654313 -0.02217997 -0.108897276 -0.24030577
000060 1b f3 a3 3f 04 ff cb bf 7d 28 95 3f 1a 8f bb bf
       1.2808565 -1.59372 1.1652981 -1.4653046
000070 50 17 01 3f 6e 53 2b be 66 34 63 be 48 e4 5f bf
       0.504262 -0.16731045 -0.22187957 -0.87457705
000080 9b cd 26 bd e2 fb 81 3f 74 ab 49 bf fa e4 ab be
       -0.040723424 1.0154994 -0.7877724 -0.33573133
000090 0e b4 e6 be cf 83 01 c0 fd 9f 80 bf 46 84 5c 3f
       -0.45059246 -2.02367 -1.0048825 0.86139333
0000a0 25 6b 19 3f 54 f2 6f bf fe 3b 88 bf 49 31 73 bf
       0.59929115 -0.9372914 -1.0643308 -0.9499708
0000b0 42 52 e4 3e 0b f9 64 3f 3c b0 17 bf bd 64 97 ba
       0.44594008 0.8944251 -0.5925329 -0.0011550408
0000c0 75 67 af bf 20 8c b9 bf 84 60 98 3e 82 af 4e 3f
       -1.3703448 -1.4495888 0.29761136 0.80736554
0000d0 a6 02 11 be 29 b3 33 3f 79 8c 94 3f 92 6c 32 3f
       -0.14161167 0.7019525 1.1605369 0.69696915
0000e0 bf d2 d1 bf 01 40 8c 3f fd 4c 8c 3f b4 ab 63 bc
       -1.639244 1.0957032 1.0960995 -0.013895918
0000f0 cc 2b 83 3f 8c e3 a7 be 7b 14 89 bf 58 bf 99 3f
       1.0247741 -0.32790792 -1.0709375 1.2011518
000100 76 7e 8e bf bf 73 63 be 13 53 7d bf 34 d8 34 bf
       -1.1132343 -0.22212122 -0.98954886 -0.706424
000110 ff 2b ff be 89 7c 6c bf ee e8 70 bf 6b 3a 03 c0
       -0.49838254 -0.92377526 -0.9410542 -2.0504405
000120 30 0f 92 3f e8 ea 98 3f 21 c3 99 3f 46 20 b1 bf
       1.1410885 1.1946688 1.2012674 -1.3837974
000130 d2 b7 af 3d f2 33 e2 3d 30 5b b2 3e 0f 9a 1a 40
       0.08579983 0.11045064 0.34835196 2.415653
000140 1a c3 81 3e 44 a7 36 3f a6 36 04 bf 44 1b 4b 3f
       0.25344163 0.7134898 -0.51645887 0.7933848
000150 ff e5 60 3f c7 d0 56 3f a9 da 3a bd 39 aa cb 3f
       0.87850946 0.8391232 -0.045618687 1.5911323
000160 e7 24 9b bf ae 70 61 3f 16 07 1f bf c0 8d b7 3f
       -1.2120637 0.8806256 -0.6212019 1.4340134
000170 3d 80 b9 3e 08 f4 e7 3e 13 20 8b bd fa 80 7a 3f
       0.3623065 0.4530337 -0.06793227 0.9785305
000180 f5 e1 4a be ba 00 60 bf 13 ee 7c bf 7a 9e 8c 3e
       -0.19812758 -0.8750111 -0.9880077 0.27464658
000190 a8 a9 63 3e db ea 61 bf bb 7c 2c be 31 56 a7 bf
       0.22232687 -0.88248986 -0.16844456 -1.3073179
0001a0 3a 6b f8 3d 76 d9 7c 3f 8d 46 4a bf fa 85 78 be
       0.12129827 0.9876932 -0.790139 -0.24269858
0001b0 40 52 e2 bf c1 10 e4 be 09 3f 28 bf b4 cd 20 bf
       -1.7681351 -0.44544032 -0.65721184 -0.6281388
0001c0 6f da 33 3e 4d 39 df be 30 18 57 3f e0 ca b0 3e
       0.17563795 -0.43598405 0.8402128 0.3452978
0001d0 87 bf 54 3f d9 30 bb 3e 59 20 5b bf b2 87 95 3d
       0.8310475 0.36560705 -0.85596234 0.073012725
0001e0 83 ab 30 3e 31 f3 13 bd aa 52 43 3f ed 28 2e 3f
       0.17252927 -0.036120597 0.7629801 0.680312
0001f0 6d ba 3f bf 8d 1c 6a 3f b0 1d 93 bf c0 61 22 3f
       -0.7489384 0.91449815 -1.1493435 0.63430405
000200 86 f4 9a be 9a a9 7e c0 8c 14 2b bf 55 f4 e4 be
       -0.30264682 -3.9791017 -0.6682823 -0.4471766
000210 62 91 fd be 41 42 66 3e 42 87 fd 3e e4 70 88 3e
       -0.4952498 0.22486211 0.49517256 0.2664863
000220 6a 36 2e be 95 2d 16 3f a3 eb 21 3f 2f c3 57 3f
       -0.17012945 0.586633 0.6325018 0.842822
000230 32 5a 1f 3f 93 bd 2c 3f cc eb ba bf 7d 4d 00 3f
       0.62247 0.6747677 -1.460321 0.5011824
000240 4b ec 29 be 66 91 14 3f 89 4f 25 bf 3a f5 a0 3f
       -0.16594045 0.5803436 -0.64574486 1.2574837
000250 ea 2d 10 3e e2 f9 5e be 79 c2 02 bf f6 d2 05 bf
       0.14080015 -0.2177501 -0.5107799 -0.52275026
000260 83 bc 0f bf 77 d8 ef be 7a d7 2d bf 67 be 7e 3e
       -0.5614702 -0.46844837 -0.67906916 0.2487732
000270 53 5b af 3f be cc 08 c0 f6 df 5c 3f 41 b3 8f bf
       1.3699745 -2.1374965 0.8627924 -1.1226579
000280 35 52 12 3f 1b 15 e7 bd da d5 c7 bf 61 4a 8a 3f
       0.5715669 -0.112833224 -1.5612137 1.0803949
000290 8d 6e 44 bf f4 22 f4 bf a2 56 a3 bf d6 7f dc be
       -0.7673119 -1.9073167 -1.2760813 -0.4306628
0002a0 1f 85 9c 3f 95 aa 60 3f 58 34 e1 3d 3f 7b 9a bf
       1.2228125 0.8776029 0.10996312 -1.2068862
0002b0 35 80 32 be 93 36 f2 bf 0c d9 41 bb bd 99 c0 be
       -0.1743172 -1.8922905 -0.0029578833 -0.37617293
0002c0 30 3c e4 3d 87 82 00 bf c2 ec 35 3f 98 19 8d bf
       0.11144292 -0.5019917 0.7106439 -1.1023436
0002d0 4a aa 78 3f bd 52 a9 3f 0e c0 64 3e 7e cb 9d bf
       0.9713484 1.3228375 0.22338888 -1.2327726
0002e0 2b f1 9c bf 55 77 00 3e fb ea c3 bf af 17 41 bf
       -1.2261099 0.12545522 -1.5306085 -0.75426763
0002f0 08 1c 8a 3d ad 69 97 3e fe 24 06 bf 14 31 8e bf
       0.06743628 0.29572812 -0.52400196 -1.1108727
000300 2c 13 c1 3d 94 11 52 3f ed 01 bc 3d 70 5a 93 3f
       0.09427485 0.8205807 0.09180055 1.1511974
000310 b1 ac 07 be eb 30 ef bd ac e2 54 3d ae 7a ed be
       -0.1324947 -0.11679252 0.051973984 -0.4638266
000320 0c 9e 27 40 f4 b7 e2 3e d4 7d c5 bf 59 c9 9e 3b
       2.6190214 0.4428097 -1.5429025 0.00484578
000330 35 5d 1f bf 4b d4 c5 3f e8 7c d5 3e cb 5c 3b 3f
       -0.622516 1.5455412 0.41696858 0.73188466
000340 5f 51 de bf a0 b3 66 3f 6e 11 90 bf a9 82 ca bd
       -1.7368582 0.90117836 -1.1255319 -0.09888203
000350 e6 1e e1 bd c2 1f e7 be 29 fa 1a bf 99 a8 24 bf
       -0.109922215 -0.45141417 -0.60537964 -0.6431976
000360 7e 31 dc 3d 0c 01 17 3f fa 7d 00 3d 68 5c 50 bf
       0.107516274 0.5898597 0.03137014 -0.81391
000370 a6 c1 0a bd 76 89 ad 3f d0 ce 87 be 60 ad 4e 3e
       -0.033876084 1.3557575 -0.26524973 0.20183325
000380 ba 09 ad 3e e7 98 07 3f bb 44 0a be ce f1 da 3c
       0.33796483 0.52967685 -0.13502781 0.02672663
000390 72 d2 c5 3e 62 c4 8e 3f 14 34 5a 3f 4c 27 9c 3d
       0.3863712 1.1153681 0.85235715 0.07624683
0003a0 b6 36 ba bf ca e3 bb bf 5f 5c 25 bf 4d 18 b2 3f
       -1.4547946 -1.4678891 -0.6459407 1.3913666
0003b0 67 c2 82 3f 84 7e 6c 3e 34 b5 02 bf ff f0 de 3d
       1.0215577 0.23095137 -0.51057744 0.1088581
0003c0 31 15 04 bf 51 69 39 bf ca 03 a4 be 14 0c 9f 3e
       -0.51594836 -0.72426325 -0.3203414 0.31063902
0003d0 04 3e fd be 04 6a 1e c0 af e4 5e 3f 26 f7 81 be
       -0.49461377 -2.4752207 0.87067693 -0.25383872
0003e0 f6 27 d3 3e 16 ba fc be fe 72 17 bf c8 03 36 bf
       0.41241425 -0.49360722 -0.5915984 -0.7109952
0003f0 5e 55 24 40 62 20 12 3e 19 dc 1d 3b 9c aa e6 3f
       2.5677104 0.14270166 0.0024087487 1.8020816

fc1_mlp.weight f4 [128, 16]
000000 91 0b ef bd e4 72 a7 3d 28 1e d9 bd 9a 80 27 be
       -0.11672128 0.081762105 -0.10601455 -0.16357651
000010 46 29 33 be 57 60 96 bd ea 58 5a 3e fe 6b e5 3d
       -0.17496213 -0.07342594 0.2132298 0.112022385
000020 6e 65 ed 3d 03 ad f6 bc de a2 e9 3d d8 bd 26 3d
       0.11591612 -0.030111795 0.114080176 0.040708393
000030 22 07 63 3b 48 fc eb 3c 54 b0 3b 3d a2 e3 4b be
       0.0034641703 0.02880682 0.045822456 -0.19911054
000040 c4 f1 3c bc 78 1d 02 3c 62 4b 58 bc e0 bf 5f be
       -0.011532251 0.007941596 -0.013201566 -0.21850538
000050 50 b0 f9 3d 2a ae f7 bd 3a b7 95 3d 6c 5b dc 3c
       0.12191832 -0.12093766 0.07310338 0.026899062
000060 70 38 fc 3d 8c 27 0b be a8 2e 4c be 90 e7 6f bd
       0.12315452 -0.13589305 -0.19939673 -0.058570445
000070 c4 ce 6f 3e 18 40 3c 3e 5a 50 e1 bd a9 2f 0a be
       0.23418719 0.18383825 -0.11001654 -0.13494743
000080 2a 26 1a be 4c 2a 53 be 48 16 5a bd 50 85 97 3d
       -0.15053621 -0.20621604 -0.053243905 0.07398474
000090 be 72 7c 3e d2 e6 7d bc c8 0c 27 be 6c ff 1a be
       0.24653146 -0.015496926 -0.1631347 -0.15136498
0000a0 ba 39 71 be c8 1a 26 3d 90 1d e1 bd 32 b7 a4 bb
       -0.23557177 0.040552884 -0.10991967 -0.0050267214
0000b0 9e e1 1c be 98 6d 1c 3e de 17 4a be b4 7a c1 3d
       -0.15320441 0.15276182 -0.19735667 0.09447232
0000c0 c8 4c 90 bd 5e a0 06 3e 62 11 78 be c0 c5 46 be
       -0.07045895 0.13147113 -0.24225381 -0.19411373
0000d0 d2 2f 20 be 64 08 27 be df 6a 34 3d 56 77 44 be
       -0.15643242 -0.16311795 0.044047233 -0.19186148
0000e0 16 bc 3a 3d 38 18 5a 3e c4 9b 53 bd a0 2d 12 3e
       0.04558953 0.21298301 -0.05166222 0.14275217
0000f0 00 12 71 3e 58 75 8d 3d b4 15 10 bd f8 d2 52 be
       0.23542023 0.06907147 -0.035176948 -0.2058829
000100 0c f8 2a 3e d6 b4 b1 bd da a2 1b be fe 6e 24 3e
       0.16696185 -0.0867707 -0.15198842 0.16057965
000110 98 2c 0f 3e b4 70 5a be 68 c1 55 bc b8 c3 eb bd
       0.13981855 -0.21332055 -0.0130466 -0.1151194
000120 ac ab 51 3e 5f 4c a7 3a b8 9e 33 be b6 21 7c 3d
       0.20475644 0.0012763849 -0.17541015 0.061555587
000130 ad 38 3e 3c 9d a0 84 3e 35 14 11 3d ed e6 bd bd
       0.011610192 0.25903788 0.03541966 -0.09272561
000140 86 38 62 3e de 63 aa bd d8 8f 4f 3e c0 cd b6 3d
       0.22091874 -0.083198294 0.20269716 0.089259624
000150 2a 99 94 bd ce 9b 42 bd bc af 8b 3d 0a 75 05 3d
       -0.07255776 -0.04751187 0.06820628 0.03258232
000160 1c 1a eb 3d cb bd 02 3d 6d 58 45 3d 4f 13 b7 3c
       0.11479589 0.031919282 0.048180033 0.022348074
000170 18 5d ea bd 09 3c 8c 3e 1a 4a 1c 3e f6 7b 26 be
       -0.114435375 0.27389553 0.15262643 -0.16258225
000180 50 9d 52 3d 07 bb e9 3c f6 47 16 be 02 d5 37 be
       0.051419556 0.028531564 -0.14675888 -0.1795235
000190 9e 5a 0f 3e 94 4e 02 3d 1e bc 28 be 34 fb 44 3e
       0.13999411 0.03181322 -0.16478011 0.19236451
0001a0 04 74 b4 bd 04 fe 35 3c 88 a6 35 3c 90 96 73 be
       -0.08811191 0.011107925 0.011087067 -0.23787904
0001b0 9e 0a 46 3e fd f4 9c bd 60 0e 29 3e 36 68 a1 3b
       0.19339988 -0.07663915 0.1650939 0.004925753
0001c0 12 25 3d be 8a 31 1f be fe 68 80 3c ae cc c6 3a
       -0.18471172 -0.15546241 0.015675064 0.00151672
0001d0 a4 ac 6f bd 9a 36 c1 3d 8c cc 0b 3e 1d 26 8a bb
       -0.058514252 0.094342425 0.13652247 -0.0042159692
0001e0 cc 5c 88 3e 2a f0 57 be 82 0e 68 3e c6 ef 44 be
       0.26633298 -0.21087709 0.22661784 -0.19232091
0001f0 28 a2 76 3d 73 0e 05 3e 14 d4 b8 3a cc c1 22 be
       0.060213238 0.12993793 0.001410129 -0.1589424
000200 42 b1 af bd 5a 1c 44 be f5 34 ca 3d c6 7f bd 3d
       -0.08578731 -0.1915144 0.09873382 0.092528865
000210 a2 9d 46 3e 32 54 53 bd ff 5f 8c be 1c a4 fd bc
       0.1939607 -0.051593967 -0.2741699 -0.030962043
000220 56 eb 72 bd 80 f8 4d be c2 3a 3d be 7a b3 2f 3e
       -0.059306465 -0.20114326 -0.18479446 0.17158309
000230 ec 08 f7 bd 90 86 ee 3d 2a 8e e8 3d 1c 1a 0d be
       -0.120622486 0.116467595 0.11355241 -0.13779491
000240 80 e4 fb bd 4a 1a 34 be 0c 97 c8 bd 45 97 c7 3d
       -0.12299442 -0.17588153 -0.09794435 0.09745649
000250 9b 0b 8c be 32 00 d3 bd 8a 60 17 3e b0 1a 2b be
       -0.27352604 -0.10302772 0.1478292 -0.16709399
000260 dc 80 17 be 0a d2 34 bd a2 c3 35 bc 3e 93 19 be
       -0.1479525 -0.04414562 -0.011094006 -0.14997575
000270 52 8f ee bc b6 95 af 3d 2c 87 5f 3c da b7 42 be
       -0.029121075 0.08573477 0.013643067 -0.19015446
000280 58 a8 cf 3d 4a 2d 5e be 3c 46 30 be c7 74 79 bd
       0.10139531 -0.21696964 -0.17214292 -0.060902383
000290 5a 7a cb bd 40 10 2d be 80 62 d5 bd e6 62 65 be
       -0.09935446 -0.1690073 -0.10419178 -0.22401008
0002a0 fa ff 6f bc e8 3c f0 3d 74 54 30 3e 14 76 73 3e
       -0.014648432 0.11730367 0.17219716 0.23775512
0002b0 08 e1 bb bd b0 3f 9e 3d 96 a8 9b 3d 9a ee ff bd
       -0.09173781 0.07726991 0.076005146 -0.124966815
0002c0 0e 8a 16 3b 8d 1d 81 3d b5 be b1 3a b4 7b 73 3e
       0.002297047 0.063044645 0.0013560863 0.23777658
0002d0 bb ce 02 3e a0 79 6c 3e 4e 55 e0 3d 8c 6f c7 3d
       0.12774174 0.23093271 0.109537706 0.09738073
0002e0 cc 6c 0e 3e 6c 0a 26 3e 58 35 3c bc 3c d7 0a be
       0.1390869 0.16214913 -0.0114873275 -0.13558668
0002f0 f8 3d cf 3d 1c 10 52 3e 20 2d a8 bd 1c 07 90 3d
       0.101192415 0.20513958 -0.08211732 0.07032606
000300 9c a4 4f 3e 66 2d 1c be 00 c8 70 3e f2 c3 3e 3e
       0.20277637 -0.15251693 0.23513794 0.18629435
000310 b2 f9 6f be d0 12 84 bc 68 47 20 be cf 0e 24 3d
       -0.23435095 -0.016122252 -0.1565224 0.040053185
000320 fd 6b 9f 3d f0 a0 3d 3d 1e fe 87 3d 9e 74 3f 3e
       0.07784269 0.04629606 0.06640266 0.1869683
000330 38 d5 3d be 5b 89 22 3c a1 84 5a bd 37 53 86 3e
       -0.18538368 0.009920443 -0.05334914 0.26235363
000340 ae 0a eb bd 9c 04 a7 3d 63 3a 85 3d 88 43 d8 3d
       -0.11476646 0.08155176 0.06505277 0.105597556
000350 e0 ea 51 3e 36 18 cb bd 8c eb 63 be 14 75 64 3e
       0.20499754 -0.09916727 -0.22257823 0.22310287
000360 08 3d 31 be 6e bd 11 be be 5c 7c 3d ff 19 84 be
       -0.17308438 -0.14232418 0.061611883 -0.25801083
000370 82 48 d2 3d 3e 31 e8 bd 20 ee 4c 3d d6 97 7f 3c
       0.10267736 -0.11337517 0.05003178 0.015600165
000380 48 d6 3e 3e dc 14 6d 3e 9a c9 7d bd 62 06 55 3e
       0.1863643 0.23152488 -0.06195984 0.20803216
000390 45 15 2f 3a 9a 1d 0e be 3c cc 52 3e 2c ba 66 3e
       0.00066788896 -0.1387848 0.20585722 0.22531956
0003a0 9c ec 21 be 2f d8 09 3e 06 c2 0e bd b6 72 e3 3d
       -0.15812916 0.13461374 -0.034853004 0.11105864
0003b0 b6 b8 4a be ba af 4f 3e 2a be 18 3e 5e 98 de 3d
       -0.19797024 0.20281878 0.14916292 0.108689055
0003c0 54 66 6f be 54 ea d4 3c 7c 7a 1d 3e cb e9 06 3e
       -0.23378879 0.025990643 0.15378755 0.13175122
0003d0 22 e8 1c 3e 54 a2 6e be f8 58 0d 3e 26 2f c9 bd
       0.15322927 -0.23304111 0.1380347 -0.09823446
0003e0 f9 49 fa 3d f2 9d fa 3d 45 99 a4 3c e0 3c 2c 3e
       0.122211404 0.12237157 0.020092616 0.16820097
0003f0 0a a9 cd bd ae c4 18 be 08 ca 67 be 34 09 21 be
       -0.10042007 -0.14918777 -0.22635663 -0.15726167

fc1_mlp.bias f4 [128]
000000 ce d3 20 3e 6a 85 48 3d 04 54 3d be 76 4b a8 bd
       0.15705797 0.04895536 -0.1848908 -0.08217518
000010 b8 9e 6b bb d6 f0 38 be 44 29 f2 bd b4 59 3a be
       -0.0035952758 -0.18060622 -0.11824277 -0.18198282
000020 02 ca dc bd 9c 9e 68 3e 38 8e bb 3c 5c 9f 06 3e
       -0.107807174 0.22716755 0.022894964 0.13146728
000030 d2 d1 0f 3e 04 65 23 be 1e 3e c1 3d a2 d3 08 be
       0.14044884 -0.15956503 0.09435676 -0.13361982
000040 50 9f d7 bd e2 b3 19 be 2e cf f1 3d 14 9f a6 3d
       -0.10528433 -0.15010026 0.118070945 0.081358105
000050 50 bd 36 3e 6a 6f 4d be 82 ec 17 3e ee 76 34 3e
       0.17845654 -0.20062032 0.14836314 0.17623493
000060 c4 4c 73 3e 76 cf db 3d 80 cb 66 3e 7a 1f d8 3d
       0.23759753 0.107329294 0.22538567 0.10552879
000070 fe d0 03 3d 64 02 23 3e 16 28 f1 bd 5c 97 35 be
       0.032181732 0.1591888 -0.11775224 -0.1773352
000080 9a 7e 67 3d 80 e0 50 be f0 42 6d be a0 e8 7b 3d
       0.05651722 -0.2039814 -0.23170066 0.061501145
000090 d0 af 9b bd 84 e8 2d bd c0 04 90 3d f6 9a 21 3d
       -0.07601893 -0.042458072 0.07032156 0.039454423
0000a0 50 c5 44 be b0 71 5f be ce 9b c5 3c 0b 9a e8 3c
       -0.19215894 -0.21820712 0.024122145 0.028393766
0000b0 36 f6 54 be d8 2e 9a 3d dc a7 41 be c0 a4 5a 3e
       -0.20797047 0.07528466 -0.1891169 0.2135191
0000c0 bc da 41 be 8a 66 5c be 16 d9 33 be 3a f2 2c 3e
       -0.18931097 -0.2152349 -0.1756328 0.16889277
0000d0 60 68 2c 3e 98 5e 34 bd d0 87 4c bd ae 1b 5c 3d
       0.16836691 -0.044035524 -0.04993421 0.053737335
0000e0 84 29 89 bd bc 0c e7 bd 06 81 15 be 10 2b 1c be
       -0.066973716 -0.11281726 -0.146 -0.15250802
0000f0 fe bf 3e be 82 8b ca 3d 48 df 4a 3c 48 74 20 3e
       -0.18627927 0.0988989 0.012382336 0.15669358
000100 09 f0 8c 3d e5 5d 0a bd b6 b7 26 be 89 98 cb bc
       0.068817206 -0.03378095 -0.16281018 -0.024853008
000110 10 34 0a be 5a dc ff bd 48 1b 26 3e c2 6b 60 3e
       -0.13496423 -0.124932006 0.16221344 0.21916106
000120 14 e4 36 be 30 10 3b be 56 0d ea bd 0f c0 87 3e
       -0.17860442 -0.18267894 -0.11428325 0.26513717
000130 ee 8b f1 bd e7 27 f7 3d da f0 37 be c4 94 02 3e
       -0.117942676 0.12068158 -0.17962971 0.12752062
000140 68 11 25 be c8 c9 0f be d6 5a 10 3e e0 be 1e be
       -0.16119921 -0.14041817 0.14097151 -0.155025
000150 26 e0 26 be a8 93 f8 3d 6c ea 15 3e 19 90 0d 3d
       -0.16296443 0.12137538 0.14640206 0.03456125
000160 da b8 ca bd 44 f3 4a be c4 6a c2 3d 04 82 57 3d
       -0.09898539 -0.19819361 0.0949302 0.052614227
000170 e4 39 18 be 5c 1b 52 3e 00 1e bf bb de 4c 85 be
       -0.14865834 0.2051825 -0.0058324337 -0.26035208
000180 32 7b d3 bc 98 01 b8 3d 2e 77 4a be e6 1e 66 be
       -0.02581558 0.08984679 -0.19772026 -0.22472724
000190 c2 ea 49 be d4 ff 67 be 54 e9 6c 3e e8 5d f8 bd
       -0.19718459 -0.22656184 0.23135883 -0.12127286
0001a0 57 65 f9 bd c9 ee 12 3d 7c c8 b4 bd 88 81 5c be
       -0.12177532 0.035872255 -0.08827302 -0.21533787
0001b0 f5 9f 8a 3d 42 1d 17 be d6 61 cf 3d cc dd 1e 3e
       0.06768791 -0.14757255 0.101260826 0.15514296
0001c0 ae 85 2c 3d f6 eb 19 be ef 35 b9 3a 6c 87 52 3e
       0.042119674 -0.15031418 0.0014130453 0.20559472
0001d0 02 cf c1 bc 2b a8 f6 3c 56 2b 0b 3e 9c 11 1f be
       -0.02365828 0.030109486 0.1359075 -0.15534061
0001e0 40 23 48 be 04 71 46 3e 90 73 3a 3e dc 54 38 3e
       -0.19544697 0.1937905 0.18208146 0.18001121
0001f0 e4 7c 4e 3e f0 8e 49 bd c2 ab 70 3e 3a cb cc 3d
       0.2016483 -0.04920858 0.2350302 0.099997

bn1_mlp.weight f4 [128]
000000 2e 4a 7c 3f 05 7d 80 3f 54 2f 80 3f 68 14 81 3f
       0.9855069 1.0038153 1.0014443 1.0084352
000010 66 6b 7a 3f ae 45 7b 3f f6 50 7b 3f 5e 7d 83 3f
       0.97820127 0.981532 0.9817041 1.0272634
000020 68 35 81 3f 0c 37 84 3f f8 50 7f 3f 7c 3a 82 3f
       1.0094423 1.0329299 0.99732924 1.0174098
000030 3c 4f 81 3f 3e 32 83 3f 3e ed 79 3f f8 08 81 3f
       1.0102305 1.0249708 0.9762763 1.0080862
000040 47 0e 84 3f 50 ba 83 3f 9d b5 7b 3f f7 54 80 3f
       1.0316857 1.0291233 0.98323995 1.0025929
000050 86 ca 80 3f 17 4a 7f 3f 62 21 83 3f c1 1a 7d 3f
       1.0061805 0.9972243 1.0244563 0.9886895
000060 e0 96 82 3f de 32 7c 3f 04 50 79 3f d4 30 7c 3f
       1.0202293 0.9851512 0.9738772 0.98512006
000070 0c 0f 82 3f 4d 4e 80 3f 20 51 7e 3f 16 8a 81 3f
       1.0160842 1.0023896 0.99342537 1.0120265
000080 52 93 7d 3f 2f d5 81 3f ee 5a 7a 3f d6 01 84 3f
       0.9905292 1.0143183 0.97795 1.031306
000090 8b d6 80 3f 5e c4 7c 3f 12 7e 75 3f 18 82 7a 3f
       1.0065473 0.9873713 0.95895493 0.9785476
0000a0 7a e5 7e 3f 2b 94 81 3f 88 0a 85 3f d8 6a 84 3f
       0.99568903 1.0123342 1.0393839 1.0345106
0000b0 19 54 83 3f 43 2a 80 3f 2a a9 78 3f 65 41 7c 3f
       1.026004 1.0012897 0.97133124 0.98537284
0000c0 84 0f 83 3f 1b 1a 7e 3f 54 d7 7d 3f 4e 68 7c 3f
       1.023911 0.99258584 0.9915669 0.98596656
0000d0 57 ca 80 3f 1e da 7c 3f a7 f1 80 3f bc 45 7d 3f
       1.0061749 0.9877032 1.0073746 0.9893453
0000e0 d9 49 85 3f fa 27 7c 3f 67 e3 7b 3f 69 d7 84 3f
       1.0413162 0.984985 0.98393863 1.0378238
0000f0 e1 da 7f 3f c6 1c 85 3f d0 47 80 3f 82 d7 82 3f
       0.9994336 1.0399406 1.0021915 1.0222018
000100 28 42 84 3f c1 68 81 3f e4 8d 81 3f 4e ea 7c 3f
       1.0332689 1.0110093 1.0121427 0.9879502
000110 b7 22 82 3f cd 65 7d 3f 3a 15 81 3f d3 8a 81 3f
       1.0166844 0.9898346 1.0084603 1.0120491
000120 1e 45 74 3f 56 0a 7d 3f 55 90 82 3f 2e a4 7f 3f
       0.95417964 0.98843896 1.0200297 0.99859893
000130 22 cf 7d 3f d5 42 80 3f 04 d5 7f 3f 15 b9 80 3f
       0.99144185 1.0020396 0.9993441 1.0056483
000140 94 ff 7c 3f d4 74 7f 3f 44 10 7c 3f 7a dd 80 3f
       0.9882748 0.9978764 0.9846232 1.0067589
000150 f6 f2 7c 3f 9e 5c 7d 3f a8 7e 79 3f 3c af 80 3f
       0.9880823 0.9896945 0.9745889 1.0053477
000160 a1 1c 81 3f 5c 97 73 3f f2 da 7f 3f 14 12 7b 3f
       1.0086862 0.9515283 0.9994346 0.9807446
000170 23 ee 7c 3f be cb 80 3f 2e 72 79 3f 5c f0 78 3f
       0.9880087 1.0062177 0.9743985 0.9724176
000180 51 df 82 3f 19 b7 80 3f ff f1 7d 3f 2e 88 81 3f
       1.0224401 1.0055877 0.9919738 1.0119684
000190 29 29 7c 3f a5 dd 81 3f 0a cb 80 3f 92 8f 80 3f
       0.98500305 1.0145766 1.0061963 1.0043814
0001a0 d1 4f 83 3f 67 f7 7a 3f 2c b6 7e 3f d0 57 79 3f
       1.0258733 0.98033756 0.9949672 0.97399616
0001b0 a9 47 81 3f f4 24 7b 3f a7 76 80 3f 6d 60 7a 3f
       1.0099994 0.9810326 1.003621 0.97803384
0001c0 4a a3 78 3f 98 5c 83 3f 78 27 7d 3f c4 47 81 3f
       0.9712416 1.0262632 0.9888835 1.0100026
0001d0 45 43 81 3f 74 04 7e 3f ed 88 7a 3f ae 02 78 3f
       1.0098654 0.99225545 0.9786518 0.9687909
0001e0 1c 06 80 3f cc 0f 82 3f 74 4f 80 3f c2 df 82 3f
       1.0001864 1.0161071 1.0024247 1.0224535
0001f0 46 3d 80 3f ca d2 82 3f 43 9a 7f 3f 0d a4 7c 3f
       1.0018699 1.0220578 0.9984476 0.9868782

bn1_mlp.bias f4 [128]
000000 ec 3c d9 bb e2 26 e3 3a 12 4e d8 3b bb 1c e8 3c
       -0.006629577 0.0017330314 0.0066011036 0.028334012
000010 e6 c9 cf bc 63 2d ca bc 98 02 8f bb 5b 0b f0 3c
       -0.025364827 -0.024679845 -0.004364323 0.02930229
000020 fa 5d 8e 3c ef 07 8d 3b f0 5f 45 bb 9d a1 bd 3c
       0.017378796 0.0043039243 -0.0030116998 0.023148352
000030 5b cd 37 bc 2d f2 c5 3c b0 4a 3a bc 22 2d 1e bc
       -0.011218394 0.02416333 -0.011370346 -0.009654315
000040 77 01 02 3c 6e 3a 01 bb df c0 31 bd 2e a2 0f bc
       0.00793492 -0.0019718665 -0.043396827 -0.008766694
000050 04 52 98 bb 66 60 a7 bc 55 f5 37 bc 83 86 a2 bb
       -0.004648449 -0.020431709 -0.011227925 -0.0049598827
000060 27 e0 b1 3b 4d 97 35 bc 75 a2 a3 bc b7 a4 84 b8
       0.0054283324 -0.011083436 -0.019974926 -6.324931e-05
000070 88 db f1 3b ea 00 f9 bb d6 f3 ab 3c 17 82 ba 3c
       0.0073809065 -0.007598986 0.020990293 0.02276711
000080 18 05 2e 3a 18 4a 62 3c d1 1a 0f bd c7 1f 9d 3b
       0.0006638332 0.013811611 -0.034937683 0.004795048
000090 62 dc ad bc 32 49 cc 39 73 d9 ea bc 3c a2 22 bc
       -0.02122325 0.00038964447 -0.028668141 -0.009926375
0000a0 6e 14 68 3c 0c 4a 04 3d 54 69 dc 3c a2 38 bc 3c
       0.014165027 0.03229718 0.026905693 0.022976223
0000b0 d5 f8 a5 3c 0b 1e b3 3c c6 22 69 bb 98 71 91 bb
       0.020260254 0.021864912 -0.0035573705 -0.0044385903
0000c0 ed 08 c3 3c 16 bb ab bc 9b 79 85 bb e5 e9 1b bd
       0.023807967 -0.020963233 -0.0040733344 -0.038064856
0000d0 42 d5 d3 3b df d9 bc bc 76 5e c0 3c 3d d2 41 3c
       0.0064646313 -0.023053108 0.023482542 0.01182991
0000e0 2d 0a 25 3d 81 20 b6 bc b0 e4 52 bc 18 bf c8 3b
       0.040292908 -0.022232296 -0.012871906 0.006126296
0000f0 da f3 37 3b 49 ff 83 3c 23 ae 81 3c ed 88 7d 3c
       0.002806893 0.01611294 0.015830105 0.01547454
000100 11 ec 1d 3d 11 e6 6c bb d6 b8 8a 3c b2 d3 71 3b
       0.03855521 -0.0036147872 0.01693384 0.0036899862
000110 e0 7e 29 bb 8b dd 95 3c 13 38 16 3c 8b 7b d4 3c
       -0.0025862977 0.018294116 0.009168643 0.025937816
000120 95 25 4e bd d9 70 b9 bc af b6 02 3b 32 15 ed bb
       -0.05032881 -0.022636818 0.0019945314 -0.0072351927
000130 9f 72 53 bc a3 8c 32 bc ba f2 14 bb 39 70 89 bb
       -0.012905746 -0.010897788 -0.0022727684 -0.004194286
000140 0d 8c 27 bc 8b d5 5c 3a 62 42 c1 3b 13 57 01 3b
       -0.010226262 0.00084241544 0.005897806 0.0019735738
000150 0a f2 7c bc 63 c2 27 3b 57 ce 14 bd bd fc b1 3b
       -0.015438566 0.0025598041 -0.036329594 0.00543174
000160 cf 7a 0f 3c 79 d1 30 bc 7c 40 99 3c 4e 95 c1 bb
       0.008757307 -0.01079213 0.018707506 -0.005907691
000170 4e 34 4e bc f2 fe e1 bb 52 fc 73 bc 8e f4 bd bc
       -0.012585713 -0.006896847 -0.014891701 -0.023187902
000180 07 2f c5 3c 49 5d 97 bc 41 9a 93 bc 44 ef f2 3b
       0.024070276 -0.018477099 -0.01801789 0.0074137766
000190 74 f2 09 3c 72 95 b7 3c e7 bc c6 3b 30 5b 50 3c
       0.008419622 0.022410128 0.0060649994 0.012717053
0001a0 45 23 01 3c 9f 77 0f bc bb dd 86 3b 88 f4 95 bc
       0.007881944 -0.008756547 0.004115788 -0.018305078
0001b0 7c 65 32 b9 6d a9 91 bc 6a f8 14 3c 8c 75 2b bc
       -0.00017013209 -0.017780984 0.00909243 -0.010465037
0001c0 52 38 eb bc 8a e9 4a 3c ab 52 95 3c a3 f5 aa ba
       -0.028713379 0.012384782 0.018227896 -0.0013043176
0001d0 e1 da ac 3c be 4f 25 3b 36 ee fb bc 15 64 a1 bc
       0.021100463 0.0025224532 -0.030753236 -0.019701043
0001e0 6e f0 95 bc 2d 07 98 3b ba b8 a9 bc fe a2 c9 3c
       -0.018303122 0.0046395273 -0.020717967 0.024613854
0001f0 d5 5e 38 bc f7 d3 7c 3c 25 e7 7a bc 4a 7c 63 bb
       -0.0112530785 0.015431396 -0.015313898 -0.0034711533

bn1_mlp.running_mean f4 [128]
000000 97 96 18 3e 23 47 28 3d e8 f0 30 be 0f 77 81 bd
       0.14901195 0.041083466 -0.17279398 -0.06321537
000010 08 ad 91 3c 72 08 27 be 71 43 06 be 90 4e 54 be
       0.017782703 -0.16311815 -0.13111664 -0.20733094
000020 3b 70 d0 bd e8 24 73 3e f2 bc 78 3d 4b c9 ec 3d
       -0.10177656 0.23744547 0.060727067 0.11561831
000030 0c 88 31 3e cf a4 40 be 1f 84 d5 3d 22 d1 14 be
       0.17337054 -0.1881287 0.10425591 -0.14532903
000040 82 c0 f2 bd e8 84 2b be 61 3d 0d 3e 01 83 a0 3d
       -0.11853124 -0.16749918 0.13792945 0.07837487
000050 89 e2 30 3e ff 93 33 be 97 7f 26 3e 47 a1 1b 3e
       0.17273916 -0.17536925 0.16259609 0.15198241
000060 e7 ec 58 3e d0 84 dc 3d 20 d4 61 3e 23 1e ed 3d
       0.21184121 0.107675195 0.22053576 0.11578014
000070 5f be 52 3d 57 0d 21 3e bd 87 0e be 81 03 2e be
       0.051451083 0.15727745 -0.13918968 -0.16993524
000080 5d e2 92 3d ee 25 4a be 3a 18 63 be f8 0a a9 3d
       0.071720816 -0.19741032 -0.2217721 0.08254045
000090 c8 e2 ab bd e1 03 8e bd 90 31 88 3d 28 96 2c 3d
       -0.083928645 -0.069343336 0.06650078 0.042135388
0000a0 1f 3d 34 be 02 9d 54 be 63 70 a6 3c 23 9a 5d 3c
       -0.17601441 -0.20763019 0.020317262 0.013525519
0000b0 27 36 71 be 72 8a a1 3d a5 61 50 be 70 c1 41 3e
       -0.23555814 0.078877345 -0.20349748 0.18921447
0000c0 4f 1b 23 be 04 93 5a be e7 e5 38 be 84 93 33 3e
       -0.15928386 -0.21345145 -0.18056451 0.17536741
0000d0 87 4c 2e 3e af 03 63 bd d7 53 35 bd 4b 50 f6 3c
       0.1702138 -0.055423435 -0.04426941 0.030067584
0000e0 24 bd c1 bd 81 6c c2 bd 9b e1 05 be db 99 25 be
       -0.09459904 -0.09493352 -0.13074343 -0.16171972
0000f0 be e9 2b be de 51 c7 3d 74 0a 84 3c 6a 57 18 3e
       -0.16788384 0.09732412 0.016118266 0.14877096
000100 a9 82 74 3d 23 e1 21 bd 9e 38 2f be 51 2b 2c bc
       0.05969492 -0.039521348 -0.17111441 -0.010508374
000110 1b 85 21 be 6f dd f1 bd 03 56 3e 3e 09 17 6c 3e
       -0.15773432 -0.11809813 0.18587498 0.23055662
000120 3a 1c 48 be 98 cb 1a be 83 ad d4 bd 35 0e 81 3e
       -0.19542018 -0.15116727 -0.10384657 0.25206152
000130 d7 a6 e4 bd d9 bf ef 3d ad 56 1c be c1 5d d6 3d
       -0.11164635 0.11706514 -0.15267439 0.10467101
000140 21 44 38 be ed 17 ff bd 6a b6 25 3e 14 e9 0a be
       -0.17994739 -0.12455735 0.16182867 -0.13565475
000150 43 66 20 be a4 f7 db 3d 53 e6 05 3e 1e 52 0d 3d
       -0.1566401 0.10740593 0.13076143 0.03450214
000160 bb 44 ad bd 9d 32 4d be 74 2e af 3d e9 00 88 3d
       -0.08460375 -0.20038839 0.08553782 0.066407986
000170 c3 98 1f be 1e 6f 3c 3e 6e 6c 21 bb 10 30 8f be
       -0.15585618 0.18401763 -0.002463128 -0.27966356
000180 65 c7 46 bd 00 90 c6 3d 81 15 42 be 6a 39 7e be
       -0.04853 0.096954346 -0.18953516 -0.24826589
000190 03 69 50 be 10 26 46 be f2 a1 3f 3e 91 be ce bd
       -0.20352559 -0.19350457 0.18714121 -0.100949414
0001a0 a2 ae f4 bd c5 5a cc 3b a6 2b d9 bd 08 78 49 be
       -0.11947371 0.0062364065 -0.106040284 -0.19674695
0001b0 ea 01 a2 3d d2 a3 00 be 5d d2 d6 3d 07 12 3e 3e
       0.07910521 -0.12562492 0.10489342 0.18561564
0001c0 d3 bd 4a 3d 9e 10 0c be 27 15 92 3c 93 0c 75 3e
       0.049497437 -0.13678214 0.017832352 0.23930578
0001d0 f8 85 f6 ba 06 25 04 3d 51 15 03 3e 6f 62 1d be
       -0.0018808236 0.03226187 0.128011 -0.1536958
0001e0 96 a4 40 be 08 c4 48 3e da d1 3e 3e 2c c5 2b 3e
       -0.18812785 0.1960603 0.1863474 0.16774434
0001f0 2c 9e 4c 3e 30 b4 98 bd 93 46 70 3e 8c c2 cd 3d
       0.19982213 -0.07456243 0.23464422 0.100468725
